temp_morel/policy2/policy.pt (torch, 46142 bytes, 12 tensors)

var f4 [4]
0.13990586 0.19708739 0.062380325 0.1798934
00000000: 7b43 0f3e 47d1 493e 8382 7f3d fa35 383e

h0.weight f4 [64, 14]
-0.05567991 0.18276407 -0.19325426 0.029882181 0.060587466 0.24471182 0.012128669 0.037363805
-0.14008184 -0.09983534 0.02992206 0.013613416 -0.23162301 -0.20467183 -0.050542776 -0.2624012
0.25667128 -0.17702258 0.09899459 -0.14183341 -0.1420686 -0.17251381 -0.008994326 0.03212902
-0.090253234 0.066720955 0.14529845 -0.022024782 0.27531946 -0.16860801 0.1625811 -0.014516386
0.005487583 -0.043616597 -0.117998734 -0.11716297 -0.16591841 0.20182618 -0.093068436 -0.035604052
0.12390978 -0.05434971 0.2820388 -0.17860232 0.166299 -0.17921656 -0.015430985 0.05055443
0.05390411 -0.21972866 -0.057372518 -0.26954165 -0.16986014 -0.27443063 -0.06574275 -0.16681916
0.23471673 0.101979375 -0.0004824466 0.27117527 -0.20369549 -0.15125006 0.09556866 -0.093511544
-0.26620185 0.09352833 0.1560702 0.050990403 -0.03968078 0.23698384 0.058942363 0.053494345
0.10154008 0.22412243 0.024676166 -0.12802075 0.23285939 0.062091067 0.026178142 0.056487452
0.13730995 -0.058402285 0.18125983 0.048639808 -0.29695582 0.00396185 0.0750645 0.066940986
-0.24396203 0.088614404 0.09908415 0.13447836 0.162264 -0.03065171 -0.18869188 0.15602118
-0.15268956 0.14345402 -0.07999282 -0.06421006 -0.18103094 0.024263563 0.2143625 0.21832936
-0.08066127 -0.05447481 0.07701909 -0.04294471 0.228267 -0.022118555 0.110491686 0.10913691
0.114636295 -0.2333551 0.17495164 -0.32159 -0.041916966 -0.117936455 -0.047124796 0.026507504
-0.09872699 0.06845613 -0.14276539 -0.093514815 0.2442517 0.19713275 0.23391111 0.2850183
0.06875157 -0.10345831 0.0077980584 0.14582385 0.13695979 0.10237834 0.2528401 0.17887735
-0.025393378 0.037030827 -0.0031412533 -0.20130567 -0.29620132 0.05860728 0.23501119 0.18683478
-0.12050124 -0.15126516 -0.25270656 0.23033936 0.12092819 0.1995155 -0.16209301 0.058419894
0.016303651 -0.24970557 -0.26264876 0.17469178 -0.14028116 0.015975632 0.17779313 -0.27904835
0.1855922 0.12765387 -0.24138874 -0.21711364 -0.20405325 -0.060764972 -0.12721059 -0.22179057
-0.103046864 0.19190833 -0.13500316 -0.2016432 -0.24712387 0.16044682 -0.051252577 0.063976735
-0.04041724 0.14826171 0.09938085 -0.030433815 0.06064339 0.04421199 -0.19299355 0.14203805
-0.07266095 -0.007469021 -0.10256366 -0.24256296 -0.10975292 -0.15873823 0.23009722 -0.11909042
-0.21796496 0.19069648 0.25238103 -0.21537301 -0.046612605 0.102778606 0.20259982 0.08191299
0.17632188 -0.0659125 0.24360804 -0.14839955 0.09650447 0.06312621 -0.1476003 -0.13523418
-0.11166742 -0.1081204 0.059978142 -0.065473564 0.01523133 -0.15742128 -0.12212981 -0.23659483
0.15753965 0.11280618 0.14478166 -0.22079529 -0.09519721 -0.11284194 -0.16777365 -0.059441764
-0.13979231 -0.1622143 -0.121201366 0.18604364 0.08399243 0.21214813 -0.14396608 -0.106506735
0.011482353 0.14719492 0.10093443 -0.101052105 -0.1146404 0.095760316 -0.008777513 0.15506782
0.12937085 -0.2432886 -0.22443272 -0.04042879 -0.11074622 -0.21820442 -0.14616291 0.01878763
0.12540145 -0.11950922 0.029675405 0.24039564 0.025289671 0.27564684 -0.20333953 0.23723815
00000000: 9e10 64bd 8126 3b3e 72e4 45be 7acb f43c
00000010: 902a 783d bc95 7a3e 53b7 463c ca0a 193d
00000020: 9d71 0fbe 7976 ccbd 1c1f f53c ce0a 5f3c
00000030: 952e 6dbe 7e95 51be f105 4fbd 7359 86be
00000040: 6b6a 833e 6845 35be adbd ca3d c73c 11be
00000050: 6e7a 11be 76a7 30be f05c 13bc b899 033d
00000060: b0d6 b8bd ffa4 883d 1ec9 143e 516d b4bc
00000070: acf6 8c3e 94a7 2cbe a97b 263e 23d6 6dbc
00000080: 2fd1 b33b 51a7 32bd 52a9 f1bd 24f3 efbd
00000090: 84e6 29be 86ab 4e3e aa9a bebd 8ed5 11bd
000000a0: 69c4 fd3d cd9d 5ebd 6467 903e 87e3 36be
000000b0: 494a 2a3e 8c84 37be 3ed2 7cbc 2912 4f3d
000000c0: 8eca 5c3d 8d00 61be 72ff 6abd 5d01 8abe
000000d0: d1ef 2dbe 2c82 8cbe 23a4 86bd a4d2 2abe
000000e0: 9559 703e 90da d03d e3f0 fcb9 7cd7 8a3e
000000f0: 8d95 50be 4ce1 1abe 80b9 c33d fb82 bfbd
00000100: 9c4b 88be c88b bf3d ded0 1f3e 50db 503d
00000110: 5088 22bd e4ab 723e 8c6d 713d e31c 5b3d
00000120: 3ff4 cf3d 5a80 653e ac25 ca3c df17 03be
00000130: b172 6e3e 3453 7e3d 8b73 d63c 635f 673d
00000140: fb9a 0c3e 3c37 6fbd 2d9c 393e 893a 473d
00000150: 980a 98be 68d2 813b 6bbb 993d 5b18 893d
00000160: 2fd1 79be 787b b53d a1ec ca3d b2b4 093e
00000170: 8928 263e 4c19 fbbc 7238 41be 04c4 1f3e
00000180: a75a 1cbe 9ce5 123e 47d3 a3bd 9080 83bd
00000190: 2d60 39be 61c4 c63c d881 5b3e bb91 5f3e
000001a0: bc31 a5bd fa20 5fbd 2fbc 9d3d cbe6 2fbd
000001b0: d3be 693e f931 b5bc 7749 e23d 2c83 df3d
000001c0: 6fc6 ea3d a4f4 6ebe 8626 333e 72a7 a4be
000001d0: 20b1 2bbd ab88 f1bd ee05 41bd 4426 d93c
000001e0: 6031 cabd ba32 8c3d 1731 12be b284 bfbd
000001f0: 1e1d 7a3e 2bdd 493e 6586 6f3e ebed 913e
00000200: a0cd 8c3d f3e1 d3bd db86 ff3b d952 153e
00000210: 303f 0c3e bcab d13d 4274 813e a02b 373e
00000220: c605 d0bc a3ad 173d 7cdd 4dbb 1323 4ebe
00000230: b3a7 97be 300e 703d c6a6 703e 9e51 3f3e
00000240: 5bc9 f6bd 41e5 1abe c162 81be 15de 6b3e
00000250: 33a9 f73d cb4d 4c3e b6fb 25be b349 6f3d
00000260: 3c8f 853c d1b2 7fbe e679 86be 67e2 323e
00000270: dda5 0fbe 54df 823c 670f 363e 6ddf 8ebe
00000280: e20b 3e3e b2b7 023e 9c2e 77be 0a53 5ebe
00000290: 56f3 50be b1e4 78bd 7e43 02be 111d 63be
000002a0: 3c0a d3bd 9e83 443e 453e 0abe 8e7b 4ebe
000002b0: 0a0e 7dbe 2c4c 243e 39ee 51bd 3c06 833d
000002c0: 8c8c 25bd ebd1 173e 3088 cb3d 5650 f9bc
000002d0: 3465 783d a217 353d 1aa0 45be 6c72 113e
000002e0: 44cf 94bd b0be f4bb e50c d2bd 6d62 78be
000002f0: 24c6 e0bd 468c 22be 9b9e 6b3e aee5 f3bd
00000300: 3532 5fbe f045 433e 1638 813e be8a 5cbe
00000310: dcec 3ebd 977d d23d 5476 4f3e ffc1 a73d
00000320: b98d 343e 22fd 86bd 6374 793e 0df6 17be
00000330: 23a4 c53d 5048 813d 8824 17be d47a 0abe
00000340: e3b1 e4bd 3a6e ddbd a4ab 753d 0117 86bd
00000350: d48c 793c 0b33 21be 321f fabd ea45 72be
00000360: 1352 213e ed06 e73d a541 143e 2918 62be
00000370: c1f6 c2bd ad19 e7bd dbcc 2bbe 3579 73bd
00000380: b725 0fbe 811b 26be 6c38 f8bd 3982 3e3e
00000390: 3904 ac3d 5c3d 593e d86b 13be 3420 dabd
000003a0: 7b20 3c3c 44ba 163e b6b6 ce3d 68f4 cebd
000003b0: 96c8 eabd fc1d c43d 8fcf 0fbc 19ca 1e3e
000003c0: cb79 043e a620 79be b1d1 65be a998 25bd
000003d0: eace e2bd fb70 5fbe bbab 15be 84e8 993c
000003e0: 3d69 003e 40c1 f4bd d619 f33c 462a 763e
000003f0: 492c cf3c 9521 8d3e 3d38 50be 8fee 723e

h0.bias f4 [64]
0.07131564 -0.15943815 -0.09769504 -0.13781682 0.096492924 0.0713371 -0.018960798 -0.15619136
-0.09472492 0.09619915 -0.052776035 0.1751027 0.16957478 0.18552913 0.06542713 0.17395541
-0.1909959 0.19507173 0.20638305 -0.17916328 -0.22347647 -0.18086658 0.22211269 0.025016215
-0.08761796 -0.1279276 -0.21864213 0.23430532 0.21445796 -0.037157312 -0.21160072 -0.18947946
0.23138677 -0.009453676 -0.15283945 0.16400898 0.17233744 -0.16705173 -0.08697858 -0.18621264
-0.11034989 0.12276809 -0.22319838 -0.07700724 -0.024519945 0.15143158 0.17808504 0.27873695
0.08359993 -0.076746024 -0.24211974 -0.12568556 -0.10440242 0.25037062 0.009885009 -0.2482434
0.07951992 -0.06894495 0.08306864 -0.1740771 -0.22823417 0.085277274 -0.18153353 -0.10607572
00000000: ef0d 923d c143 23be 5614 c8bd da1f 0dbe
00000010: 159e c53d 2f19 923d ad53 9bbc a1f0 1fbe
00000020: 24ff c1bd 0f04 c53d af2b 58bd 1f4e 333e
00000030: 03a5 2d3e 59fb 3d3e a9fe 853d 5e21 323e
00000040: 6e94 43be e2c0 473e 1456 533e 9476 37be
00000050: 04d7 64be 1735 39be 8271 633e ceee cc3c
00000060: 0c71 b3bd 74ff 02be b9e3 5fbe bced 6f3e
00000070: de9a 5b3e 4432 18bd dcad 58be e706 42be
00000080: a7f0 6c3e 97e3 1abc f281 1cbe f8f1 273e
00000090: 3a79 303e 9c0f 2bbe d321 b2bd 87ae 3ebe
000000a0: 20ff e1bd d66d fb3d 1e8e 64be f9b5 9dbd
000000b0: 0dde c8bc e110 1b3e ed5b 363e 9cb6 8e3e
000000c0: 7136 ab3d 052d 9dbd 3dee 77be b7b3 00be
000000d0: f0d0 d5bd 9430 803e bcf4 213c 8533 7ebe
000000e0: 57db a23d 0333 8dbd e41f aa3d 4441 32be
000000f0: 38b6 69be daa5 ae3d ede3 39be 3a3e d9bd

h1.weight f4 [64, 64]
0.077332266 -0.061917838 -0.07365307 -0.066184364 0.12896508 0.03109162 -0.07897301 0.067009136
0.08697963 -0.04585631 -0.091680616 -0.07082286 0.00071647303 -0.024381654 -0.07106649 0.10699948
-0.031214714 -0.009308732 -0.10867765 -0.070848115 -0.035250288 0.054047152 0.06735681 0.017016407
0.10605025 -0.09762413 0.03407517 0.13512675 -0.044598956 -0.01927828 0.09884566 -0.08937945
0.07774901 0.112735555 -0.055088665 -0.03843469 0.06058729 -0.010204828 -0.005979835 0.018028712
-0.018232012 0.033203475 0.12939829 -0.06331924 0.059592824 0.010153778 0.11542083 -0.0055418294
0.08842299 0.11181139 0.0042021703 0.035483975 -0.013348375 -0.022037214 0.13306478 -0.038577314
-0.08374831 -0.0025403006 -0.04133209 0.053833235 0.032181546 0.06719728 0.10498349 0.05110461
0.008976901 0.1029428 -0.017096017 -0.10470009 -0.069314525 0.070984684 0.024601094 0.08913363
-0.0024904704 -0.037492573 0.03004933 0.030086288 0.006246795 0.0541817 -0.12045793 0.040333852
0.09455768 0.16477762 0.017010069 -0.15310429 0.071259536 0.080659024 0.10920957 -0.07421542
0.14626355 -0.08750065 0.08606062 -0.059122816 0.018186165 -0.09980561 -0.046908606 -0.15995911
0.13282557 -0.030436454 0.034246486 0.044788074 -0.06722984 0.07812528 0.047858033 -0.061230164
0.078524046 0.024023892 0.08072726 -0.05945501 -0.12815571 -0.088875055 0.030115474 -0.06285089
0.091731705 0.053147368 0.042888593 0.04688009 -0.1151774 -0.07825489 -0.043082647 -0.14574489
-0.012126632 0.12646416 -0.108324565 -0.07602971 0.04395515 -0.0036651618 -0.009286545 -0.005893007
-0.092717975 0.045585018 0.11794371 -0.018599428 -0.027019458 0.011045408 0.05201155 0.07409961
0.0056756046 0.12592967 -0.05759096 -0.024192091 -0.078010455 -0.0063776174 -0.056681957 0.11793553
-0.05674078 -0.108366184 0.046117637 -0.061128918 0.004218985 -0.039276123 0.02075325 -0.007108669
-0.05215295 -0.008106411 -0.06788468 -0.14709364 0.1081144 -0.09835041 0.021253439 0.012862792
-0.042530652 0.02752953 0.079603955 0.08040858 0.076203495 -0.005726438 0.09102128 0.101673655
0.09625138 -0.06551054 0.011156926 -0.12935315 -0.010921371 0.029004127 0.0616452 0.07632849
0.06657597 0.043293446 -0.108744025 -0.11808125 0.07455491 -0.028333709 0.036114365 -0.0038142717
0.037493248 -0.008661854 -0.10634298 0.078657605 0.0019542375 -0.0348414 -0.0015031922 -0.013902674
-0.07579202 0.09153627 -0.08622685 -0.087754846 0.09266358 -0.06657115 -0.03085379 0.031444415
0.09584648 0.059122257 -0.030456398 -0.0245875 0.057737645 -0.030903246 0.012611502 -0.018441856
-0.052217834 0.119907886 -0.080646425 0.020576533 -0.088538714 0.07540383 -0.07140328 -0.05832347
-0.087421834 -0.07329248 0.080264755 0.0023395766 0.08451235 0.0049596205 -0.119382784 -0.10068602
0.031127136 -0.062732235 0.06573778 -0.15014921 -0.07196854 0.043520667 0.029041074 -0.025198814
0.033007015 -0.0883446 0.0830563 -0.034403186 -0.07505732 0.11064547 -0.023170302 0.006670694
0.06615538 -0.020939471 -0.058236904 0.053620372 -0.09061725 -0.009478295 -0.087808296 -0.15837795
-0.04064364 0.035968322 0.044125255 -0.10733623 0.004589027 0.08164573 -0.020555595 -0.0050569796
00000000: 6160 9e3d 8f9d 7dbd 6cd7 96bd ab8b 87bd
00000010: 6c0f 043e dab3 fe3c 9abc a1bd 163c 893d
00000020: 6022 b23d d3d3 3bbd 0cc3 bbbd 930b 91bd
00000030: b1d1 3b3a 09bc c7bc 4f8b 91bd 8b22 db3d
00000040: 00b6 ffbc a783 18bc 6392 debd d118 91bd
00000050: 9b62 10bd 8c60 5d3d 5ef2 893d fe65 8b3c
00000060: e030 d93d 29ef c7bd 6892 0b3d ab5e 0a3e
00000070: 65ad 36bd 7ced 9dbc 986f ca3d 930c b7bd
00000080: df3a 9f3d e6e1 e63d a7a4 61bd b26d 1dbd
00000090: 612a 783d 2732 27bc 7ef2 c3bb f3b0 933c
000000a0: 4d5b 95bc 5e00 083d fc80 043e 85ad 81bd
000000b0: 9b17 743d 085c 263c c261 ec3d 3c98 b5bb
000000c0: 1d17 b53d 5ffd e43d 5cb2 893b a557 113d
000000d0: 25b3 5abc 6387 b4bc 2242 083e 3f03 1ebd
000000e0: 3c84 abbd 2c7b 26bb d64b 29bd 3d80 5c3d
000000f0: ccd0 033d ba9e 893d 9601 d73d 1153 513d
00000100: da13 133c add3 d23d f20c 8cbc 006d d6bd
00000110: c6f4 8dbd 6b60 913d 3c88 c93c b18b b63d
00000120: 2937 23bb d091 19bd 032a f63c 8577 f63c
00000130: eab1 cc3b a1ed 5d3d a6b2 f6bd 1c35 253d
00000140: 75a7 c13d 77bb 283e b358 8b3c 5fc7 1cbe
00000150: 85f0 913d 8f30 a53d 44a9 df3d 41fe 97bd
00000160: 1dc6 153e 8a33 b3bd 8d40 b03d c42a 72bd
00000170: 27fb 943c e266 ccbd 3d23 40bd 52cc 23be
00000180: 6d03 083e df55 f9bc 0b46 0c3d b373 373d
00000190: ccaf 89bd 2600 a03d c906 443d 7bcc 7abd
000001a0: 37d1 a03d c1cd c43c 5554 a53d 1987 73bd
000001b0: 403b 03be 2004 b6bd bab4 f63c f8b7 80bd
000001c0: d5dd bb3d 0eb1 593d f3ab 2f3d 5605 403d
000001d0: 21e2 ebbd 1a44 a0bd 6e77 30bd 263e 15be
000001e0: c8ae 46bc d27f 013e 45d9 ddbd 77b5 9bbd
000001f0: 510a 343d 3633 70bb 9826 18bc 201a c1bb
00000200: ece2 bdbd 5bb7 3a3d 798c f13d d45d 98bc
00000210: e957 ddbc cdf7 343c 100a 553d 89c1 973d
00000220: 6cfa b93b b5f3 003e 80e4 6bbd 7e2e c6bc
00000230: f2c3 9fbd 55fb d0bb 572b 68bd 2f88 f13d
00000240: 0569 68bd 17ef ddbd d9e5 3c3d 5162 7abd
00000250: 693f 8a3b 00e0 20bd b802 aa3c d6ef e8bb
00000260: 559e 55bd c1d0 04bc 2007 8bbd b79f 16be
00000270: 156b dd3d f16b c9bd b11b ae3c 76be 523c
00000280: 9f34 2ebd 9c85 e13c 6607 a33d 41ad a43d
00000290: 9410 9c3d d8a4 bbbb 5d69 ba3d 473a d03d
000002a0: 721f c53d 642a 86bd 8acb 363c 2775 04be
000002b0: 8def 32bc 109a ed3c ad7f 7c3d 1d52 9c3d
000002c0: fb58 883d 7854 313d 30b5 debd 95d4 f1bd
000002d0: 3fb0 983d 181c e8bc a8ec 133d dcf8 79bb
000002e0: 8592 193d 73ea 0dbc 59ca d9bd 3d17 a13d
000002f0: aa12 003b dbb5 0ebd c306 c5ba 0bc8 63bc
00000300: d938 9bbd 5e77 bb3d b497 b0bd d0b8 b3bd
00000310: 67c6 bd3d 7556 88bd 16c1 fcbc dccb 003d
00000320: 294b c43d 2e2a 723d b27f f9bc ba6b c9bc
00000330: 4f7e 6c3d ce28 fdbc 79a0 4e3c 6013 97bc
00000340: 5ee2 55bd 4492 f53d f429 a5bd 1e90 a83c
00000350: c953 b5bd 536d 9a3d e23b 92bd 97e4 6ebd
00000360: 380a b3bd 5e1a 96bd d961 a43d 9553 193b
00000370: d014 ad3d 5084 a23b f67e f4bd 7934 cebd
00000380: 56fe fe3c c279 80bd 87a1 863d b7c0 19be
00000390: 3e64 93bd ba42 323d 8ce7 ed3c be6d cebc
000003a0: 5d32 073d 03ee b4bd 6c19 aa3d 5bea 0cbd
000003b0: a7b7 99bd 189a e23d a5cf bdbc d695 da3b
000003c0: 797c 873d 4189 abbc d289 6ebd 09a1 5b3d
000003d0: 8995 b9bd da4a 1bbc d6d4 b3bd d42d 22be
000003e0: f279 26bd 8553 133d afbc 343d 19d3 dbbd
000003f0: 8c5f 963b e035 a73d 3564 a8bc 05b5 a5bb

h1.bias f4 [64]
0.13833405 0.07767792 -0.13061921 -0.025499506 -0.058012486 -0.012318015 0.0835937 0.01717985
0.019273035 0.07863763 0.040857647 -0.05875539 -0.03085806 -0.12715968 -0.09912981 -0.10308888
-0.07572543 0.03176712 -0.056128923 -0.051653888 0.066393696 0.0019288707 0.07220604 0.016781438
-0.025458684 -0.12118331 0.108078204 -0.086653315 0.056047443 0.050921366 -0.012992072 -0.13191555
-0.07175316 0.0013117812 -0.046942264 -0.10355738 0.070598565 0.12821096 -0.0167763 0.07578199
-0.0354606 0.03559664 0.06548128 -0.05239106 0.017524475 0.13691543 -0.14602362 0.14220284
0.06895211 0.0893103 0.07999319 0.07015503 -0.019016242 -0.11113799 -0.06216775 -0.08942434
-0.058351047 0.041909218 0.09687567 -0.036265615 0.03896676 0.011621038 0.13512972 0.008968229
00000000: 71a7 0d3e 9a15 9f3d 0bc1 05be 57e4 d0bc
00000010: 809e 6dbd 80d1 49bc 2c33 ab3d c2bc 8c3c
00000020: 7ce2 9d3c c40c a13d 595a 273d 7ea9 70bd
00000030: 0bca fcbc 2636 02be 9204 cbbd 4320 d3bd
00000040: ef15 9bbd 3d1e 023d 71e7 65bd 0793 53bd
00000050: 6bf9 873d 29d2 fc3a c3e0 933d 3a79 893c
00000060: bb8e d0bc f52e f8bd 1b58 dd3d 4b77 b1bd
00000070: 0192 653d ec92 503d b3dc 54bc df14 07be
00000080: 52f3 92bd 13f0 ab3a 8846 40bd e415 d4bd
00000090: fb95 903d bc49 033e 736e 89bc 9733 9b3d
000000a0: 223f 11bd c8cd 113d 0d1b 863d 0298 56bd
000000b0: 7d8f 8f3c 8f33 0c3e 3787 15be 9f9d 113e
000000c0: c436 8d3d 52e8 b63d 78d3 a33d 71ad 8f3d
000000d0: f3c7 9bbc 519c e3bd 9ca3 7ebd 1c24 b7bd
000000e0: 8201 6fbd 00a9 2b3d c066 c63d 418b 14bd
000000f0: 9c9b 1f3d 2b66 3e3c 725f 0a3e 7bef 123c

output_layer.weight f4 [4, 64]
0.023547832 0.0475008 -0.06729484 0.05825515 -0.060422767 -0.070825934 0.018071482 -0.01460697
0.04998531 -0.02675825 0.036014773 0.059389617 0.089692764 -0.007302206 0.037635718 0.018949026
0.045083214 0.015953803 -0.07446002 0.019007191 -0.04303404 -0.08434957 0.051753547 0.0747049
0.02859621 0.02527809 -0.038377196 0.06251909 -0.076755874 -0.01948213 0.10459507 -0.030502627
0.07610513 0.06354859 0.06952362 -0.0012204167 0.005614006 -0.104628555 0.0890912 0.028774548
0.045293473 -0.08942476 -0.08601612 0.0033268104 0.04439299 -0.077593155 0.031921737 -0.08636172
-0.045588598 -0.003061116 -0.099631935 0.012106466 -0.060701575 0.09017085 0.02012851 -0.04237531
0.03904216 -0.051740885 -0.04044535 0.099120356 -0.017901622 -0.044364173 0.023657762 0.03761894
-0.077480346 -0.08844161 0.07869776 -0.078399904 0.09986861 -0.100443214 0.036222402 0.06932375
0.06016427 -0.118496746 0.077192016 -0.09985227 -0.06743072 0.030338196 0.008234296 0.03646964
0.04744314 0.11416363 -0.055474486 0.050215583 0.061062355 -0.014938109 0.016425416 0.006374761
-0.027708778 0.13024849 0.069892354 -0.070088126 -0.049358968 0.005031181 -0.11154774 0.13965045
0.007123335 -0.02015602 -0.022612227 -0.12315063 -0.06347987 0.0046686213 -0.0179856 -0.11052062
0.028069137 0.12619068 -0.081924684 0.0119611425 0.09978609 -0.093973525 0.03410792 -0.03769489
0.012990946 -0.09792661 0.011009543 -0.02396532 -0.08475244 0.120347455 -0.11662007 0.047010593
-0.017810531 -0.012567312 -0.1246107 -0.08357997 -0.1024773 0.053441495 -0.09231494 -0.012835661
-0.030325597 -0.023108844 0.08919758 0.06260691 -0.05759488 0.06652548 -0.026234737 0.050039973
0.083325535 -0.08631091 0.061909687 0.08147554 -0.022856979 0.067359455 0.078501195 0.04530079
0.03893771 0.046965998 -0.010704273 0.06557841 0.062091757 -0.09386351 0.021638975 0.024454206
-0.029056096 0.053139262 -0.06797266 0.12994564 0.103787005 -0.02214612 -0.10696171 0.087646335
-0.052554715 0.027404917 0.059387103 0.10559365 0.06998601 -0.096748434 -0.038559515 0.054520223
0.020234957 0.031111464 -0.07983956 0.08680842 0.04284367 0.0051768455 0.08552992 0.034396388
-0.017657645 -0.023608083 -0.06775357 0.015406902 0.008107592 -0.016288381 0.05140394 -0.0047931173
0.017143343 -0.047025304 0.0044463025 -0.0088694105 -0.066457786 0.051071566 -0.11945902 0.04553012
0.005653655 0.017682806 0.04281105 -0.032414164 -0.083594196 -0.10297759 -0.044446327 -0.031446323
0.13963653 0.05224178 -0.030080741 0.012352741 -0.07553195 0.008926978 -0.040615097 0.047618434
0.029285854 0.045202117 -0.08531566 0.017354166 0.026376767 -0.12600897 -0.050076663 0.082186535
-0.033300735 -0.04641037 0.061203 0.027318243 0.07394361 -0.035151258 0.046503395 -0.004045285
0.010843784 -0.043480854 0.041960254 0.044867672 0.14056264 -0.09519838 0.027599834 0.039380204
0.05604475 0.027152786 -0.13301796 0.102531135 0.004403514 0.07186719 0.029910326 -0.10016223
-0.09580184 -0.0625204 -0.05701308 0.022007996 -0.012571415 -0.09020674 0.060595576 0.09018637
0.07381667 -0.003960791 -0.0052897916 0.08520942 0.06955128 -0.034741893 -0.06638209 -0.105557166
00000000: 62e7 c03c 3390 423d e1d1 89bd f49c 6e3d
00000010: dd7d 77bd 300d 91bd a50a 943c 1352 6fbc
00000020: 65bd 4c3d 1e34 dbbc 3a84 133d 8742 733d
00000030: d7b0 b73d 5847 efbb e927 1a3d fd3a 9b3c
00000040: 2da9 383d 8db1 823c 7f7e 98bd f8b4 9b3c
00000050: 7644 30bd 78bf acbd 87fb 533d e2fe 983d
00000060: 9942 ea3c ff13 cf3c 6831 1dbd 020a 803d
00000070: 2f32 9dbd fd98 9fbc f135 d63d a5e0 f9bc
00000080: 02dd 9b3d c325 823d 6662 8e3d 64f6 9fba
00000090: b2f5 b73b 7f47 d6bd 7275 b63d 9ab8 eb3c
000000a0: a685 393d 5424 b7bd 3829 b0bd 9e06 5a3b
000000b0: 6dd5 353d 29e9 9ebd 5ec0 023d 6ade b0bd
000000c0: 1cbb 3abd 019d 48bb d40b ccbd 335a 463c
000000d0: 37a2 78bd 7fab b83d 8ce4 a43c bc91 2dbd
000000e0: acea 1f3d 40ee 53bd 06aa 25bd 9dff ca3d
000000f0: 6ca6 92bc 35b7 35bd eccd c13c 5116 1a3d
00000100: 04ae 9ebd e020 b5bd 4b2c a13d 2190 a0bd
00000110: ea87 cc3d 2cb5 cdbd f15d 143d 9cf9 8d3d
00000120: cf6e 763d 6cae f2bd d916 9e3d 597f ccbd
00000130: 1e19 8abd cf87 f83c 24e9 063c 3061 153d
00000140: bd53 423d 9fce e93d 3739 63bd dbae 4d3d
00000150: 851c 7a3d f8be 74bc 988e 863c 5fe3 d03b
00000160: 85fd e2bc dc5f 053e b923 8f3d 5d8a 8fbd
00000170: a12c 4abd 9bdc a43b 2473 e4bd 8700 0f3e
00000180: dd6a e93b 3d1e a5bc 473d b9bc 6636 fcbd
00000190: bc01 82bd 3cfb 983b 8956 93bc a358 e2bd
000001a0: 3ff1 e53c 2138 013e 21c8 a7bd abf8 433c
000001b0: a65c cc3d 3175 c0bd bfb4 0b3d f565 1abd
000001c0: fad7 543c bf8d c8bd 5f61 343c eb52 c4bc
000001d0: b092 adbd ba78 f63d 81d6 eebd 2e8e 403d
000001e0: 64e7 91bc 21e7 4dbc e533 ffbd fa2b abbd
000001f0: 9edf d1bd 78e5 5a3d 9e0f bdbd aa4c 52bc
00000200: 636d f8bc c24e bdbc 39ad b63d 0d38 803d
00000210: 9ce8 6bbd 833e 883d 3bea d6bc b7f6 4c3d
00000220: 94a6 aa3d c6c3 b0bd 0395 7d3d a6dc a63d
00000230: 8f3e bbbc c1f3 893d 3cc5 a03d 528d 393d
00000240: 267d 1f3d 6b5f 403d fa60 2fbc f94d 863d
00000250: ed53 7e3d 833b c0bd 3844 b13c 3054 c83c
00000260: 0d07 eebc 8ea8 593d 4035 8bbd 7810 053e
00000270: 488e d43d c86b b5bc be0e dbbd ec7f b33d
00000280: 9d43 57bd 4780 e03c e43f 733d 7c41 d83d
00000290: d354 8f3d 0b24 c6bd 95f0 1dbd 9950 5f3d
000002a0: c8c3 a53c 78dd fe3c ec82 a3bd 9dc8 b13d
000002b0: d87c 2f3d 87a2 a93b 502a af3d 3ae3 0c3d
000002c0: c4a6 90bc bd65 c1bc 62c2 8abd 3b6d 7c3c
000002d0: b5d5 043c 366f 85bc f08c 523d 950f 9dbb
000002e0: 3270 8c3c 9b9d 40bd 4ab2 913b 0151 11bc
000002f0: 051b 88bd 6b30 513d eea6 f4bd cb7d 3a3d
00000300: 4c42 b93b 88db 903c a45a 2f3d b7c4 04bd
00000310: 6f33 abbd eae5 d2bd 5a0d 36bd dccd 00bd
00000320: e1fc 0e3e 7afb 553d e36b f6bc 2763 4a3c
00000330: 7fb0 9abd 7642 123c 045c 26bd 8c0b 433d
00000340: e3e8 ef3c db25 393d fab9 aebd 532a 8e3c
00000350: 1714 d83c 7f08 01be 301d 4dbd 6a51 a83d
00000360: 5a66 08bd cd18 3ebd ffaf 7a3d 82ca df3c
00000370: bf6f 973d c4fa 0fbd 587a 3e3d 4f8e 84bb
00000380: 20aa 313c fb18 32bd 84de 2b3d 2ac7 373d
00000390: a7ef 0f3e 5ef7 c2bd 0c19 e23c 234d 213d
000003a0: 2e8f 653d 856f de3c dc35 08be d8fb d13d
000003b0: 5a4b 903b 1b2f 933d 8006 f53c db21 cdbd
000003c0: c133 c4bd b20a 80bd 8c86 69bd 1d4a b43c
000003d0: 56f8 4dbc 50be b8bd 1133 783d a2b3 b83d
000003e0: 322d 973d 86c9 81bb fd55 adbb 4782 ae3d
000003f0: e770 8e3d 844d 0ebd 55f3 87bd 5b2e d8bd

output_layer.bias f4 [4]
0.027178457 -0.09309432 -0.10886988 -0.019217188
00000000: 5ba5 de3c 3ca8 bebd 2cf7 debd 5d6d 9dbc

h0v.weight f4 [64, 14]
-0.2649371 -0.15071508 0.09839442 -0.6074857 -0.2498094 -0.03034742 0.09761294 -0.026930979
0.001019645 0.046053372 0.037999604 0.05652853 -0.20606333 0.1947994 -0.4025631 0.005135271
-0.022838552 -0.5730888 0.110332616 -0.0028998374 0.0867605 -0.09648696 -0.041474827 -0.019952254
-0.043923274 0.08819113 0.12298937 0.21916994 0.039319582 0.072651245 -0.24365515 -0.10615762
0.0576848 -0.04574217 0.015135447 -0.07210006 -0.020903923 -0.051575452 0.025037922 0.01838312
-0.040006433 -0.21170773 -0.16285966 -0.11268595 -0.11975297 0.6129942 -0.15239082 -0.08993014
-0.07181354 0.016144443 -0.03725859 -0.06734744 -0.0068358397 -0.15085374 -0.05064154 -0.2947684
-0.14533198 0.02129828 0.058349404 -0.091300845 0.041596644 -0.048759904 -0.13096869 0.03020349
0.100369886 0.045323648 0.028723167 -0.11362928 0.00786753 0.053060282 -0.027686834 -0.09890424
0.0075308103 -0.11215872 0.10552127 -0.063323446 0.013436883 -0.043599308 -0.040853173 0.011715663
0.046248887 0.12750904 -0.025369953 -0.15882954 0.16098711 -0.011831178 -0.08989125 0.024468988
0.06573644 -0.07718226 -0.24859333 -0.048877496 0.041740574 0.04496345 0.030681383 0.20101796
0.059790887 -0.25022513 0.067318484 0.09465272 -0.18628293 -0.024527868 -0.13017415 0.02333391
-0.035844594 -0.0037673286 0.027226955 -0.07505613 0.006215531 0.06424193 -0.08198497 -0.11979439
0.30310932 0.112040475 -0.00010455353 0.32222047 0.16888271 -0.01892614 -0.1248098 -0.113430604
-0.021458842 0.006845191 0.097139366 -0.008737627 0.13234784 -0.10553438 0.21840261 0.19947241
-0.22597916 0.5509181 -0.06857326 -0.05278402 -0.118651085 -0.08523815 0.05972614 -0.019054396
0.008053022 -0.14077082 0.19247267 0.16708691 0.0601792 0.039558686 -0.014898573 0.10078827
0.03167437 -0.0058852048 -0.004522543 -0.020032665 0.01906771 0.024125313 0.0076021054 -0.062710986
0.10445852 0.05867158 0.012138547 0.05941089 -0.13919629 0.46115708 0.009780714 -0.07411827
0.63636523 -0.022841401 0.00093293865 0.003609661 0.009489523 0.0017269953 -0.098792225 -0.07147804
0.0937501 0.009560669 0.3487154 -0.4654151 -0.021196468 0.13265495 0.1234047 0.08233244
-0.02074936 0.059076898 -0.03271195 0.015502967 0.036012117 0.10730005 0.16462328 -0.16245012
-0.0154098775 0.10053536 0.00082520925 -0.101316296 0.063810185 -0.015000807 0.015455881 -0.02940587
-0.022831362 -0.17189501 -0.14250098 0.0992902 0.08400618 -0.06739316 -0.07392683 0.047166396
0.03763259 -0.06854554 0.039109413 -0.0061246864 -0.011310622 0.060625564 0.06413191 -0.15827224
-0.095000945 0.01936233 -0.35432953 -0.12720731 -0.012240682 -0.60364074 -0.13281398 0.020113228
-0.17411077 -0.01814199 -0.033624783 0.052058987 -0.005635468 -0.100409664 -0.11710867 0.15581405
-0.3636828 -0.24069263 0.17966919 -0.5327724 0.12705854 -0.026709402 -0.13497908 0.067918874
0.04575292 -0.002122726 -0.09845549 -0.0054091904 -0.21950379 -0.06990493 -0.115133755 0.0020681631
-0.052569598 -0.15430859 0.03847587 0.004655668 0.13156429 0.0071519697 -0.0026621306 -0.0048881783
-0.030639302 0.02162098 -0.10808469 -0.1485393 -0.24325709 -0.035063397 -0.0982017 0.035222936
00000000: d6a5 87be 0e55 1abe 0483 c93d 2f84 1bbf
00000010: 09ce 7fbe 279b f8bc 4be9 c73d 5b9e dcbc
00000020: 9ca5 853a 76a2 3c3d 79a5 1b3d 768a 673d
00000030: 4402 53be 7e79 473e c01c cebe c745 a83b
00000040: ea17 bbbc f3b5 12bf 11f6 e13d 330b 3ebb
00000050: 7daf b13d f59a c5bd 82e1 29bd e972 a3bc
00000060: e4e8 33bd 8d9d b43d dae1 fb3d 166e 603e
00000070: 920d 213d 2dca 943d bc80 79be 2b69 d9bd
00000080: e646 6c3d 245c 3bbd aafa 773c 32a9 93bd
00000090: b43e abbc c840 53bd 541c cd3c 3298 963c
000000a0: c9dd 23bd e9c9 58be afc4 26be e4c7 e6bd
000000b0: 0c41 f5bd 30ed 1c3f 570c 1cbe 4b2d b8bd
000000c0: fa12 93bd 5a41 843c 779c 18bd 74ed 89bd
000000d0: 2eff dfbb 6779 1abe 816d 4fbd e2eb 96be
000000e0: e8d1 14be bb79 ae3c c9ff 6e3d f0fb babd
000000f0: 3e61 2a3d 77b8 47bd a81c 06be 4f6d f73c
00000100: ba8e cd3d 4aa5 393d d94c eb3c 78b6 e8bd
00000110: d0e6 003c bd55 593d 80cf e2bc 4e8e cabd
00000120: 04c5 f63b 79b3 e5bd 891b d83d b9af 81bd
00000130: 5f26 5c3c 3095 32bd a855 27bd 0df3 3f3c
00000140: 796f 3d3d bb91 023e a6d4 cfbc 36a4 22be
00000150: ced9 243e 8fd7 41bc e718 b8bd 3073 c83c
00000160: d4a0 863d bc11 9ebd 408f 7ebe c533 48bd
00000170: 2af8 2a3d 982b 383d 8657 fb3c a7d7 4d3e
00000180: 4ae7 743d 821d 80be 46de 893d 49d9 c13d
00000190: f4c0 3ebe abee c8bc 5f4c 05be c226 bf3c
000001a0: c8d1 12bd 49e5 76bb 100b df3c 07b7 99bd
000001b0: a7ab cb3b 4691 833d bce7 a7bd c356 f5bd
000001c0: 2531 9b3e 7a75 e53d c043 dbb8 15fa a43e
000001d0: 97ef 2c3e fe0a 9bbc 489c ffbd 4e4e e8bd
000001e0: 74ca afbc a04d e03b 01f1 c63d 4428 0fbc
000001f0: 3186 073e 6922 d8bd efa4 5f3e 7f42 4c3e
00000200: 1567 67be f808 0d3f 2370 8cbd 0e34 58bd
00000210: 57ff f2bd 5791 aebd 66a3 743d f717 9cbc
00000220: d3f0 033c 3a26 10be 8e17 453e d518 2b3e
00000230: 777e 763d 4a08 223d 2519 74bc 156a ce3d
00000240: fcbc 013d add8 c0bb d731 94bb 8b1b a4bc
00000250: e333 9c3c 73a2 c53c 151b f93b 9e6e 80bd
00000260: 59ee d53d 9c51 703d c2e0 463c d558 733d
00000270: 7989 0ebe c81c ec3e 4a3f 203c 52cb 97bd
00000280: d5e8 223f e41d bbbc 7490 743a 1090 6c3b
00000290: f279 1b3c 595c e23a 9453 cabd 1463 92bd
000002a0: 0d00 c03d 5aa4 1c3c d38a b23e e34a eebe
000002b0: 37a4 adbc b3d6 073e 9abb fc3d e99d a83d
000002c0: 90fa a9bc 9efa 713d f7fc 05bd 2800 7e3c
000002d0: 7181 133d 21c0 db3d 0193 283e 5359 26be
000002e0: b679 7cbc 7ce5 cd3d db52 583a eb7e cfbd
000002f0: eaae 823d f2c5 75bc aa3a 7d3c 94e4 f0bc
00000300: d608 bbbc 3f05 30be c7eb 11be a958 cb3d
00000310: 6f0b ac3d 6d05 8abd f366 97bd 8d31 413d
00000320: a124 1a3d 9b61 8cbd 3131 203d 98b1 c8bb
00000330: 3050 39bc 8352 783d 9757 833d 1e12 22be
00000340: db8f c2bd c09d 9e3c ae6a b5be a242 02be
00000350: 248d 48bc 3388 1abf 6300 08be 7fc4 a43c
00000360: 184a 32be 839e 94bc 24ba 09bd ce3b 553d
00000370: bba9 b8bb 95a3 cdbd acd6 efbd b88d 1f3e
00000380: a234 babe 2178 76be 33fb 373e c663 08bf
00000390: a21b 023e adcd dabc f537 0abe 0d19 8b3d
000003a0: 6a67 3b3d 6f1d 0bbb 08a3 c9bd 943f b1bb
000003b0: 9ac5 60be 512a 8fbd 3fcb ebbd 058a 073b
000003c0: 3853 57bd 1203 1ebe e098 1d3d 938e 983b
000003d0: cab8 063e 125b ea3b 2477 2ebb 032d a0bb
000003e0: 46ff fabc 7b1e b13c 825b ddbd b01a 18be
000003f0: 6318 79be a39e 0fbd f91d c9bd ed45 103d

h0v.bias f4 [64]
0.47340867 0.48136485 0.62536854 -0.3579749 -0.5440849 -0.61194736 0.5788086 0.68167657
-0.4542581 -0.5708877 0.60840386 -0.3576898 0.6575715 0.6123679 0.55829847 0.49925742
0.6061505 -0.6955845 0.6176426 -0.5045763 0.51037884 0.51131916 0.5474421 -0.5856857
0.58554626 0.6374865 0.54907817 -0.4790727 -0.497222 -0.49653563 -0.63011336 -0.6006978
0.5598838 -0.53051215 -0.40935615 0.65240484 0.7240567 -0.52901435 0.63490415 0.5780729
-0.59334207 -0.62263054 -0.6775538 -0.60764414 -0.6768536 -0.6400036 -0.44611484 -0.47609234
0.5874657 0.6301906 -0.6189392 -0.5890167 -0.5793122 -0.5839138 0.64298695 -0.5115794
-0.63266605 -0.6541294 -0.6158419 0.57261574 -0.5965399 0.5815879 -0.5506008 0.66928613
00000000: 9f62 f23e 7475 f63e 2718 203f 7c48 b7be
00000010: 2649 0bbf 95a8 1cbf cd2c 143f 5b82 2e3f
00000020: 8594 e8be b225 12bf 5bc0 1b3f 1e23 b7be
00000030: 9b56 283f 25c4 1c3f a6ec 0e3f ab9e ff3e
00000040: ae2c 1b3f d311 32bf d31d 1e3f ea2b 01bf
00000050: 30a8 023f d0e5 023f 2a25 0c3f 7fef 15bf
00000060: 5ce6 153f 5132 233f 6390 0c3f 0449 f5be
00000070: e293 febe eb39 febe 1c4f 21bf 55c7 19bf
00000080: 8b54 0f3f a5cf 07bf 2197 d1be 0104 273f
00000090: c85b 393f 7c6d 07bf 1489 223f 96fc 133f
000000a0: 44e5 17bf b764 1fbf 2a74 2dbf 918e 1bbf
000000b0: 4746 2dbf 47d7 23bf 2a69 e4be 60c2 f3be
000000c0: 2764 163f 2c54 213f cd72 1ebf ccc9 16bf
000000d0: ce4d 14bf 607b 15bf cb9a 243f def6 02bf
000000e0: 67f6 21bf 0675 27bf d1a7 1dbf f296 123f
000000f0: d7b6 18bf f2e2 143f 2df4 0cbf 5656 2b3f

h1v.weight f4 [64, 64]
-0.31337214 -0.12538595 -0.2798502 0.1777086 0.26949745 0.36560607 -0.17004848 -0.2509535
0.1586722 0.32714024 -0.32209855 0.11623363 -0.15638904 -0.24627407 -0.37867326 -0.23044914
-0.14593615 0.32638842 -0.2634183 0.3581993 -0.32501915 -0.27637172 -0.32242414 0.0831443
-0.29826194 -0.2031345 -0.095276214 0.34698692 0.22167917 0.22095951 0.3985715 0.32530427
-0.31018972 0.35298207 0.2778835 -0.28075516 -0.20464322 0.3018984 -0.20522574 -0.3155353
0.1897871 0.3781618 0.24138486 0.3796165 0.33225337 0.3683904 0.20175096 0.34636936
-0.27870032 -0.22844236 0.35319433 0.33500668 0.12431978 0.24231191 -0.24438334 0.25757697
0.23809871 0.3592527 0.2412582 -0.13559572 0.43166405 -0.13364843 0.13749902 -0.12198061
0.23855455 0.18476108 0.48035538 -0.06791892 -0.30642968 -0.35293007 0.15907608 0.23780875
-0.2289993 -0.215621 0.21291243 -0.0790026 0.13180487 0.34268713 0.42544615 0.14147654
0.15418328 -0.15681438 0.2687363 -0.27977476 0.2925125 0.3315543 0.3359822 -0.15026982
0.24405213 0.26168838 0.3006044 -0.20616642 -0.24551189 -0.27861273 -0.31410658 -0.29147497
0.39220154 -0.16120374 -0.2554472 0.40897563 0.2527834 -0.23524311 0.39100718 0.26093778
-0.19555542 -0.22096692 -0.23886973 -0.42971388 -0.27923027 -0.36540562 -0.21829729 -0.27728152
0.31992176 0.27938697 -0.1665707 -0.38275516 -0.33897373 -0.22207414 0.3544792 -0.38202265
-0.19598694 -0.17548414 -0.27994093 0.15423374 -0.4873495 0.2974554 -0.17490648 0.26753035
-0.15302344 -0.21724628 -0.40401268 0.0056842435 0.25780722 0.3539892 -0.33270207 -0.1869914
0.33615136 0.13408427 -0.23626825 0.053454943 -0.18408123 -0.27461743 -0.38978532 -0.17850438
-0.21915966 0.17961341 -0.39993033 0.19593628 -0.20568384 -0.20794289 -0.39413548 0.18699785
-0.33587104 -0.24134147 -0.34025884 0.2884046 0.22761564 0.20074704 0.49868265 0.26956546
-0.39119887 0.35684913 0.29334202 -0.42085713 -0.09510323 0.33223316 -0.31202093 -0.29733464
0.3042274 0.21699779 0.15322822 0.3138129 0.33123943 0.4747553 0.17277595 0.24783939
-0.18877035 -0.21879444 0.3627513 0.4447299 0.22283109 0.26024333 -0.19155072 0.36968744
0.33734062 0.36075443 0.21341898 -0.27542067 0.34250477 -0.26129878 0.17506707 -0.29567644
0.22960727 0.27424476 0.26351264 -0.22400936 -0.34847498 -0.29845706 0.29358837 0.33683285
-0.31557557 -0.25835493 0.15180443 -0.036483854 0.18533222 0.18514472 0.3671645 0.1558469
0.15715705 -0.24388325 0.30615187 -0.16296314 0.16561508 0.2952781 0.2784713 -0.21318917
0.1885237 0.1626712 0.3293872 -0.19262153 -0.050386272 -0.3032074 -0.5277115 -0.19697754
0.28132755 -0.21221349 -0.3201761 0.33543167 0.1283315 -0.20912354 0.39264548 0.39563927
-0.1586181 -0.4026891 -0.26777324 -0.28464642 -0.13301022 -0.44382635 -0.33589628 -0.17054242
0.2065995 0.35958242 -0.14199364 -0.39244178 -0.09522542 -0.30862474 0.19272374 -0.13393548
-0.2021692 -0.3546713 -0.26266792 0.23305285 -0.4081967 0.30297375 -0.35272276 0.15714356
00000000: 5072 a0be 2d65 00be 8748 8fbe 3ef9 353e
00000010: 92fb 893e b830 bb3e 3021 2ebe fa7c 80be
00000020: f77a 223e ed7e a73e 1aea a4be e60b ee3d
00000030: 7324 20be 452f 7cbe 76e1 c1be dcfa 6bbe
00000040: 4970 15be 621c a73e c3de 86be e665 b73e
00000050: e968 a6be 9880 8dbe c714 a5be 8f47 aa3d
00000060: cab5 98be 7e02 50be 2d20 c3bd 45a8 b13e
00000070: ddff 623e 3643 623e 9011 cc3e 488e a63e
00000080: 30d1 9ebe 11ba b43e bf46 8e3e 24bf 8fbe
00000090: fe8d 51be 6d92 9a3e b226 52be d88d a1be
000000a0: 8d57 423e 6c9e c13e 982d 773e 185d c23e
000000b0: 1d1d aa3e ab9d bc3e ce97 4e3e 5357 b13e
000000c0: cfb1 8ebe cbec 69be e3d5 b43e ff85 ab3e
000000d0: 5e9b fe3d 9d20 783e a03f 7abe 21e1 833e
000000e0: 26d0 733e f8ef b73e 640c 773e 9bd9 0abe
000000f0: 1203 dd3e 22db 08be 8bcc 0c3e f8d0 f9bd
00000100: a547 743e 0232 3d3e 24f1 f53e 1319 8bbd
00000110: 5ae4 9cbe 40b3 b4be d7e4 223e 2384 733e
00000120: cb7e 6abe c0cb 5cbe b705 5a3e 1dcc a1bd
00000130: dbf7 063e b074 af3e 14d4 d93e 3adf 103e
00000140: 39e2 1d3e f393 20be ce97 893e a33e 8fbe
00000150: 33c4 953e 7cc1 a93e dc05 ac3e 55e0 19be
00000160: cde8 793e 05fc 853e d2e8 993e 4a1d 53be
00000170: 7867 7bbe 54a6 8ebe 94d2 a0be 353c 95be
00000180: a4ce c83e 9812 25be fac9 82be 4165 d13e
00000190: d36c 813e 92e3 70be 1832 c83e a399 853e
000001a0: ae3f 48be 2745 62be 449a 74be 7503 dcbe
000001b0: 45f7 8ebe 7216 bbbe 5389 5fbe d8f7 8dbe
000001c0: c9cc a33e cf0b 8f3e 8291 2abe 7cf8 c3be
000001d0: f78d adbe 6767 63be 4c7e b53e 7998 c3be
000001e0: cdb0 48be 1db2 33be 6b54 8fbe 73ef 1d3e
000001f0: e085 f9be 134c 983e af1a 33be bdf9 883e
00000200: 2db2 1cbe cf75 5ebe c0da cebe e442 ba3b
00000210: 4fff 833e 133e b53e ed57 aabe ac7a 3fbe
00000220: 081c ac3e 634d 093e 4ef0 71be 92f3 5a3d
00000230: ca7f 3cbe a89a 8cbe f191 c7be dac9 36be
00000240: 646b 60be 94ec 373e abc3 ccbe 85a3 483e
00000250: c99e 52be fbee 54be 20cc c9be 5d7c 3f3e
00000260: 4af7 abbe 3822 77be 6836 aebe c5a9 933e
00000270: 1314 693e a290 4d3e 5553 ff3e 7c04 8a3e
00000280: 384b c8be eeb4 b63e ed30 963e 967a d7be
00000290: 7bc5 c2bd 771a aa3e 35c1 9fbe 3f3c 98be
000002a0: b2c3 9b3e ab34 5e3e dce7 1c3e 16ac a03e
000002b0: 3798 a93e 2013 f33e 2eec 303e 9cc9 7d3e
000002c0: 044d 41be a60b 60be 8aba b93e a3b3 e33e
000002d0: d52d 643e 9d3e 853e df25 44be ac47 bd3e
000002e0: e9b7 ac3e ceb4 b83e 818a 5a3e f003 8dbe
000002f0: c95c af3e f4c8 85be c844 333e e762 97be
00000300: 2b1e 6b3e cf69 8c3e 21eb 863e b662 65be
00000310: 506b b2be 5dcf 98be 3751 963e 5b75 ac3e
00000320: 1f93 a1be 1947 84be 9f72 1b3e 1870 15bd
00000330: bbc7 3d3e 9496 3d3e fcfc bb3e 5496 1f3e
00000340: c7ed 203e 88bc 79be f0bf 9c3e cfdf 26be
00000350: 0097 293e b12e 973e ca93 8e3e 434e 5abe
00000360: 5b0c 413e 4793 263e 70a5 a83e 943e 45be
00000370: d661 4ebd 003e 9bbe 1a18 07bf 7bb4 49be
00000380: 2a0a 903e 7e4e 59be 1fee a3be b3bd ab3e
00000390: 5569 033e 7b24 56be d408 c93e 3b91 ca3e
000003a0: c96c 22be 442d cebe 9319 89be 2dbd 91be
000003b0: d533 08be 353d e3be 99fa abbe aca2 2ebe
000003c0: d28e 533e 301b b83e c866 11be 21ee c8be
000003d0: 8c05 c3bd 1004 9ebe 5f59 453e 6226 09be
000003e0: 7105 4fbe 7a97 b5be 697c 86be 68a5 6e3e
000003f0: 28ff d0be 601f 9b3e 1498 b4be 3eea 203e

h1v.bias f4 [64]
-0.07166519 0.22698094 -0.27064362 0.1662172 0.17053151 -0.15528576 0.240518 0.24155514
-0.1337798 0.23362479 -0.26960638 -0.29053965 -0.14872898 -0.22158371 -0.045189813 0.07101819
0.13456671 0.17280844 -0.03762515 -0.25174212 -0.16163269 -0.098157614 0.13297074 -0.12225973
-0.1350759 0.28808066 0.28455895 0.21920547 0.15439956 -0.13999268 -0.24125107 -0.21637288
0.1742298 0.3178019 0.10801263 -0.12202698 0.12656808 0.14060445 -0.31454018 -0.25530013
0.18555899 -0.257255 0.2822337 -0.08903511 -0.116752006 0.27947834 0.039104003 0.12966788
-0.16250181 -0.038699415 -0.20800585 0.19349733 -0.24199836 -0.108027585 -0.0867934 0.1710934
-0.15757866 0.13027133 -0.27933937 -0.23480743 -0.20225215 0.1590221 -0.12558524 -0.24302268
00000000: 33c5 92bd b16d 683e cd91 8abe d734 2a3e
00000010: d09f 2e3e 3b03 1fbe 5a4a 763e 3b5a 773e
00000020: 92fd 08be 563b 6f3e d909 8abe 9dc1 94be
00000030: 694c 18be d7e6 62be f418 39bd fc71 913d
00000040: dbcb 093e b2f4 303e d41c 1abd 58e4 80be
00000050: 0a83 25be dc06 c9bd 7b29 083e 4f63 fabd
00000060: 5651 0abe 4f7f 933e b6b1 913e 6677 603e
00000070: eb1a 1e3e 3e5a 0fbe 850a 77be da90 5dbe
00000080: 4c69 323e eeb6 a23e ba35 dd3d 48e9 f9bd
00000090: 109b 013e 9dfa 0f3e 690b a1be b3b6 82be
000000a0: 2d03 3e3e edb6 83be ef80 903e 0a58 b6bd
000000b0: ad1b efbd c917 8f3e 852b 203d a8c7 043e
000000c0: e066 26be 4783 1ebd 7cff 54be 2a24 463e
000000d0: 6bce 77be 913d ddbd bdc0 b1bd 1c33 2f3e
000000e0: 4d5c 21be d965 053e 9205 8fbe 5c71 70be
000000f0: 301b 4fbe b0d6 223e 6b99 00be f0da 78be

value_head.weight f4 [1, 64]
3.7473295 -3.719109 3.6160448 -3.7898855 -3.7778125 3.7371335 -3.6236966 -3.7064357
3.7849994 -3.7148094 3.6793864 3.618396 3.707633 3.6890311 3.8060443 -3.722766
-3.7959375 -3.7043402 3.743238 3.6970537 3.64697 3.7289793 -3.7255206 3.6769946
3.786017 -3.6497953 -3.6048374 -3.678254 -3.6351311 3.7308743 3.721171 3.6627455
-3.7364619 -3.611947 -3.7826493 3.7343678 -3.6890755 -3.7373104 3.6226141 3.676495
-3.6334236 3.7321146 -3.617673 3.777389 3.7062788 -3.6730678 -3.7729332 -3.656186
3.7250342 3.7670653 3.7458572 -3.7738707 3.7343028 3.74129 3.791868 -3.6778333
3.6984372 -3.6395195 3.7040708 3.7087157 3.752502 -3.7198815 3.7368674 3.6908414
00000000: 3fd4 6f40 e205 6ec0 476d 6740 7c8d 72c0
00000010: aec7 71c0 322d 6f40 a5ea 67c0 3e36 6dc0
00000020: 6e3d 7240 70bf 6dc0 117b 6b40 cd93 6740
00000030: dc49 6d40 1619 6c40 3b96 7340 cc41 6ec0
00000040: a4f0 72c0 e913 6dc0 3691 6f40 879c 6c40
00000050: f567 6940 99a7 6e40 ee6e 6ec0 e153 6b40
00000060: 1a4e 7240 3f96 69c0 a8b5 66c0 8368 6bc0
00000070: fda5 68c0 a5c6 6e40 aa27 6e40 6c6a 6a40
00000080: 3122 6fc0 242a 67c0 ed16 72c0 e2ff 6e40
00000090: d019 6cc0 1830 6fc0 e9d8 6740 b24b 6b40
000000a0: 038a 68c0 f7da 6e40 f487 67c0 bec0 7140
000000b0: ac33 6d40 8b13 6bc0 bd77 71c0 f4fe 69c0
000000c0: f666 6e40 9917 7140 20bc 6f40 1987 71c0
000000d0: d1fe 6e40 4c71 6f40 f7ad 7240 9f61 6bc0
000000e0: 32b3 6c40 e3ed 68c0 7f0f 6d40 995b 6d40
000000f0: fe28 7040 8a12 6ec0 d628 6f40 bf36 6c40
