temp_morel/pretrained_models2/pretrain_model7.pt (torch, 19487 bytes, 4 tensors)

hidden.weight f4 [128, 18]
0	0xbe4c7221	-0.19965412
1	0x3d0b69f3	0.034036588
2	0xbd1cc52c	-0.038273975
3	0xbe597796	-0.21237025
4	0x3e35fa84	0.17771345
5	0xbd09044c	-0.033451363
6	0x3e2d57c6	0.16928014
7	0x3e4f06c6	0.20217428
8	0x3d35da0e	0.044397406
9	0x3e137a80	0.14402199
10	0xbd14c9a2	-0.036325105
11	0xbdd90b15	-0.10597817
12	0xbded3012	-0.11581434
13	0xbe3fe478	-0.18739498
14	0x3e44b3c3	0.19209199
15	0x3e3ebda2	0.18627027
16	0x3e584075	0.21118338
17	0xbdf241d9	-0.11828966
18	0xbe2ee4f1	-0.17079522
19	0xbe34240e	-0.17591879
20	0xbe33ae32	-0.17546919
21	0xbe1cc621	-0.15309955
22	0xbca0c444	-0.019624837
23	0x3cafd5a7	0.021464182
24	0x3e318c31	0.17338635
25	0x3e05d8bd	0.1307096
26	0x3cf6c3be	0.030122634
27	0x3ce972d7	0.028497143
28	0x3e6b5b8d	0.22984143
29	0x3e37e4d0	0.17958379
30	0xbe374768	-0.17898333
31	0x3e6db149	0.2321216
32	0x3e0dc16a	0.13843313
33	0x3bf002a1	0.007324532
34	0x3dac6bab	0.084189735
35	0x3e5d1039	0.2158822
36	0xbe5f76af	-0.21822618
37	0x3e2d2a3f	0.16910647
38	0xbe456516	-0.19276842
39	0xbe0f2463	-0.13978724
40	0x3bd7633f	0.0065731104
41	0xbe45c584	-0.19313627
42	0xbe03ad90	-0.12859178
43	0x3e31b105	0.17352684
44	0x3e485808	0.19564831
45	0x3e3fb4ff	0.18721388
46	0xbd25a3c8	-0.040439397
47	0xbd999b10	-0.07500279
48	0x3b1fcb12	0.0024382514
49	0x3e376837	0.17910849
50	0xbc867c52	-0.016416702
51	0xbd670a27	-0.056406166
52	0x3e02c100	0.12768936
53	0x3e3c2e82	0.18377116
54	0xbe321bc3	-0.17393403
55	0x3d5d51ec	0.054033205
56	0x3df1f854	0.11814943
57	0xbe5244d2	-0.20534065
58	0xbe20d648	-0.15706742
59	0xbd982802	-0.07429506
60	0x3e92d72e	0.28679794
61	0xbcdd4eb9	-0.027015077
62	0xbec5ecab	-0.38657126
63	0xbf0694f1	-0.52571017
64	0x3f7dd393	0.9915096
65	0xbe7cf98e	-0.24704573
66	0xbfd7d4f5	-1.6861864
67	0x3db7adc1	0.08968688
68	0x3e0ad9c3	0.13559632
69	0xbe8b4965	-0.27204433
70	0x3ca61f5c	0.020278625
71	0xbe38f039	-0.18060388
72	0x3dab53bc	0.083655804
73	0x3e786ea3	0.24260955
74	0x3c5c8c4b	0.013461183
75	0x3daa35d3	0.083110474
76	0x3dfc14e9	0.12308676
77	0xbdd3325b	-0.10312339
78	0x3ef1a88b	0.471989
79	0x3f85143b	1.0396799
80	0xbe2a6250	-0.16639066
81	0xbd482332	-0.04886169
82	0x3f11285b	0.567022
83	0x3eacb7b2	0.33733898
84	0xbf5fe225	-0.87454444
85	0x3e8a5f7d	0.27025977
86	0xbc733ee0	-0.014846534
87	0x3d6663b1	0.056247417
88	0x3e4e2e14	0.20134765
89	0x3e6eee48	0.23333085
90	0xbb7e0ac7	-0.0038763748
91	0x3d0ee7f8	0.03488919
92	0x3e46b1d1	0.19403769
93	0xbd96098b	-0.07326039
94	0x3d64c29c	0.055849656
95	0xbdf0be28	-0.117550194
96	0x3eb9911f	0.3624353
97	0x3f0d5fc6	0.55224264
98	0xbe5dfd89	-0.21678747
99	0xbe7b4802	-0.24539188
100	0xbf145e86	-0.5795673
101	0x3ea9852c	0.33109415
102	0xbfe3bbfc	-1.7791743
103	0x3e8ef68a	0.2792247
104	0x3e9d5d78	0.30735373
105	0xbd740e1e	-0.059583776
106	0x3dfd433d	0.1236634
107	0xbc001724	-0.007818017
108	0xbdbe97e6	-0.09306316
109	0xbdd2e3bc	-0.10297343
110	0x3cf8518c	0.030312322
111	0x3d27e9ca	0.040994443
112	0x3dedcfd5	0.116119064
113	0x3e1581fd	0.14600368
114	0xbdfdf8b7	-0.12400954
115	0xba50d6ee	-0.00079665973
116	0xbe666248	-0.22498429
117	0xbd830a88	-0.06398493
118	0xbc8e1c4a	-0.017347474
119	0x3e5c3b7b	0.21507065
120	0x3e44f3c1	0.1923361
121	0xbd67c536	-0.05658456
122	0xbe300072	-0.1718767
123	0x3e330503	0.1748238
124	0x3c220487	0.009888775
125	0xbe3af9b9	-0.18259324
126	0x3e07a048	0.13244736
127	0xbdbd4616	-0.092418835
128	0x3e058e43	0.1304255
129	0xbe3ccfeb	-0.1843869
130	0x3d9b43a2	0.07581259
131	0x3d7e1565	0.062032122
132	0xbd9c8a5e	-0.07643579
133	0xbf837f49	-1.0273219
134	0x3f75c81b	0.9600846
135	0xbf9e8206	-1.238343
136	0xc0533d77	-3.3006265
137	0x3c6e6db5	0.014552523
138	0x3fd3bbfe	1.6541746
139	0xbe13d763	-0.14437632
140	0xbd862ebc	-0.065518826
141	0xbda08857	-0.07838505
142	0xbda859b6	-0.08220236
143	0x3e86abc1	0.26302913
144	0x3f0bcac6	0.5460628
145	0xbdc82ef4	-0.097745806
146	0xbde58ec1	-0.11208869
147	0x3e760102	0.24023822
148	0xbd8427eb	-0.06452926
149	0x3f976312	1.1827109
150	0xbfbb9ad1	-1.4656621
151	0x3ff10314	1.8829064
152	0x3fa8472a	1.3146718
153	0x4010d0f8	2.2627544
154	0xbf9a8ea1	-1.2074777
155	0x3f4734a4	0.778147
156	0x40780896	3.875524
157	0x3f4e7dc7	0.8066067
158	0xbe4fc5dc	-0.20290321
159	0x3f5cab27	0.8619866
160	0x3f8146cb	1.0099729
161	0xbfa2edc7	-1.2728814
162	0x3e6c348e	0.23066923
163	0xbe3f500d	-0.1868288
164	0xbe2622e6	-0.1622425
165	0xbe5a1c3b	-0.21299832
166	0xbe06de91	-0.1317084
167	0xbe58f483	-0.21187024
168	0x3e267e8e	0.16259214
169	0x3d9d807b	0.07690521
170	0xbe42419f	-0.18970345
171	0x3e317d32	0.17332914
172	0xbe22ed08	-0.15910733
173	0x3b6b0301	0.0035859945
174	0x3de88fcc	0.11355552
175	0x3dbd7f1b	0.09252759
176	0xbc88ab2c	-0.016683184
177	0x3d9d9f3d	0.07696388
178	0xbd35e7a3	-0.04441036
179	0x3d28b104	0.04118444
180	0xbdd47019	-0.103729434
181	0xbd22ae14	-0.039716795
182	0xbcb9d985	-0.02268673
183	0x3d65199c	0.055932626
184	0xbe9fe721	-0.31231025
185	0xbe0e247c	-0.13881105
186	0x3cd53a3e	0.026028749
187	0x3c94ef0f	0.018180398
188	0xbd74d786	-0.05977585
189	0x3e81ff12	0.25389916
190	0x3d2dfa4f	0.04247504
191	0xbe46de10	-0.19420648
192	0xbef067e6	-0.46954268
193	0x3cf726d1	0.030169876
194	0xbebeda15	-0.37275758
195	0xbc305237	-0.010761789
196	0x3d26e51c	0.04074584
197	0xbdfb6ea8	-0.122769654
198	0xbdc0f753	-0.09422173
199	0x3ea9b9f1	0.33149675
200	0xbddb7919	-0.10716457
201	0x3e25e712	0.16201428
202	0x3e88a86c	0.26690996
203	0x3ce30043	0.027710086
204	0x3fbaccf1	1.4593793
205	0x401c3d11	2.4412272
206	0xbe7cc1e3	-0.24683337
207	0x3fb16ab6	1.386069
208	0x406b8c28	3.6804295
209	0x3f35838c	0.7090385
210	0xc04f3624	-3.2376795
211	0x3f733229	0.94998413
212	0x3dccc3ed	0.099983074
213	0x3e771805	0.24130256
214	0xbce28b8b	-0.02765443
215	0x3e60e2a6	0.2196146
216	0x3d8db323	0.06918933
217	0xbe6ae9b6	-0.22940716
218	0x3da5651b	0.08075925
219	0xbdce77f1	-0.10081471
220	0xbdbc5780	-0.09196377
221	0xbe39b8b4	-0.18136865
222	0x3d34f461	0.04417837
223	0xbd48d7a7	-0.049033787
224	0xbe20530a	-0.15656677
225	0xbd54f2e2	-0.051989444
226	0x3f40a891	0.7525721
227	0xbe820760	-0.25396252
228	0xbcdc2f66	-0.02687807
229	0xbd9efd58	-0.07763165
230	0xbe301ed5	-0.17199261
231	0xbd18966f	-0.03725284
232	0xbe8d295f	-0.27570626
233	0xbe8e1221	-0.27748206
234	0x3e1cacb4	0.15300256
235	0x3db0032e	0.085943565
236	0x3ceaaba7	0.028646303
237	0x3e0b8cd0	0.13627934
238	0x3e12c76e	0.14333889
239	0x3e900ea0	0.28136158
240	0x3e4dd13d	0.2009935
241	0x3eb791a3	0.358533
242	0xbcc35583	-0.023844486
243	0xbee5705f	-0.44812295
244	0x3fdb02cd	1.711023
245	0x3eaa24b5	0.3323113
246	0xbfc9f861	-1.5778924
247	0x3cd1f7df	0.02563089
248	0x3e7019be	0.2344732
249	0x3e83b709	0.25725582
250	0x3d053d4e	0.032529168
251	0xbd3dd378	-0.04634425
252	0x3e8e0bb8	0.27743316
253	0xbe024dd2	-0.12724999
254	0x3e3a0974	0.18167669
255	0x3d853952	0.065050736

hidden.bias f4 [128]
0	0x3c89141e	0.016733225
1	0xbe1d03ef	-0.15333532
2	0xbe369cca	-0.17833248
3	0xbe49eddf	-0.19719647
4	0x3d618bdd	0.055065025
5	0x3e1d73e4	0.1537624
6	0xbc918729	-0.017764645
7	0x3e804fc1	0.25060847
8	0x3e7da381	0.24769403
9	0xbdf850b2	-0.121247664
10	0xbe19a76c	-0.15005273
11	0x3e72fc51	0.23729064
12	0x3d2191f7	0.039445844
13	0x3e92d0d7	0.28674957
14	0x3e92a7e5	0.28643718
15	0x3e3bba54	0.18332797
16	0xbe1a3b14	-0.15061599
17	0xbe955a00	-0.29170227
18	0x3e20d0a3	0.15704589
19	0x3e2a6441	0.16639806
20	0xbd696ee6	-0.056990527
21	0xbe1bfb14	-0.15232497
22	0x3dbd97cf	0.09257471
23	0x3d4bc0bc	0.049744353
24	0xbdd9aa1e	-0.106281504
25	0x3f317b6c	0.6932895
26	0xbe8467b6	-0.25860375
27	0x3d764eb0	0.060133636
28	0xbd80745a	-0.06272192
29	0xbe96f2ef	-0.2948222
30	0xbe3daba3	-0.18522505
31	0xbe786120	-0.242558
32	0xbe9d21bb	-0.30689797
33	0xbe3d3484	-0.18477064
34	0xbe14eb8b	-0.14542978
35	0xbe08b94d	-0.13351937
36	0xbd122750	-0.035682023
37	0x3d91b15e	0.07113908
38	0x3dcb1d3d	0.09917686
39	0x3d92f260	0.071751356
40	0x3ddf9fae	0.10919128
41	0x3e53c6f8	0.2068137
42	0xbe8d9772	-0.27654606
43	0xbe85b6e9	-0.26116112
44	0x3e7d4e92	0.24737003
45	0x3c8ea233	0.017411327
46	0x3a11a9cf	0.00055566145
47	0xbb149ad1	-0.0022675286
48	0x3d0b7807	0.034050014
49	0xbe494de2	-0.19658616
50	0x3e11b16d	0.14227839
51	0x3e8767fa	0.26446515
52	0xbda61c71	-0.081108935
53	0x3df45475	0.119301714
54	0x3c2c8946	0.010530775
55	0x3e6f05d6	0.2334207
56	0xbd974ab6	-0.07387297
57	0x3e304a20	0.17215776
58	0xbe73a6c4	-0.23794085
59	0xbe4fe0d6	-0.20300612
60	0xbda8f21f	-0.08249306
61	0xbd8a6224	-0.06757
62	0xbe17ba8c	-0.14817256
63	0xbe46220b	-0.19348924
64	0xbea5d93a	-0.32392293
65	0xbdb64663	-0.08900144
66	0xbdfcec6b	-0.12349781
67	0x3d73c155	0.059510548
68	0x3dfa4ae7	0.12221318
69	0xbdc9f249	-0.09860665
70	0x3d764482	0.060123928
71	0xbe2010cf	-0.15631412
72	0x3e781cea	0.2422978
73	0x3e8a9c36	0.27072304
74	0x3dbf4813	0.09339919
75	0x3e89e047	0.26928923
76	0xbd67620a	-0.05648998
77	0x3c71c7b5	0.0147570865
78	0x3f16604f	0.58740705
79	0x3e23bf3c	0.15990919
80	0x3d5c310f	0.053757723
81	0xbe1412b3	-0.14460258
82	0xbdd5a4b3	-0.104318045
83	0x3e95b4d1	0.29239514
84	0x3e7147e4	0.2356258
85	0xbe77f5fe	-0.24214932
86	0x3caa2f65	0.020774553
87	0x3bc5e98a	0.006039803
88	0x3e1b45ab	0.15163295
89	0xbd07e6c7	-0.03317907
90	0x3f22076a	0.6329256
91	0xbdf4d676	-0.11954968
92	0xbe17dfe0	-0.14831495
93	0x3e013b38	0.12620246
94	0x3d63bf4b	0.055602353
95	0x3dbaadcf	0.091151826
96	0xbde38265	-0.11108855
97	0xbd166200	-0.036714554
98	0xbd8b7f54	-0.06811395
99	0x3e1f937d	0.15583606
100	0x3d126ee2	0.035750277
101	0x3d98f516	0.074686214
102	0xbdac14ae	-0.08402382
103	0x3e04d503	0.12971883
104	0x3e7ef0f2	0.24896601
105	0x3dcd7ef3	0.10033979
106	0x3e808f6f	0.2510943
107	0xbd2509a0	-0.040292382
108	0x3e21348b	0.157427
109	0x3c8f1f23	0.017470902
110	0x3e20b15d	0.15692659
111	0xbeb2f81b	-0.34954914
112	0x3ee86547	0.45389768
113	0x3e492a3a	0.19645014
114	0x3e0c7365	0.13715895
115	0x3cd8ec16	0.026479762
116	0x3f7d6b36	0.98991716
117	0x3e44e62c	0.19228429
118	0x3d8da83d	0.069168545
119	0x3ecac97b	0.39606842
120	0x3e93c5c3	0.28861818
121	0xbe0386ec	-0.12844437
122	0x3e2ff4de	0.17183253
123	0x3f27d82c	0.6556423
124	0xbe5a7cf2	-0.21336725
125	0xbd6c2921	-0.05765641
126	0x3d3b3985	0.04570915
127	0x3f8d3487	1.1031655

output.weight f4 [16, 128]
0	0xbd85657f	-0.065134995
1	0x3cfd2b3e	0.030904409
2	0xbcdfc9f2	-0.027317975
3	0xbad618d0	-0.0016334299
4	0x3d3c6665	0.04599609
5	0x3cbc6b67	0.023000432
6	0xbd960818	-0.073257625
7	0xbc5b7a20	-0.013395816
8	0x3f4da70c	0.8033302
9	0xbd2155a7	-0.039388325
10	0xbc6639e6	-0.01405189
11	0xbba9b347	-0.005178842
12	0xbb139eb1	-0.0022525007
13	0xbd4385c2	-0.047734983
14	0x3c9b6ca6	0.018972706
15	0x3d8e5655	0.0695006
16	0x3ce513d7	0.027963562
17	0x3db4bb1a	0.08824749
18	0x3e590374	0.21192724
19	0xbc6da399	-0.014504337
20	0xbc87fd68	-0.016600326
21	0x3d3ddaf3	0.046351384
22	0x3dba7814	0.09104934
23	0x3d1c86ab	0.038214367
24	0x3d3b72cb	0.045763772
25	0x3ea6a36b	0.32546553
26	0xbbead1b7	-0.0071661132
27	0x3d1e970b	0.038718265
28	0x3c46658f	0.012109174
29	0x3d853e80	0.065060616
30	0x3bddf551	0.0067736288
31	0x3d920bf7	0.07131188
32	0x3d87ec04	0.06636813
33	0x3dfbf786	0.12303071
34	0xbdb1f4bb	-0.08689257
35	0xbd460153	-0.048341107
36	0x3c93c6ba	0.018039096
37	0x3d78ba99	0.06072483
38	0x3dc60c46	0.0967031
39	0x3bc40da4	0.0059830714
40	0x3d5ad666	0.053427123
41	0xbd1f89d3	-0.0389498
42	0x3cd32bb9	0.025777685
43	0xbcd4d883	-0.025982147
44	0x3c31c76f	0.010850771
45	0x3aa94436	0.0012914005
46	0x3ddca8e8	0.10774404
47	0x3cdf50cf	0.027260212
48	0x3d73ed7b	0.05955265
49	0x3dace521	0.0844214
50	0x3dca4d54	0.098780304
51	0x3e089574	0.13338262
52	0x3d744069	0.05963174
53	0x3d5b8788	0.05359605
54	0xbcb95605	-0.022624025
55	0xbd62842d	-0.055301834
56	0x3d1e7a25	0.038690705
57	0xbda236a3	-0.079205774
58	0x3da1be63	0.078976415
59	0xbd925adc	-0.07146236
60	0x3cef9e7a	0.029250372
61	0xbdaa35b9	-0.08311028
62	0xbb424dc7	-0.002964841
63	0x3d400596	0.046880327
64	0x3d1bf948	0.03807953
65	0x3d96c947	0.07362609
66	0x3da051e5	0.0782812
67	0xbd162778	-0.036658734
68	0x3dabf0ea	0.0839556
69	0x3d8cc7b6	0.06874029
70	0x3cbf7ef3	0.023375964
71	0xbce82f05	-0.028342733
72	0x3cb6a62c	0.022296034
73	0x3eacac66	0.3372528
74	0xbd018b13	-0.031626772
75	0x3ddff3f5	0.10935203
76	0x3971cc20	0.00023059594
77	0x3db23cc3	0.08702996
78	0x3e9ba0a0	0.30395985
79	0x3d2ca492	0.042149134
80	0x3d8803ca	0.06641348
81	0x3e15ebe1	0.14640762
82	0x3d9d514c	0.07681522
83	0x3ca74634	0.020419218
84	0xbd0ec3f7	-0.034854855
85	0x3cf5ce04	0.030005462
86	0x3d5095a8	0.050923973
87	0x3dc4b0a8	0.09604007
88	0x3da12b9b	0.07869645
89	0x3d669d38	0.05630228
90	0x3e93beb9	0.28856447
91	0x3ddc4282	0.10754873
92	0xbba3bd8e	-0.004996962
93	0x3ce40c13	0.027837789
94	0xbc8cc177	-0.017182095
95	0x3dc2900e	0.095001325
96	0x3cb73734	0.02236519
97	0x3d50ca59	0.050974224
98	0x3d2380de	0.03991782
99	0x3a9fb380	0.0012184232
100	0xbc87a5c5	-0.016558537
101	0x3d736d93	0.05943067
102	0x3d0458a6	0.032311104
103	0x3e3084f3	0.17238216
104	0x3e226b7b	0.15861313
105	0x3991250c	0.00027684157
106	0x3cd85004	0.026405342
107	0x3cf8ea0b	0.030385038
108	0x3dc94a08	0.098285735
109	0x3dcb5924	0.099291116
110	0x3ddd1ad5	0.107961334
111	0x3dc7c66e	0.09754644
112	0x3d8f6ba9	0.070029564
113	0xbd4f7f2d	-0.050658394
114	0x3d873b07	0.066030554
115	0x3d9036dc	0.070417136
116	0x3e08761b	0.13326304
117	0x3e6ecc16	0.2332004
118	0x3c11ae3d	0.008891639
119	0x3eb15d0c	0.34641302
120	0x3dc4f776	0.09617512
121	0xbd02fb58	-0.03197798
122	0x3c81703d	0.01580059
123	0x3e64843b	0.22316067
124	0x399c2ce9	0.000297881
125	0xbd27f510	-0.041005194
126	0x3d4b985a	0.04970584
127	0x3ea3f981	0.32026294
128	0x3d276561	0.040868167
129	0x3bacf6c3	0.0052784397
130	0x3d1e18ae	0.038597755
131	0x3d6d0a50	0.057871163
132	0x3dac4f29	0.08413536
133	0x3da7e6d8	0.08198327
134	0xbc55083a	-0.01300245
135	0xbd910c02	-0.070823684
136	0xbef3198e	-0.47480434
137	0xbbaf75fc	-0.005354641
138	0x3dd6a71b	0.104810916
139	0x3ed4fcbf	0.4159908
140	0x3d2f2e70	0.042768896
141	0x3dcaffea	0.09912093
142	0x3d9515b1	0.07279528
143	0x3dff651f	0.12470459
144	0xbb14fcee	-0.0022733766
145	0xbc08c5d9	-0.008347952
146	0xbd49e967	-0.049294855
147	0x3e0ac331	0.13551022
148	0x3d179345	0.03700568
149	0x3e0235f7	0.12715898
150	0x3e17f5b9	0.1483983
151	0x3c0711cd	0.00824399
152	0x3d248326	0.040164135
153	0x3dfc2134	0.123110205
154	0x3da94db4	0.08266774
155	0x3cdd9c64	0.027052112
156	0xbd387f9a	-0.045043565
157	0x3d108138	0.035279483
158	0x3c90ba1e	0.017666873
159	0x3c069571	0.008214341
160	0x3d55c0d8	0.052185863
161	0x3ce2b043	0.027671939
162	0xbd102b3d	-0.035197485
163	0xbd02e5b6	-0.03195735
164	0x3d732e95	0.059370596
165	0x3e076c2a	0.13224855
166	0xbe4fb8cb	-0.20285337
167	0x3d88a6f5	0.066724695
168	0xbc653807	-0.013990409
169	0x3d85a0c5	0.06524805
170	0x3d1435ab	0.036183994
171	0x3d444bd9	0.047923896
172	0x3e095335	0.13410647
173	0xbd4818f1	-0.04885191
174	0x3c93f508	0.018061176
175	0xbcd29796	-0.025707047
176	0x3dbb43cf	0.09143793
177	0x3ddf19cc	0.10893592
178	0x3eb0735b	0.3446301
179	0xbd7f12e7	-0.062273886
180	0x3dccdcfb	0.10003086
181	0xbd89f5eb	-0.06736358
182	0x3baf96b1	0.00535854
183	0x3df77aa0	0.12083936
184	0xbbd3a205	-0.006458523
185	0x3dad8436	0.08472483
186	0x3d183f75	0.037169892
187	0xbd52b19e	-0.05143892
188	0x3d9f14db	0.0776765
189	0xbe9fc8a7	-0.31207773
190	0xbc8c5b69	-0.017133432
191	0xbbde5e6d	-0.006786159
192	0x3def18c3	0.11674645
193	0x3db1d549	0.08683259
194	0x3dbe8e06	0.093044326
195	0x3cec5dce	0.028853323
196	0x3d379cb3	0.044827174
197	0x3da8bf65	0.082396306
198	0x3beafc2f	0.007171176
199	0x3cc77713	0.024348771
200	0x3dfc529a	0.123204425
201	0x3e2b8bab	0.16752498
202	0xbd424bd0	-0.04743558
203	0xbc587347	-0.013211078
204	0x3d4a255e	0.049352042
205	0xbd10ae9f	-0.03532278
206	0xbe6b2af0	-0.22965598
207	0xbad3f924	-0.0016172272
208	0xbdc4eab0	-0.096150756
209	0x3e145147	0.1448413
210	0x3d602ba4	0.05472912
211	0xbd43a5ce	-0.047765546
212	0x3dc80128	0.097658455
213	0x3e0d44ef	0.13795827
214	0x3e2c8b25	0.16849954
215	0x3c465dd7	0.012107334
216	0x3dc7fbdc	0.09764835
217	0x3dac552d	0.084146835
218	0xbe45483b	-0.19265835
219	0xbccd9c8c	-0.025099061
220	0x3d382e74	0.044966176
221	0x3c80a25d	0.01570242
222	0x3d0a5254	0.03376992
223	0x3df698e8	0.12040883
224	0x3c824dd1	0.015906246
225	0x3cdb6559	0.026781725
226	0xbc4d74d4	-0.012540061
227	0x3d968c6f	0.07351004
228	0x3d06683f	0.03281426
229	0xbd1ee602	-0.03879357
230	0x3d0f8070	0.035034597
231	0x3d314df7	0.043287244
232	0x3cf42b0e	0.029805686
233	0xbc8f376b	-0.01748248
234	0x3dfb9b50	0.12285483
235	0x3db8bf32	0.090208426
236	0xbd65d655	-0.056112606
237	0x3d7a7f1c	0.061156377
238	0x3dc4787d	0.09593294
239	0xbc27239e	-0.010201363
240	0x3eca65cb	0.39530787
241	0xbc0e19e7	-0.008673168
242	0xbcd3b845	-0.025844702
243	0x3dd2c8c3	0.102921985
244	0x3f3eabd3	0.7448093
245	0x3f0943ed	0.5361927
246	0x3d658bcc	0.056041524
247	0x3d63e842	0.05564142
248	0x3dcc4b50	0.09975302
249	0xbb05477e	-0.0020336802
250	0xbd31e344	-0.043429628
251	0x3e887420	0.26651096
252	0x3df94641	0.12171603
253	0x3da678a5	0.0812848
254	0x3cae6705	0.021289358
255	0x3f3aa52a	0.7290827

output.bias f4 [16]
0	0x3e2f395f	0.17111729
1	0x3d99dcd7	0.07512825
2	0x3e2d3fda	0.16918889
3	0xbbe3da7a	-0.0069535347
4	0x3d6db0a3	0.058029782
5	0xbb45ff8d	-0.0030212135
6	0xbdca6541	-0.09882594
7	0x3d8d9333	0.06912842
8	0x3d84f2dd	0.06491635
9	0x3d207315	0.03917225
10	0x3d4cd4c2	0.05000759
11	0xbc7a7053	-0.015285569
12	0x3dabdcc6	0.083917186
13	0x3bfd311e	0.0077268025
14	0xbc44b9a0	-0.012007147
15	0xbdae3365	-0.085058965
