temp_morel/pretrained_models2/pretrain_model9.pt (torch, 19487 bytes, 4 tensors)

hidden.weight f4 [128, 18]
0	0x3e58099a	0.21097413
1	0x3d17c62f	0.037054237
2	0xbeeb31b0	-0.45936346
3	0x3d2c5ae5	0.04207887
4	0x3f52fb56	0.8241476
5	0x3f036357	0.51323456
6	0xbf4c0048	-0.7968793
7	0x400fc91e	2.2466502
8	0x3f853d5e	1.0409353
9	0xbf0debc2	-0.5543786
10	0x3f1e2748	0.6177869
11	0xbecd47dc	-0.40093887
12	0x3f4f3960	0.8094692
13	0x3da95061	0.08267284
14	0x3f6dcacf	0.92887586
15	0x3ecb5701	0.39714816
16	0x3f4b453d	0.79402524
17	0x3f8703c6	1.0548027
18	0xbd4164d0	-0.047215283
19	0xbda8c8cb	-0.08241423
20	0x3e15c79b	0.14626925
21	0x3dd12b63	0.102133535
22	0x3d99e4fe	0.0751438
23	0x3e50ec2a	0.2040259
24	0x3e3c36ae	0.18380234
25	0x3f492a79	0.78580433
26	0xbf095f69	-0.5366121
27	0x3e2d135c	0.16901916
28	0xbe0a4666	-0.13503417
29	0x3e8f186f	0.2794833
30	0xbfa72b41	-1.3060075
31	0xbd2b5df7	-0.04183766
32	0xbdde98dd	-0.10869
33	0x3dd383e8	0.103278935
34	0xbde75dcd	-0.11297188
35	0x3eb573d3	0.3543993
36	0x3da0c907	0.07850843
37	0xbc80648e	-0.015672948
38	0xbe378e57	-0.17925392
39	0x3dba1390	0.090857625
40	0xbe19a861	-0.15005638
41	0xbd01a65c	-0.031652793
42	0xbd073b4e	-0.03301554
43	0xbccf591e	-0.02531105
44	0x3e1d05c2	0.15334228
45	0x3d346807	0.04404452
46	0x3dbb4e88	0.09145838
47	0xbe2ef17e	-0.1708431
48	0x3c2c2164	0.010506008
49	0x3e2735fe	0.1632919
50	0xbe35ca3b	-0.17752926
51	0xbe00254f	-0.12514232
52	0x3dd97153	0.10617318
53	0xbe34da21	-0.17661335
54	0x3cf2cd38	0.029638872
55	0xbcecab0a	-0.028890152
56	0x3dc1a1f9	0.09454722
57	0x3e8ddce6	0.27707595
58	0x3e1ace60	0.15117788
59	0xbe73de10	-0.23815179
60	0x3f1614a6	0.58625257
61	0x3fb9afa6	1.4506729
62	0x3d8e09e6	0.06935482
63	0x3fe3b7ea	1.7790501
64	0x4023d50b	2.559878
65	0x3eb9ff22	0.36327463
66	0xc00da45e	-2.2131572
67	0x3ea90e77	0.33018848
68	0xbe56db2f	-0.2098205
69	0x3e0c5bcc	0.13706893
70	0xbd45883d	-0.04822563
71	0xbe64dda0	-0.22350168
72	0x3e7e5d28	0.24840224
73	0xbe0ea008	-0.13928235
74	0xbe7332dc	-0.2374987
75	0x3ec8c4a7	0.39212534
76	0x3f0c6781	0.54845434
77	0x3e40d322	0.18830541
78	0xbead9f63	-0.33910665
79	0x3ff64904	1.9241033
80	0x3fa03acb	1.2517942
81	0xbe41fe61	-0.18944694
82	0x3f43b5e7	0.76449436
83	0xbe9543b2	-0.2915321
84	0x3f337ded	0.7011402
85	0xbe3c4be6	-0.18388328
86	0x3ea2e0b4	0.3181206
87	0x3f018612	0.505952
88	0x3eb1bd4c	0.34714735
89	0x3ede11d8	0.4337299
90	0xbe3a96cb	-0.18221585
91	0xbe640299	-0.22266616
92	0xbd4f8558	-0.050664276
93	0xbdad2c57	-0.08455723
94	0x3cb729f6	0.022358876
95	0x3e5b21ef	0.21399663
96	0x3e69d1e1	0.22833969
97	0xbe014e21	-0.1262746
98	0x3c23df78	0.01000201
99	0xbe45ce8c	-0.19317073
100	0x3dd3e6f7	0.103467874
101	0xbdbb146e	-0.09134756
102	0xbe471e65	-0.19445188
103	0x3e50b0b0	0.20379901
104	0x3d7858b5	0.060631473
105	0xbdb34421	-0.08753229
106	0x3e3d2add	0.18473382
107	0xbdc16aab	-0.094441734
108	0x3e30e498	0.17274702
109	0xbdea5759	-0.114424415
110	0xbe8ed74c	-0.27898633
111	0x3ecc75ab	0.39933524
112	0x3f178d63	0.59200114
113	0x3e89eef4	0.2694012
114	0x3a81be92	0.0009898713
115	0x3fbc3ee5	1.4706694
116	0x3f7b2108	0.98097277
117	0xbec21531	-0.37906793
118	0x3f14ba6d	0.58096963
119	0xbd895eb4	-0.06707516
120	0x3f367861	0.71277434
121	0x3e11e788	0.14248478
122	0x3f2cce7b	0.67502564
123	0x3f3467ce	0.70470893
124	0x3efc32bf	0.49257466
125	0x3eb20c6d	0.34775105
126	0x3dfcc758	0.12342709
127	0x3e041e70	0.12902236
128	0x3da86be1	0.08223701
129	0x3cd96b90	0.026540548
130	0x3e2b516b	0.16730277
131	0x3dd84aa9	0.10561115
132	0x3e72df19	0.23717918
133	0x3fa79d8f	1.3094958
134	0xbd32cf56	-0.043654762
135	0xbee8cf61	-0.45470718
136	0x40017e96	2.0233512
137	0xbb85c64e	-0.0040824777
138	0xc0091e7a	-2.1424851
139	0x3ea954f4	0.33072627
140	0x3d4b1b3e	0.049586527
141	0x3e375f7a	0.17907515
142	0xbcb7433a	-0.022370923
143	0x3e4302a3	0.19043975
144	0xbd9b1726	-0.075727746
145	0xbe571f0f	-0.21007942
146	0x3db217c9	0.08695943
147	0x3e176462	0.14784387
148	0xbe59b843	-0.21261697
149	0xbdfc18df	-0.12309431
150	0xbe0f1ddd	-0.13976236
151	0x3cc414ec	0.023935758
152	0x3d9ef71d	0.07761977
153	0x3da6bab0	0.081410766
154	0xbaca1f3f	-0.0015420689
155	0xbe0bfb6f	-0.13670133
156	0xbe5bf8e9	-0.2148167
157	0xbe0a86e7	-0.13528024
158	0xbe319eb3	-0.17345695
159	0xbdb36966	-0.087603375
160	0x3da1efdc	0.07907078
161	0x3cbe45ef	0.023226706
162	0x3cb97a1c	0.022641234
163	0xbd47fded	-0.048826147
164	0xbd9c6731	-0.0763687
165	0xbe163b73	-0.14671116
166	0xbe47e731	-0.19521786
167	0xbcb8a017	-0.022537274
168	0xbde3e6b9	-0.11127991
169	0x3dedb0ee	0.11606012
170	0xbe3ac2c5	-0.18238361
171	0x3e760095	0.2402366
172	0x399c0fa6	0.00029766298
173	0xbe03cf61	-0.12872078
174	0xbe15ecd7	-0.14641128
175	0xbdaf2162	-0.08551289
176	0xbe233d1c	-0.1594128
177	0xbc3e3e09	-0.01161147
178	0xbe83d976	-0.25751847
179	0xbc039513	-0.0080311475
180	0xbe419fd9	-0.18908633
181	0x3d4965a1	0.049169187
182	0xbde08b4e	-0.1096407
183	0xbe3ae28d	-0.18250485
184	0x3dfc27e9	0.123123
185	0x3e2829fb	0.16422264
186	0x3dad77e9	0.08470137
187	0x3e349aa4	0.17637116
188	0xbd680d03	-0.056653034
189	0x3d69e582	0.05710364
190	0x3db60d12	0.08889212
191	0xbda4ab3f	-0.08040475
192	0xbd92b4b2	-0.07163371
193	0x3c744886	0.014909869
194	0x3d9603c0	0.07324934
195	0xbe6e6df2	-0.23284128
196	0x3b1d0614	0.0023959922
197	0x3e5a13df	0.21296643
198	0x3e3e7e80	0.18602943
199	0x3e2bf678	0.16793239
200	0x3e945824	0.28973496
201	0xbd5ad001	-0.053421024
202	0x3e89b18e	0.26893276
203	0x3e529291	0.20563723
204	0x3e3ac493	0.1823905
205	0x3ea330b6	0.318731
206	0x3e78393b	0.24240582
207	0xbf90f0f0	-1.1323528
208	0xbfedf1fb	-1.8589472
209	0xbd976927	-0.07393103
210	0xbf738550	-0.95125294
211	0x3e895f97	0.26830742
212	0x3ccf3d60	0.02529782
213	0x3e43dd6d	0.19127436
214	0x3e94b6be	0.2904567
215	0x3e8ac77a	0.27105314
216	0x3db444ac	0.088021606
217	0xbe8e7a43	-0.27827653
218	0xbd8cc3d0	-0.06873286
219	0xbddbfe52	-0.10741867
220	0xbc6fd716	-0.014638683
221	0x3e0f460e	0.13991567
222	0x3a15bad8	0.0005711741
223	0x3e2f240e	0.17103598
224	0xbe924c08	-0.28573632
225	0xbea74eda	-0.32677346
226	0x3d98a6c7	0.07453685
227	0x3ded26b0	0.11579645
228	0x3e01c927	0.1267439
229	0x3c025d56	0.007956823
230	0xbe0aada1	-0.13542797
231	0x3db5153c	0.08841941
232	0xbd4feacd	-0.050761033
233	0xbce31cb5	-0.02772365
234	0xbea49fdc	-0.32153213
235	0x3d279742	0.040915735
236	0xbd82e73c	-0.06391761
237	0xbddf11bf	-0.10892057
238	0xbe5bb8bc	-0.2145719
239	0x3d16b203	0.03679086
240	0xbea05846	-0.31317347
241	0xbe2e7ed9	-0.17040576
242	0xbe3dc4ed	-0.18532152
243	0xbe8f2e14	-0.27964842
244	0x3b4b6e9f	0.0031041277
245	0xbe9a81d5	-0.3017718
246	0xbd7e81a9	-0.062135372
247	0xbd2e7653	-0.04259331
248	0xbe3e47d5	-0.18582089
249	0xbeb5eeac	-0.35533655
250	0x3c755b4e	0.014975382
251	0xbd077b64	-0.03307666
252	0xbe151707	-0.14559565
253	0x3deec0b5	0.1165785
254	0x3daa19a7	0.08305674
255	0xbd8eb40c	-0.06967935

hidden.bias f4 [128]
0	0x3f169876	0.58826387
1	0x3bd159a6	0.0063888608
2	0xbd3b3d88	-0.045712978
3	0xbd9b0eeb	-0.07571205
4	0x3f1779ce	0.59170234
5	0xbe58be22	-0.2116628
6	0x3f45c5af	0.77254766
7	0xbd5b1b6d	-0.053492952
8	0x3e1352e7	0.14387093
9	0xbe905daa	-0.2819646
10	0xbe2dc827	-0.16970883
11	0x3de3426c	0.11096653
12	0xbe5c8b1d	-0.21537443
13	0xbd4939f4	-0.049127534
14	0x3b29fd57	0.0025938356
15	0x3d51d569	0.051228914
16	0xbbb5dfaf	-0.005550347
17	0x3e677f4a	0.2260715
18	0x3d2357ef	0.039878782
19	0x3ecc5162	0.3990584
20	0x3e320b53	0.17387132
21	0xbe6043bb	-0.21900837
22	0x3f649ed1	0.89304835
23	0x3dd3eef5	0.10348312
24	0x3e1e1d5d	0.15440889
25	0xbd1a0060	-0.037598014
26	0x3ebc6eec	0.36803377
27	0xbe80b111	-0.2513509
28	0x3e4ff8ff	0.20309828
29	0x3e232e18	0.15935552
30	0x3f1a30cf	0.60230726
31	0x3e1657da	0.1468195
32	0xbe1594fe	-0.14607617
33	0x3df77ee0	0.12084746
34	0x3e4392f0	0.19099021
35	0xbe975b73	-0.29561958
36	0xbdae6865	-0.085160054
37	0xbe248672	-0.16066912
38	0x3e6472df	0.22309445
39	0x3e24d291	0.1609595
40	0xbe93f604	-0.28898633
41	0xbd410b14	-0.047129706
42	0xbdad26e4	-0.084546834
43	0xbe2599fa	-0.16172019
44	0x3e12756d	0.14302607
45	0xbe3ace99	-0.18242873
46	0x3e9a18dc	0.3009709
47	0xbdba4662	-0.09095456
48	0x3deae24f	0.11468946
49	0x3d07dea1	0.0331713
50	0x3e4c70f3	0.19964962
51	0x3e278c64	0.16362149
52	0x3dc50461	0.09619976
53	0x3d79c6c8	0.06098059
54	0x3e123603	0.14278416
55	0x3d275ace	0.040858082
56	0x3cd4641e	0.025926646
57	0xbc76fffa	-0.015075678
58	0xbe2d328e	-0.16913816
59	0xbe454ec0	-0.19268322
60	0xbddb9e04	-0.107234985
61	0x3e248d57	0.16069542
62	0xbdc9ea47	-0.09859138
63	0x3f24b183	0.6433336
64	0xbe5e5ada	-0.21714345
65	0x3e0a93e5	0.1353298
66	0xbe34359b	-0.17598574
67	0x3f972ae4	1.1809964
68	0x3e12cbe0	0.14335585
69	0xbd6556bd	-0.055990923
70	0x3e94ba11	0.29048207
71	0x3e1c0a9a	0.15238419
72	0x3d822918	0.06355494
73	0x3c8c1c49	0.017103331
74	0xbcdab47b	-0.026697388
75	0x3e323863	0.17404322
76	0x3db159ef	0.086597316
77	0xbe4e3a18	-0.20139349
78	0xbe1b576e	-0.1517007
79	0xbe9f8314	-0.31154692
80	0x3eb96b47	0.3621466
81	0x3c080def	0.008304103
82	0xbc817c6a	-0.015806396
83	0xbe18f55e	-0.1493735
84	0x3f233f08	0.63768053
85	0x3e96fdfc	0.2949065
86	0xbd3cbcdf	-0.04607856
87	0x3e844265	0.25831905
88	0xbe5fd41c	-0.21858257
89	0xbc82e779	-0.015979515
90	0x3ee73e04	0.45164502
91	0xbd8dc55c	-0.06922409
92	0x3e05561b	0.13021128
93	0x3e5e36d6	0.21700606
94	0x3d89c748	0.06727463
95	0x3d83835c	0.06421539
96	0xbdfd9eb7	-0.12383788
97	0x3d6de93b	0.058083754
98	0xbd60b705	-0.05486204
99	0x3e67de2c	0.22643346
100	0xbe025e87	-0.12731372
101	0x3d85de14	0.06536499
102	0xbe367980	-0.17819786
103	0x3d124320	0.035708547
104	0x3d4b340b	0.04961018
105	0xbed6b181	-0.419323
106	0xbe9520ec	-0.2912668
107	0xbd462420	-0.048374295
108	0xbdc6b33b	-0.09702154
109	0x3d99cf89	0.07510287
110	0xbe4cf97f	-0.2001705
111	0xbaf2b136	-0.0018515948
112	0x3e0e5fb2	0.13903692
113	0xbdf28913	-0.11842551
114	0xbe9c6924	-0.30548966
115	0xbe2f00d5	-0.17090161
116	0xbda7d919	-0.08195705
117	0x3d561859	0.052269313
118	0xbd86e174	-0.065859705
119	0xbe5fef63	-0.21868663
120	0xbd713792	-0.058890887
121	0x3e0d7f76	0.13818154
122	0x3e6b5313	0.22980909
123	0x3dd17428	0.10227233
124	0x3d0749f8	0.033029526
125	0x3dc49613	0.09598937
126	0xbddaefbd	-0.10690258
127	0x3e09ce49	0.13457598

output.weight f4 [16, 128]
0	0x3e103b26	0.14085063
1	0xbcda9b54	-0.026685394
2	0x3db4c1b8	0.088260114
3	0x3cad098d	0.021122718
4	0x3ec3d182	0.3824578
5	0xbd7e1ab8	-0.0620372
6	0x3e9d9c34	0.30783236
7	0x3c9c8163	0.019104665
8	0x3cf134a7	0.029444052
9	0x3d97018b	0.07373341
10	0xbd84208f	-0.064515226
11	0xbc4aa762	-0.012369009
12	0xbbc2fa0c	-0.005950218
13	0x3d3e80d1	0.046509568
14	0xbd4bcc45	-0.049755353
15	0x3daa0862	0.0830238
16	0xbd67d362	-0.056598075
17	0xbb856fe3	-0.004072176
18	0x2f36a8d5	1.6612785e-10
19	0x3f1248c3	0.57142276
20	0xbd567c41	-0.05236459
21	0xbb09e56c	-0.0021041287
22	0x3e513c08	0.20433056
23	0xbb30d03c	-0.0026979586
24	0xbced1b65	-0.028943727
25	0x3dba9c3e	0.09111832
26	0x3e98ce11	0.29844716
27	0x3d67652c	0.05649297
28	0x3c9c20b5	0.019058565
29	0x3c0d1cdd	0.008612839
30	0x3ebd3aec	0.36959016
31	0x3e0588f6	0.13040528
32	0x3d81d766	0.06339912
33	0x3c3c97d1	0.011510805
34	0xbdaa1195	-0.08304135
35	0x3bd651b8	0.0065405034
36	0x3cd129f1	0.025532695
37	0xbd48aba8	-0.04899183
38	0x3cdad715	0.026713887
39	0x3dc4e4d0	0.09613955
40	0x3e17b68e	0.14815733
41	0x3cd37084	0.025810488
42	0x3b98f080	0.0046673417
43	0xbcda2cf9	-0.026632773
44	0xbda0ae0f	-0.07845699
45	0xbd7c7c66	-0.061642073
46	0xbc297387	-0.010342485
47	0x3ccbc7cb	0.024875542
48	0xbd35dc2b	-0.04439942
49	0x3d2f926b	0.042864244
50	0xbd7be147	-0.061494138
51	0x3dccd78f	0.10002052
52	0xb92ca22c	-0.00016463612
53	0xbd006672	-0.0313477
54	0x3c045a06	0.008078104
55	0x3c9b44fa	0.018953789
56	0xb9ef509f	-0.000456457
57	0x3db43a54	0.08800188
58	0xbc520855	-0.012819369
59	0x3d8a688b	0.06758221
60	0xbd1ff7a3	-0.039054524
61	0xbccf33cb	-0.025293251
62	0x3e830e90	0.25597048
63	0x3e238c31	0.15971448
64	0x3d9e431e	0.07727645
65	0xbd3ddc44	-0.04635264
66	0xbd49d982	-0.049279697
67	0x3df26dd5	0.11837355
68	0x3d67664a	0.056494035
69	0x3cb1aeaa	0.021689732
70	0x3dc0dd77	0.09417241
71	0x3e3aa769	0.18227924
72	0x3db0eba0	0.08638692
73	0x3db3194d	0.0874506
74	0x3d836b91	0.06417001
75	0xbd25c1a9	-0.04046789
76	0x3d2d549a	0.04231701
77	0xbc8cdca8	-0.01719506
78	0x3b3506e5	0.0027622518
79	0x3d2250f5	0.039627988
80	0x3ddb7fb0	0.10717714
81	0x3d8b4718	0.068006694
82	0x3c30b917	0.010786316
83	0xbd527e89	-0.051390205
84	0x3dff9520	0.12479615
85	0x3b7104c3	0.003677652
86	0x3d3a3cdf	0.045468207
87	0x3e2462cc	0.16053313
88	0x3c11804b	0.008880685
89	0x3db7d6df	0.0897653
90	0x3e03dd29	0.12877335
91	0x3d4b9e58	0.049711555
92	0xbc971336	-0.018441778
93	0x3cd8525b	0.026406458
94	0xbd31076c	-0.04321997
95	0x3d965d5f	0.07342028
96	0x3d3e1486	0.04640629
97	0x3eb738ff	0.35785672
98	0x3d4e19d6	0.050317608
99	0x3dc2e4ea	0.09516318
100	0x3d08ac03	0.03336717
101	0xbc960113	-0.01831106
102	0xbd03c9ab	-0.032174747
103	0x3aff668d	0.0019485519
104	0x3d9a5e9d	0.07537577
105	0xbe08a273	-0.1334322
106	0xbd0d5670	-0.03450626
107	0x3e0b3e5a	0.13598004
108	0x3d3c8c64	0.046032324
109	0x3d78525e	0.060625426
110	0xbdb1da79	-0.086842485
111	0x3d5a293e	0.053261988
112	0x3cefeb2d	0.029286945
113	0xbc07d322	-0.008290084
114	0x3dac38ee	0.08409296
115	0xbc92aa31	-0.01790342
116	0x3d08d49f	0.033405896
117	0x3d8c403f	0.068481915
118	0xbd52375e	-0.051322334
119	0x3da33f02	0.07971002
120	0x3d8f58ff	0.069993965
121	0x3d86d076	0.065827295
122	0xbd2fe8ad	-0.042946506
123	0x3dc35ab5	0.09538785
124	0x3daa770e	0.08323489
125	0x3d07063c	0.03296493
126	0x3cd234a7	0.025659872
127	0xbda9544b	-0.08268031
128	0xbc2b93af	-0.010472222
129	0x3d7c9fb9	0.06167576
130	0xbd30c0bc	-0.043152556
131	0x3e038c34	0.12846452
132	0x3e342a5d	0.17594285
133	0x3c6de7ae	0.014520569
134	0x3e9b74b8	0.30362487
135	0x3df70ca6	0.120629594
136	0x3c6afd27	0.014342583
137	0x3e1d1b6e	0.15342495
138	0xbd7f4a90	-0.062326968
139	0x3d83230c	0.06403169
140	0x3dbc09e3	0.09181573
141	0x3d330de0	0.043714404
142	0x3d8db5b2	0.06919421
143	0x3cba9e59	0.022780584
144	0x3d347c17	0.044063654
145	0x3c40ea26	0.011774575
146	0x3bcf654c	0.006329214
147	0xbf0b76c2	-0.54478085
148	0xbcfddcec	-0.030989133
149	0xbd83ebb6	-0.06441443
150	0x3dc1123d	0.09427307
151	0x3dfa88b8	0.12233108
152	0xbd4bd738	-0.049765795
153	0x3e21e329	0.15809311
154	0x3e4e25de	0.20131633
155	0x3daf3e69	0.08556826
156	0x3c5f1246	0.013615197
157	0x3e09b3e1	0.13447525
158	0x3dd9eecc	0.1064125
159	0xbd817372	-0.063208476
160	0xbc580c64	-0.013186548
161	0x3e249017	0.16070591
162	0x3c4339b0	0.011915609
163	0x3d5650c2	0.05232311
164	0xbc97c8a4	-0.01852829
165	0x3dbacbaf	0.09120881
166	0x3e1fbeed	0.15600176
167	0x3d179159	0.03700385
168	0x3d2ea7da	0.042640544
169	0xbd35a32e	-0.044345073
170	0x3da6d1bf	0.08145475
171	0xbdad8c22	-0.08473994
172	0xbcdc36b5	-0.026881555
173	0x3b939922	0.004504339
174	0xbcbd1440	-0.023080945
175	0x3d812946	0.063067004
176	0x3964e324	0.00021828391
177	0xbc17ea36	-0.009272149
178	0x3aa3f90a	0.0012510133
179	0xbc9ed910	-0.019390613
180	0xbd98ff0b	-0.074705206
181	0x399a6a19	0.00029452218
182	0xbdc39d5e	-0.095515
183	0x3dfc4ec8	0.12319714
184	0x3e17960b	0.1480333
185	0x3e2cbace	0.16868135
186	0xbc014ee3	-0.007892343
187	0x3d26bbdb	0.040706497
188	0x3d729fa1	0.059234265
189	0x3d925a45	0.07146124
190	0x3dfc4657	0.12318104
191	0x3e62ca49	0.22147478
192	0x3a34b16a	0.0006892892
193	0xbdac02a2	-0.0839894
194	0x3d8d4eb1	0.06899775
195	0x3f8f7565	1.1207701
196	0x3cf7ba0a	0.030240078
197	0x3e2d8673	0.1694582
198	0x3b8487af	0.004044495
199	0x3e1d71a0	0.15375376
200	0x3d8fc51d	0.07020018
201	0xbdaf2ea2	-0.085538164
202	0xbd934018	-0.07189959
203	0x3df4b8d8	0.11949319
204	0x3dfdf54f	0.124003045
205	0xbd85c3d8	-0.06531495
206	0x3d8ffbb7	0.07030433
207	0x3e359078	0.17730892
208	0xbe248743	-0.16067223
209	0xbc041211	-0.008060948
210	0x3d71460c	0.058904693
211	0x3cced014	0.025245704
212	0x3e085818	0.13314855
213	0x3e36dbd1	0.17857291
214	0x3ce53807	0.027980817
215	0x3dfdf636	0.12400477
216	0x3de8ad28	0.11361152
217	0xbdd24eb3	-0.10268917
218	0xbd4958bb	-0.049156886
219	0xbd43d7f1	-0.04781336
220	0x3c5cd689	0.013478884
221	0x3c8e2967	0.017353727
222	0x3d813113	0.06308188
223	0xbca6171d	-0.020274693
224	0xbbc8dc67	-0.0061297896
225	0x3f062234	0.5239594
226	0x3d4019c3	0.04689957
227	0x3e26d625	0.16292627
228	0xbe239187	-0.15973483
229	0x3d955b04	0.072927505
230	0x3d5eeb5a	0.054423667
231	0xbc96b588	-0.018397108
232	0x3e16c097	0.14721905
233	0xbf03c5e4	-0.5147383
234	0x3d261fee	0.040557794
235	0x3cf180a5	0.029480288
236	0xbd4fd139	-0.05073664
237	0xbc80b042	-0.015709046
238	0x3c66b107	0.014080293
239	0x3d3e9aa6	0.046534203
240	0xbba0d19e	-0.004907801
241	0x3d0c79cd	0.034295846
242	0x3d921228	0.07132369
243	0x3da7c5a9	0.081919976
244	0x3cd2a8e8	0.025715306
245	0xbc255b58	-0.010092579
246	0xbc2e4539	-0.010636621
247	0x3c3110d5	0.010807236
248	0x3e0bc918	0.1365093
249	0xbdb25725	-0.08708028
250	0x3e167da0	0.1469636
251	0x3e235423	0.15950064
252	0x3e14badf	0.1452441
253	0x3e2b013b	0.16699688
254	0x3bbe2958	0.0058032684
255	0x3da34e38	0.079739034

output.bias f4 [16]
0	0x3dc37091	0.09542955
1	0x3e0c1f53	0.13683824
2	0x3d7c6a36	0.06162473
3	0x3ba6e905	0.005093696
4	0x3dd55ba0	0.10417867
5	0x3d7db3c2	0.06193901
6	0xbd22eb72	-0.03977532
7	0x3cac3c64	0.02102489
8	0xbdb327a1	-0.08747793
9	0xbd161b82	-0.036647327
10	0x3d66e016	0.05636605
11	0xbcd7d33f	-0.026345847
12	0xbcb20c30	-0.021734327
13	0xbcd287c9	-0.025699513
14	0x3d49f1df	0.049302932
15	0xbac9b85d	-0.0015390028
