temp_morel/pretrained_models2/pretrain_model2.pt (torch, 19487 bytes, 4 tensors)

hidden.weight f4 [128, 18]
-0.0017482294 0.021200893 -0.16434926 0.2078254 -0.33042058 -0.22257383 -0.36462718 0.34311235
-0.0016298336 0.11467378 0.34797195 -0.022931308 -0.15611985 0.024712222 0.02640141 -0.38626263
-0.19070864 -0.38789463 0.07815921 0.19384746 0.07941711 0.04493198 -0.025371198 0.32447347
0.2916462 0.6013763 0.08467055 -0.808071 -1.8661894 0.4153936 -0.0096068615 0.35721374
0.10174867 0.25686887 0.08036338 0.23649852 -0.19040856 0.02410558 -0.041452017 -0.098625675
-0.04939136 -0.17874674 -0.033440378 -0.17889068 0.17037007 0.09467303 0.2055141 -0.1649938
-0.09841345 -0.06925556 0.030345337 0.15382423 -0.14473447 0.17960402 -0.14890042 0.08705739
0.087160155 0.39095035 0.5431302 0.40790436 1.3523682 1.9046532 -0.61887366 0.61907977
1.4459518 1.0128366 -2.7686608 1.153445 0.22385606 0.39788774 0.033563357 0.47915265
-0.007026627 -0.26745075 0.021033188 -0.06646299 -0.047301747 -0.24369729 -0.27550995 0.26326758
-0.2772176 0.26883802 0.051115632 -0.020691695 -0.22157316 0.12572686 -0.23684104 0.11109201
-0.039297592 -0.28879282 -0.18399845 -0.19774337 0.10306647 0.024630029 0.121354684 -0.099050604
0.21863365 0.07662162 0.108381465 0.008269914 0.1128159 -0.18678118 0.045698453 0.16207287
0.20996615 0.1459533 0.027300818 -0.0072804186 -0.065933704 0.10392505 0.045205493 0.17185308
-0.107059054 -0.10442673 0.07253124 0.24306096 0.99143493 -1.0819088 -1.8976134 -0.15861027
0.6943184 0.049108997 0.18895064 0.05773521 -0.12695862 0.13963489 -0.13865621 -0.23663154
0.044556074 -0.12995556 -0.043847386 -0.12222018 -0.2610183 -0.073552385 0.14669941 -0.1121684
0.15424015 0.120646484 0.026160741 -0.04384286 -0.2879505 -0.036151472 -0.28545523 0.07639169
-0.31191364 -0.3195961 0.1281451 0.007125233 -0.14300941 -0.33301088 -0.33191606 -0.04371234
-0.076259404 0.20393446 -0.066167265 -0.15367197 0.047160003 -0.15555547 0.07927457 -0.12379011
0.053385466 -0.12593229 0.17151102 0.16483681 0.18395051 0.4000794 0.19487147 0.19488722
0.21831678 0.87341595 -0.11836657 -0.13938569 -1.6076262 0.19303945 -0.71518004 0.0966887
-0.05439331 0.3240305 0.057687905 0.07993909 0.10533126 -0.06928908 0.24110746 -0.15521319
0.35663784 0.062407114 0.33482593 -0.21354848 -0.14144556 -0.85967255 -2.3020444 -0.078366525
-0.94607407 0.18496107 0.3141788 -0.009065081 -0.07446938 0.027403697 0.15070066 -0.008306261
0.17666239 0.51064885 0.19078386 0.048018996 0.099100895 0.32735953 1.084322 -0.33243495
-2.317978 0.58816856 1.1044899 0.58121526 -0.04630982 0.21635203 0.29032728 0.1959085
0.076276325 -0.15978521 -0.112366915 0.38599205 0.2508175 0.11946779 -0.38771686 1.029276
0.3149538 0.42961526 1.063203 -0.36160383 0.24715473 0.014867725 -0.13980277 0.07238482
0.19957136 -0.12341429 -0.042206895 -0.12545465 -0.17244759 0.026409693 -0.22166473 0.16519623
0.021193149 -0.19890133 0.13570653 -0.15036961 0.13131505 0.08260617 -0.13041934 0.014364658
-0.17070924 -0.076008186 0.18943986 0.08201973 -0.29607868 -0.072844364 -0.04480248 -0.27199188
00000000: d824 e5ba 7fad ad3c 2c4b 28be 2fd0 543e
00000010: e32c a9be 65ea 63be 6ab0 babe 6cac af3e
00000020: 24a0 d5ba 16da ea3d 6129 b23e 70da bbbc
00000030: e2dd 1fbe 4971 ca3c c547 d83c 37c4 c5be
00000040: 2049 43be 209a c6be f011 a03d f37f 463e
00000050: 70a5 a23d 990a 383d 42d7 cfbc 6321 a63e
00000060: a752 953e ccf3 193f c167 ad3d bedd 4ebf
00000070: 4bdf eebf 78ae d43e 1966 1dbc b8e4 b63e
00000080: 9b61 d03d 5184 833e 8e95 a43d ab2c 723e
00000090: 76fa 42be 1179 c53c 97c9 29bd 42fc c9bd
000000a0: 984e 4abd 6309 37be c7f8 08bd 1e2f 37be
000000b0: 7e75 2e3e efe3 c13d 4a72 523e 22f4 28be
000000c0: fe8c c9bd dcd5 8dbd c996 f83c 1984 1d3e
000000d0: 4635 14be 1eea 373e 5a79 18be 254b b23d
000000e0: 0681 b23d a52a c83e 950a 0b3f d7d8 d03e
000000f0: 671a ad3f adcb f33f 816e 1ebf 037c 1e3f
00000100: f314 b93f a1a4 813f bd31 31c0 16a4 933f
00000110: 863a 653e f1b7 cb3e bb79 093d 7f53 f53e
00000120: 9f3f e6bb 4eef 88be cb4d ac3c c01d 88bd
00000130: 7abf 41bd c88b 79be a40f 8dbe 02cb 863e
00000140: 77ef 8dbe 23a5 893e a05e 513d a181 a9bc
00000150: 13e4 62be 8bbe 003e 7586 72be 3584 e33d
00000160: 83f6 20bd a7dc 93be 176a 3cbe 3d7d 4abe
00000170: 8314 d33d eac4 c93c ce88 f83d 0bdb cabd
00000180: 80e1 5f3e cceb 9c3d 1af7 dd3d 897e 073c
00000190: 060c e73d 9143 3fbe 4d2e 3b3d 6ef6 253e
000001a0: 5e01 573e c874 153e f7a5 df3c 9490 eebb
000001b0: 4008 87bd a8d6 d43d 6529 393d 41fa 2f3e
000001c0: c741 dbbd aedd d5bd 428b 943d f9e4 783e
000001d0: aece 7d3f fd7b 8abf ffe4 f2bf bb6a 22be
000001e0: dabe 313f 8426 493d 477c 413e c17b 6c3d
000001f0: 7101 02be 73fc 0e3e e5fb 0dbe 8a4f 72be
00000200: 6e80 363d 1213 05be 5199 33bd 934e fabd
00000210: 31a4 85be a2a2 96bd 5f38 163e 8cb8 e5bd
00000220: 21f1 1d3e 8115 f73d 0d4f d63c 9294 33bd
00000230: 3f6e 93be 9113 14bd 3027 92be 3f73 9c3d
00000240: 25b3 9fbe 1aa2 a3be 7838 033e c97a e93b
00000250: 0f71 12be 6780 aabe e7f0 a9be b60b 33bd
00000260: e42d 9cbd 32d4 503e b482 87bd 2f5c 1dbe
00000270: d92a 413d ef49 1fbe b55a a23d ab85 fdbd
00000280: b8aa 5a3d 65f4 00be 96a0 2f3e fbca 283e
00000290: 865d 3c3e 35d7 cc3e 638c 473e 8490 473e
000002a0: 6f8e 5f3e 3098 5f3f 2c6a f2bd 1fbb 0ebe
000002b0: b2c6 cdbf 22ac 453e 0a16 37bf ba04 c63d
000002c0: 85cb 5ebd 53e7 a53e 274a 6c3d 1bb7 a33d
000002d0: eab7 d73d 6fe7 8dbd e0e4 763e 35f0 1ebe
000002e0: 3c99 b63e 9a9e 7f3d 4e6e ab3e 74ac 5abe
000002f0: 1bd7 10be 8013 5cbf b254 13c0 a17e a0bd
00000300: e931 72bf 6f66 3d3e 0bdc a03e b585 14bc
00000310: 6783 98bd b87d e03c 4651 1a3e fc16 08bc
00000320: fce6 343e e2b9 023f d85c 433e 91af 443d
00000330: 69f5 ca3d ab9b a73e 10cb 8a3f ea34 aabe
00000340: c059 14c0 3792 163f ed5f 8d3f 86ca 143f
00000350: 5eaf 3dbd 638b 5d3e c7a5 943e 3d9c 483e
00000360: c336 9c3d bc9e 23be a020 e6bd c0a0 c53e
00000370: 276b 803e 87ab f43d d382 c6be 51bf 833f
00000380: a041 a13e 88f6 db3e 0917 883f 2324 b9be
00000390: 2116 7d3e c297 733c 7528 0fbe 7e3e 943d
000003a0: 6f5c 4c3e a2c0 fcbd 23e1 2cbd 2f77 00be
000003b0: 1a96 30be 2459 d83c 14fc 62be 3329 293e
000003c0: 419d ad3c caac 4bbe a7f6 0a3e 7efa 19be
000003d0: 7477 063e 6c2d a93d a68c 05be be59 6b3c
000003e0: 67ce 2ebe 2eaa 9bbd 86fc 413e f6f9 a73d
000003f0: a097 97be 6d2f 95bd ce82 37bd 8542 8bbe

hidden.bias f4 [128]
0.008924452 -0.042650186 0.015079834 0.4666049 0.13029814 0.12195334 0.2029813 0.11862219
-0.25211537 0.32621393 -0.07564141 -0.05959697 0.2772338 -0.19455452 -0.37495455 -0.11962821
0.0782838 -0.16460876 -0.12264223 -0.0010683002 0.06884184 -0.013665666 -0.15697308 0.062436078
-0.08789048 0.25324064 -0.18467465 -0.031035198 -0.2611331 0.11075826 0.02005764 -0.2231562
0.5839719 -0.08187723 -0.034206383 -0.051462926 -0.12119637 -0.2215844 0.13332325 0.018665522
-0.01717797 -0.15377739 0.1473852 0.7395013 -0.20327699 0.026813712 0.0051316177 -0.057923064
0.12547596 0.3463632 0.63090616 0.069172226 0.4182373 0.12395043 0.09781588 0.07101118
-0.20702986 0.024161888 -0.21964839 -0.10746364 0.011976102 0.012862593 0.44445583 -0.09139475
0.18764469 -0.03359247 0.027950943 0.08391757 0.095118925 -0.08866677 0.023633115 0.12006022
-0.25482777 0.17436908 0.047918145 0.31608248 0.033401154 0.19285057 -0.14203271 -0.09479261
0.055003826 -0.0067707375 0.13243948 0.025747145 -0.16891322 0.10728805 0.21983053 -0.054194976
-0.12693702 0.08656596 0.038506646 -0.09913217 -0.0012987428 0.7567729 0.04153833 -0.13735795
0.074010015 -0.10699132 -0.18551941 0.0075465185 0.060833827 0.29366305 0.21055838 0.3777781
0.12624602 0.14153512 0.096887276 -0.2587881 0.53115773 0.00672254 0.33663124 0.611339
0.0072945156 -0.053296335 -0.12100055 0.12871197 -0.14695925 -0.14025953 0.62224877 -0.091619566
0.13836472 0.18563771 0.14146218 0.08310759 -0.08322513 -0.1707389 0.21859886 -0.046986796
00000000: dd37 123c f6b1 2ebd 6811 773c d6e6 ee3e
00000010: e06c 053e acc2 f93d 54da 4f3e 31f0 f23d
00000020: 4415 81be 8305 a73e e2e9 9abd f41b 74bd
00000030: 97f1 8d3e 4d39 47be 0bfa bfbe a3ff f4bd
00000040: 4253 a03d 338f 28be d92b fbbd 3506 8cba
00000050: f3fc 8c3d f5e5 5fbc 8dbd 20be f9bc 7f3d
00000060: edff b3bd c2a8 813e 5a1b 3dbe 873d febc
00000070: 3db3 85be 3ad5 e23d eb4f a43c 0f83 64be
00000080: 2f7f 153f 40af a7bd fe1b 0cbd caca 52bd
00000090: cd35 f8bd 05e7 62be e485 083e 70e8 983c
000000a0: d0b8 8cbc d277 1dbe 25ec 163e f54f 3d3f
000000b0: d827 50be 6ea8 db3c 2127 a83b bc40 6dbd
000000c0: c57c 003e 8456 b13e 1183 213f 2baa 8d3d
000000d0: 3323 d63e b9d9 fd3d b153 c83d 4f6e 913d
000000e0: a3ff 53be 27ef c53c 82eb 60be e615 dcbd
000000f0: 6a37 443c a0bd 523c b78f e33e 2c2d bbbd
00000100: ee25 403e 4298 09bd 60f9 e43c fadc ab3d
00000110: b6cd c23d ec96 b5bd 3c9a c13c 22e2 f53d
00000120: c978 82be cf8d 323e d145 443d 90d5 a13e
00000130: a6cf 083d 9f7a 453e 0671 11be a122 c2bd
00000140: b14b 613d 10dd ddbb 379e 073e adeb d23c
00000150: 96f7 2cbe d6b9 db3d 411b 613e 8dfb 5dbd
00000160: c7fb 01be 7e49 b13d 25b9 1d3d cf05 cbbd
00000170: 943a aaba debb 413f 1924 2a3d 90a7 0cbe
00000180: 9092 973d 441e dbbd cdf8 3dbe c948 f73b
00000190: e42c 793d 015b 963e 9e9c 573e 226c c13e
000001a0: a346 013e 95ee 103e d66c c63d e07f 84be
000001b0: f4f9 073f c148 dc3b ee5a ac3e b680 1c3f
000001c0: d506 ef3b 424d 5abd 23cf f7bd 12cd 033e
000001d0: 7c7c 16be 32a0 0fbe b24b 1f3f 0aa3 bbbd
000001e0: 7baf 0d3e d017 3e3e 76db 103e 5034 aa3d
000001f0: f071 aabd 2ed6 2ebe 61d8 5f3e 3a75 40bd

output.weight f4 [16, 128]
0.093522385 0.10325275 0.07247971 0.1145048 0.008086522 0.05031463 0.0030151734 -0.01721288
0.053664245 0.07478728 -0.019939002 0.13068075 0.15706451 -0.063639686 -0.051058963 -0.02789133
-0.03722921 0.048339337 0.056286175 -0.030463457 0.0010396829 1.769114e-05 -0.0035500405 -0.11771815
0.006476453 -0.084430896 -0.07165729 0.037503876 0.0014286283 0.06686703 0.066881016 0.0022585827
0.28241464 0.0027282871 0.1299462 0.11316473 -0.022208912 0.14808303 0.1206713 0.11352124
0.04438085 -0.049885724 -0.025989147 0.26756635 0.11581688 -0.055677798 0.06285005 0.008700176
0.0122022545 0.11259904 0.26217362 0.13090439 0.26954538 0.0031376749 -0.04376882 0.048310928
0.15272865 0.06346777 -0.041249204 0.024408568 -0.022151532 0.029142547 0.31528136 -0.011030097
0.05027731 0.06249384 -0.023920605 0.06735921 0.08299145 -0.08353162 -0.006265698 0.11075505
0.16039898 0.021236964 0.11636958 0.1191994 -0.085194565 -0.0024098093 0.10779146 0.080411725
0.05940202 0.089723945 -0.07350975 0.0699535 -0.030519562 0.115347736 -0.0017943043 -0.04173503
0.11259143 0.1317593 0.02316013 0.07446326 0.10462898 0.13563713 0.071802616 0.05857672
0.047083832 -0.06559359 -0.021994133 0.065785326 0.020696346 0.06472156 0.012349732 0.17136209
0.06810638 -0.0008530633 0.034622107 0.119642474 0.23411156 0.05261572 0.040228147 0.2681831
0.3052327 -0.058887545 0.012653819 0.5355839 -0.008261844 0.07200532 0.30654266 0.09720396
0.06289434 0.017550558 0.09072332 0.13050053 0.08069716 0.05864891 0.021416267 -0.069667116
0.12419281 0.045611493 0.03384514 0.26138604 0.09659229 0.069877975 0.017595528 0.09131917
0.052103616 0.07493087 0.053660765 -0.0032179013 0.21879919 -0.004798324 0.15372267 0.017870463
0.08795827 0.014787653 0.14680319 -0.007771703 -0.03428401 -0.03133711 0.05270925 0.10455998
-0.06913526 0.16855918 -0.002495283 -0.07130856 0.008111708 0.078828484 0.076284185 0.018757848
0.16985239 0.041029185 0.16492526 0.004648821 -0.05238136 -0.069276296 -0.01707029 0.024174448
0.059973393 -0.048150077 0.048115548 0.42439282 -0.07077113 0.015864717 0.15063255 0.1017143
0.04083478 -0.075275764 0.2463596 0.05042377 0.041536655 0.0632511 0.03880894 0.10434217
0.11839159 -0.014329265 0.029071242 0.0304478 -0.047312748 0.1260698 0.54966843 0.094967574
0.1450724 0.048690796 0.10129283 -0.016403323 0.00886057 0.04061756 0.014177167 0.12679628
0.03179879 0.1358146 -0.14042906 0.0048618168 -0.07010021 0.012385768 0.015923208 0.062759355
0.019488566 -0.0026484546 0.018990863 -0.07912137 0.19605315 -0.23988642 0.10945952 -0.010137402
-0.11433555 -0.05229478 0.037999287 -0.076189555 0.06678966 0.7277749 0.07480417 -0.056039628
0.015436346 0.039984472 0.06042584 0.08829066 0.056945704 0.0065624053 0.060481053 0.32803714
0.114076704 0.106239505 0.15811405 0.012398561 -0.18921265 0.057193846 0.10163021 0.23616537
0.3316796 0.14017765 0.008334396 -0.34904993 0.02164353 0.11034623 0.20546284 0.117598675
-0.0054485407 0.010767203 0.14653577 0.0872697 0.07343388 0.063625716 -0.027960634 -0.041822653
00000000: aa88 bf3d 2e76 d33d 3e70 943d 7e81 ea3d
00000010: 557d 043c b716 4e3d 379a 453b 0702 8dbc
00000020: 0acf 5b3d 132a 993d 1e57 a3bc 2dd1 053e
00000030: 85d5 203e 8655 82bd 3423 51bd 5c7c e4bc
00000040: a87d 18bd 78ff 453d 558c 663d 808e f9bc
00000050: f845 883a 6f67 9437 cca7 68bb 3716 f1bd
00000060: 6d38 d43b 1bea acbd 0fc1 92bd aa9d 193d
00000070: d040 bb3a 95f1 883d eaf8 883d bb04 143b
00000080: a798 903e 10cd 323b 9e10 053e e9c2 e73d
00000090: 77ef b5bc 14a3 173e 8422 f73d d37d e83d
000000a0: b2c8 353d f954 4cbd 31e7 d4bc 75fe 883e
000000b0: 6631 ed3d 670e 64bd 87b7 803d 2f8b 0e3c
000000c0: f7eb 473c 539a e63d 9f3b 863e cd0b 063e
000000d0: da01 8a3e 73a1 4d3b ef46 33bd aee1 453d
000000e0: e664 1c3e 64fb 813d edf4 28bd 7af4 c73c
000000f0: 2177 b5bc 5abc ee3c 8f6c a13e 94b7 34bc
00000100: 95ef 4d3d 8af9 7f3d 25f5 c3bc a0f3 893d
00000110: 6cf7 a93d a012 abbd 7c50 cdbb 8bd3 e23d
00000120: a13f 243e 24f9 ad3c 2d53 ee3d d11e f43d
00000130: 7d7a aebd e4ed 1dbb c5c1 dc3d e7ae a43d
00000140: 884f 733d 30c1 b73d 488c 96bd c843 8f3d
00000150: 2904 fabc 6f3b ec3d dd2e ebba 5af2 2abd
00000160: 5696 e63d e9eb 063e 50ba bd3c 3280 983d
00000170: b847 d63d 76e4 0a3e 400d 933d 25ee 6f3d
00000180: fada 403d ef55 86bd 0a2d b4bc 75ba 863d
00000190: 628b a93c bd8c 843d 8856 4a3c 8b79 2f3e
000001a0: 5c7b 8b3d 1ca0 5fba e9cf 0d3d 1d07 f53d
000001b0: f1ba 6f3e 9583 573d 45c6 243d 4c4f 893e
000001c0: 7647 9c3e 1134 71bd f751 4f3c 071c 093f
000001d0: af5c 07bc 8677 933d 29f3 9c3e df12 c73d
000001e0: bfce 803d 30c6 8f3c 26cd b93d eea1 053e
000001f0: 8d44 a53d d739 703d 2b71 af3c a2ad 8ebd
00000200: cd58 fe3d 1ed3 3a3d 34a1 0a3d 64d4 853e
00000210: 2ed2 c53d 2f1c 8f3d 7f24 903c 8c05 bb3d
00000220: 9a6a 553d 5b75 993d 64cb 5b3d 6de3 52bb
00000230: e50c 603e 423b 9dbb 7a69 1d3e 1465 923c
00000240: 7723 b43d ea47 723c 9353 163e c5a9 febb
00000250: 646d 0cbd 575b 00bd a8e5 573d 8b23 d63d
00000260: ca96 8dbd c79a 2c3e e787 23bb 390a 92bd
00000270: f8e6 043c d470 a13d e23a 9c3d 0faa 993c
00000280: c9ed 2d3e 380e 283d 2be2 283e 2355 983b
00000290: d68d 56bd bbe0 8dbd fed6 8bbc 7e09 c63c
000002a0: a9a6 753d 0439 45bd cf14 453d 044a d93e
000002b0: 74f0 90bd b9f6 813c 6b3f 1a3e 964f d03d
000002c0: 5f42 273d 2e2a 9abd b145 7c3e 2889 4e3d
000002d0: 5722 2a3d cb89 813d 20f6 1e3d 59b1 d53d
000002e0: 4a77 f23d 4bc5 6abc d026 ee3c aa6d f93c
000002f0: 03cb 41bd 7118 013e 12b7 0c3f 5c7e c23d
00000300: dc8d 143e 0070 473d 9e72 cf3d 4360 86bc
00000310: ed2b 113c 995e 263d 5947 683c e2d6 013e
00000320: 733f 023d fc12 0b3e a3cc 0fbe e04f 9f3b
00000330: b390 8fbd aded 4a3c 6371 823c fa87 803d
00000340: 7ca6 9f3c b291 2dbb ba92 9b3c 630a a2bd
00000350: 28c2 483e c9a4 75be 502c e03d 5917 26bc
00000360: c228 eabd 0d33 56bd 24a5 1b3d 4509 9cbd
00000370: 04c9 883d 754f 3a3f ee32 993d cf89 65bd
00000380: bae8 7c3c c2c6 233d 1681 773d bcd1 b43d
00000390: e63f 693d 7209 d73b fbba 773d 7cf4 a73e
000003a0: 0ca1 e93d 1994 d93d a6e8 213e 5623 4b3c
000003b0: f6c0 41be 1844 6a3d 8023 d03d 56d5 713e
000003c0: e9d1 a93e bb8a 0f3e fe8c 083c acb6 b2be
000003d0: c64d b13c 34fd e13d da64 523e 93d7 f03d
000003e0: ac89 b2bb ec68 303c 790d 163e 75ba b23d
000003f0: 8164 963d 334e 823d b30d e5bc 3b4e 2bbd

output.bias f4 [16]
0.13219863 0.08099017 0.12322323 0.06658736 -0.09763361 0.02169203 -0.01091389 -0.07203335
0.04704254 0.010408813 0.094874226 -0.097731866 -0.057917442 0.06552043 -0.07457572 0.044427473
00000000: 145f 073e 2dde a53d 765c fc3d f45e 883d
00000010: 21f4 c7bd 7cb3 b13c 2cd0 32bc 3986 93bd
00000020: aeaf 403d ba89 2a3c 6b4d c23d a527 c8bd
00000030: d73a 6dbd 932f 863d 28bb 98bd 95f9 353d
