temp_morel/pretrained_models2/pretrain_model4.pt (torch, 19487 bytes, 4 tensors)

hidden.weight f4 [128, 18]
00000000: 098f 47be 8d1f 0e3e 1159 8e3e 4014 d6bd
00000010: 192c 2abd 6e58 b8bd 63ce 0b3f 454e 89bf
00000020: 7caf 7fbf 8dba b3bf 5565 b7be f62f 92bd
00000030: 9552 1ac0 57ae 04be 36b0 983e 468b 3fbe
00000040: 00a0 233e 86ba ad3e b90b 8d3e d54f e6be
00000050: a94a 8cbe 5697 8d3e 175d 543f dd69 553e
00000060: e7f4 7abf 4e7e ff3f 5dab 9e3f 304e 00be
00000070: 0139 1b3f 5610 7ebd 3f4e 4a3f a26d 60bd
00000080: deed 673f 70cd 413f 06d0 fa3e f378 843f
00000090: 1f03 38be 435e 7e3b bfa9 0f3e b688 80be
000000a0: 38c5 7bbc ece4 163c 9396 f93d 620d ebbe
000000b0: 48ab 92be 994e 85bf ed1b 03c0 cf51 04be
000000c0: 2653 2abe 1f94 713e 47df 2abd dbf2 583e
000000d0: c556 183d 88c8 fc3d 7c05 bcbd 875d 7a3e
000000e0: d88f 5c3e d94a bc3e 41f1 963e ca60 21be
000000f0: ffcd 3d3f 337b 8a3f 21d0 5b3e 089f 3bbd
00000100: ab6e 8d3f 1051 6d3d 5597 00c0 ce51 403e
00000110: e43b ba3d dbae 01be 6139 a83d 109b 3e3e
00000120: 118f 16be 13aa 45be 78cf a13d e4cd cdbd
00000130: 1bfa 03be 2fbe e5bd ce14 3e3d bd76 d0bd
00000140: 952b c63d 09e2 7fbe 9379 133e 9f67 98be
00000150: 347d dabd d38a 8cbe 7550 ac3d 4d45 ebbc
00000160: 166e 86be 1d47 a4be 50e8 d93e 3eb7 d0bd
00000170: c8e9 83be 4caa 2b3e 2f3a 2c3d 22be 523d
00000180: 3c0c 3f3f aaca b43e 196e b63f 089f d73d
00000190: d7f5 a83f bae9 6cbe 08ab 8abc 9e3c 533d
000001a0: 1a46 fe3b 7fdb 2a3d 94b4 21be b896 8ebb
000001b0: 64a0 ac3d 3594 febc 6052 30be 175f b4bd
000001c0: c44b b53d 69e3 ee3d 36bd 9abd caca 2f3e
000001d0: ceae 44be 558b c4bd c5e2 4ebe 1f93 98bd
000001e0: 0ad8 1abe 154d 2ebe e636 6ebe 7f71 533e
000001f0: ce21 c0bd e57b 283d e1bc 00be 41b2 7abe
00000200: 088c 273d 7cf6 68be f165 363d 7402 4cbd
00000210: a704 5e3d f2dc 3c3d 42f1 80be 2c46 0b3e
00000220: 087e c53d 7866 a33b b1a8 d3bd 77f3 8bbe
00000230: 0352 92be 4e8d 4fbd a6be 323d 3f0a 523d
00000240: 87dc 70be 79b4 24be 3ba2 f6bb c36f a5be
00000250: c191 0cbe 490f d0be 197b 8cbe 4a81 b03d
00000260: 04ec 69bd 058e b53e 65c0 a83e 07b2 b2be
00000270: d5d6 93bd 799e 02be ab41 c9bd 3a56 cbbe
00000280: ae49 64be 4b2a 04bd a8eb 75be 07cd be3c
00000290: da62 ac3c e0cd 1abe e568 8fbe bffb f4bd
000002a0: f873 b93d ec37 97be f784 1a3e 8b33 42be
000002b0: 32d8 ee3d ad00 b93c 2722 cc3e 1a3b 88bd
000002c0: 0cf0 ddbb ce75 64be ee2f 64be 749a d23d
000002d0: 0d01 e33d 6888 71be c8f5 33be dcc0 7cbe
000002e0: e6cd a9be 89c1 62bd 3897 99be 4d53 31be
000002f0: 2e23 b1be db0c d6bd 32a3 31be e7c6 40be
00000300: 12e6 4ebe d0fe 22be e179 f33c 3248 9e3c
00000310: 7a24 8abe 51f7 d2bd 5f50 4fbe bd79 b4bd
00000320: ac53 0abe a018 cd3d 0dfb e43d 5e06 1abd
00000330: a650 ab3b e465 9d3d a391 363e dae7 f83d
00000340: 4e21 613e 269f 9c3d 1801 1abc eecf f23d
00000350: 75f0 a5bd f615 dc3d cf9b acbc 0808 fbbd
00000360: 008b 7f3d 068d 6e3d 15dc 3c3d 8dad 23be
00000370: 69ca 76bd aa17 9fbe d817 fa3e 9f2a 37bf
00000380: a494 21bf a985 aebf 2bbe 833f bc3d 343e
00000390: db42 06c0 787f c2bd 59d2 52be 13c2 79be
000003a0: c687 7a3d daae a63e c823 583e cf2d 813e
000003b0: 29d0 06bd bce7 373e a0ed 223d 3ef4 d0bd
000003c0: 8414 153e b175 173d 7d9c ac3e 2691 97bf
000003d0: ae0e e1bf 497c 1fbd 1c50 98be cb65 0e3e
000003e0: 0e8a 9e3e 83ce 2e3e c14c 66bc 6bb2 ebbb
000003f0: e4f3 8fbe 0293 bd3d 093d b7bd b3ef 33be
-0.19488157 0.13879223 0.27802327 -0.10453081 -0.04154596 -0.090012416 0.54611796 -1.0727011
-0.9987714 -1.4041306 -0.35819498 -0.07138054 -2.4112904 -0.1295713 0.29821938 -0.18705472
0.15979004 0.3393137 0.27548006 -0.44982782 -0.2740071 0.27654523 0.82954544 0.20841165
-0.9802994 1.996042 1.2396046 -0.12529826 0.60633856 -0.062027298 0.79025644 -0.054792054
0.9059733 0.757041 0.48986834 1.0349411 -0.1796994 0.0038813509 0.14029597 -0.25104302
-0.015366845 0.009209853 0.12186923 -0.45908648 -0.28646302 -1.0414611 -2.0485795 -0.12921833
-0.16633281 0.2359166 -0.04171684 0.21186392 0.037192125 0.12342936 -0.091807336 0.2444974
0.21539247 0.36775854 0.29480937 -0.15759578 0.7414245 1.0818847 0.21466114 -0.04580596
1.1049398 0.057938635 -2.0092366 0.18781206 0.090934545 -0.12664358 0.08214069 0.18613839
-0.14703013 -0.1930316 0.079009 -0.10049036 -0.12888376 -0.11217915 0.04640656 -0.101788975
0.09676281 -0.2498857 0.14401846 -0.29766557 -0.10668412 -0.27449664 0.084137835 -0.028719569
-0.26255864 -0.32085505 0.42560053 -0.10191201 -0.25764298 0.16764182 0.042047676 0.051450856
0.74628043 0.3531087 1.4252349 0.1052838 1.3200024 -0.23136035 -0.016927257 0.05157148
0.0077598216 0.041713234 -0.15791541 -0.004351463 0.084290296 -0.03107653 -0.17218924 -0.088071994
0.08852342 0.11664469 -0.0755562 0.17167202 -0.19207308 -0.09596888 -0.20203693 -0.07449936
-0.15121475 -0.17021592 -0.2326313 0.20648764 -0.09381448 0.04113378 -0.12572052 -0.24482061
0.04090503 -0.22750276 0.044530813 -0.049807027 0.054203656 0.046109147 -0.25184065 0.13600987
0.09643179 0.0049865805 -0.1033491 -0.27334186 -0.28578195 -0.050671868 0.043638848 0.051279303
-0.23521625 -0.1608447 -0.0075266636 -0.3231183 -0.13727476 -0.40636662 -0.27437666 0.0861841
-0.057109848 0.35459915 0.32959285 -0.3490145 -0.0721871 -0.12755765 -0.09826978 -0.39714223
-0.22293732 -0.032266896 -0.24015677 0.023291124 0.02104323 -0.15117598 -0.28009716 -0.11962079
0.090553224 -0.29534853 0.15089785 -0.18964975 0.1166233 0.02258333 0.39869806 -0.06651898
-0.0067730006 -0.22310564 -0.22283909 0.10283366 0.11084185 -0.23587191 -0.17574227 -0.24682945
-0.331649 -0.05536035 -0.29998183 -0.17316933 -0.34597152 -0.10451671 -0.1734741 -0.18825875
-0.20204952 -0.15917516 0.029721202 0.019321535 -0.26980954 -0.10301078 -0.20245503 -0.08812282
-0.13508481 0.100144625 0.11180697 -0.03760373 0.00522812 0.0768545 0.17828993 0.12153597
0.21985361 0.07647543 -0.009399675 0.11856066 -0.08102504 0.10746376 -0.02107039 -0.12257391
0.06238842 0.05823996 0.046108324 -0.15984173 -0.060251627 -0.31072742 0.48846316 -0.7154941
-0.6311743 -1.363454 1.029241 0.17601675 -2.0978305 -0.09496969 -0.20588054 -0.2439044
0.06116464 0.32555276 0.211074 0.25230262 -0.03291336 0.17959493 0.039777398 -0.102028355
0.14558607 0.036977474 0.3371314 -1.1841171 -1.7582605 -0.038936887 -0.2974862 0.13906018
0.30964702 0.17070965 -0.0140563855 -0.0071929 -0.2811576 0.09256555 -0.089471884 -0.17571907

hidden.bias f4 [128]
00000000: c76d 16bd 3d01 193f 6a60 dbbd b9fb a2bd
00000010: e736 e6bc fedc d63d 9873 8abd 8018 5fbd
00000020: 28b9 a5be f68b f3bd f754 8cbe ea70 0d3e
00000030: 7734 913d 6d08 3a3e 6904 22be c47c 873d
00000040: c3a8 68bd 9f32 efbc 6f02 d33d ae58 8abd
00000050: 8838 e2bd a9ac 873e 5c09 833c c281 103f
00000060: 62c1 e83d 2817 d63d d6df db3e 6c05 093d
00000070: ed8c dd3e d094 24bd ec82 23be 9dc5 54be
00000080: ee4a 06be 9eb5 d93d d8b5 9e3e b418 ce3d
00000090: f92b 0f3e 04d5 2a3d c850 6abd 9f39 27be
000000a0: ecd1 083d f961 9c3e e701 89bd 09ec d23d
000000b0: 396f 0f3f 3846 fcbc bdc5 d4bd bc0a 44be
000000c0: c7ac 92bd 8412 1e3e 5589 c63d 73c1 013d
000000d0: ebd0 5abe 81fe 83be b3b6 5dbe dab2 013c
000000e0: bb43 233e dc0b 1e3e 0e79 1dbe 14bd bcbb
000000f0: e259 a53d 8523 51be 929b c73d 7d04 2c3d
00000100: 42fb fabb 96eb 18be cce4 dabd 95da 5fbe
00000110: 87bb c83d 541a d93e 353e 2c3d 9a57 53be
00000120: 3a1e ccbd d0ea bc3d f0a9 98bd 166a ef3d
00000130: 6a5c 463f cdaa 943d f954 28be cdb0 f53d
00000140: 0a44 14be a60c dfbd c6b9 e53b 9832 273e
00000150: 7bf5 6dbe 3128 603e 7360 62be 1acb 82be
00000160: 53ff 09bd 54aa 0cbd 6fa5 f4bd b4e1 163f
00000170: 03e9 0e3e 3796 ebbd 3811 37be 05e9 c0bb
00000180: 509b 83bd 52a5 60be 61ab 42be 7288 a1bd
00000190: 8a4a 5a3e 5107 4a3e 9e35 e5bc eccf 103f
000001a0: 5847 04be 7d04 343f cb44 60be 7ec8 b7be
000001b0: ec8e e23d 36e9 0b3e c478 a83e 104f 02be
000001c0: 5fe7 433f 4fc9 603e 47a5 063d c227 433e
000001d0: c2fb 9f3d ac8f 3fbe 2361 b73e 68bd a4bd
000001e0: 05fb 9a3c 9b0e aabc cd4d 07bd 0560 4c3e
000001f0: 89ae 00bd e141 223e a44c 9fbd 959d 8e3d
-0.036725786 0.59767514 -0.10711749 -0.079581685 -0.028102351 0.1049137 -0.06760329 -0.054466724
-0.32367826 -0.1189193 -0.27408573 0.13812605 0.07090085 0.18167277 -0.15821995 0.06615594
-0.05680157 -0.029198943 0.103031985 -0.067551956 -0.11045939 0.26498917 0.015995674 0.56447995
0.1136501 0.104536355 0.4294421 0.033452436 0.4327158 -0.04018098 -0.15967911 -0.20778508
-0.13114521 0.10630344 0.3099811 0.100633055 0.13981618 0.041707054 -0.057205945 -0.16330574
0.033403322 0.30543497 -0.06689816 0.102989264 0.5602909 -0.030795202 -0.10389278 -0.1914472
-0.07161861 0.1543675 0.09694163 0.03167863 -0.21368758 -0.2578011 -0.21651725 0.007916177
0.15943806 0.15434211 -0.1537821 -0.0057598446 0.080737844 -0.20423706 0.097464696 0.041996468
-0.007659347 -0.14933619 -0.10688171 -0.21860726 0.09801393 0.424029 0.042051513 -0.20638886
-0.09966703 0.092244744 -0.07454288 0.11690156 0.7748476 0.0725914 -0.16438664 0.11996613
-0.1447908 -0.108910844 0.0070106713 0.16327894 -0.23238175 0.21890332 -0.22107105 -0.2554558
-0.03369076 -0.034342125 -0.119456165 0.58938146 0.13956074 -0.115032606 -0.17877662 -0.005887153
-0.06426108 -0.21938065 -0.19010688 -0.07887353 0.21317497 0.19729353 -0.027979668 0.56567264
-0.1291784 0.7031935 -0.21901242 -0.3589515 0.110624164 0.13663182 0.32904637 -0.12725472
0.7652492 0.21951793 0.032872465 0.19058135 0.07811691 -0.1870715 0.35816297 -0.08043939
0.018918524 -0.020758918 -0.03303318 0.19958504 -0.03141645 0.15845443 -0.0777829 0.0696365

output.weight f4 [16, 128]
00000000: fcab 5ebd a2c8 533e aa5c a4bb b452 fd3c
00000010: 5c5f dfbc 0624 723e 86a5 943d f8f1 4d3d
00000020: a3b1 e53c 7570 7a3d 6fc7 5c3d 9b90 453d
00000030: b265 e2bc b436 babc a71a 653c 7de0 1f3e
00000040: 5595 af3d de65 483d 8a9e 133a a6a8 a13c
00000050: 99bc 1d3e 81d8 d53d f675 cc3d 7949 a23e
00000060: 3891 3cbd 7664 16bd 7606 7d3e 8305 febc
00000070: 19b8 9e3e 342f d03d f14f 2e3d 6ab3 e73c
00000080: 116a a83b efbd f13d aa8b 3a3f ea4e 603c
00000090: 6fdc 293d 4588 d6bc 695d 9a3d 074e 98bb
000000a0: 3842 1c3d 6917 673d 0450 1cbd 8cd3 d2bc
000000b0: 6afd 233e e614 ca3d 6dc7 7c3d 9bff a33d
000000c0: 693e 603e 551a aa3c b68c 1e3c 28f2 243c
000000d0: b354 0cbc b452 a8bb 7638 433d 9607 23bb
000000e0: 7390 893d 341b c0b9 7bc2 8d3d c0f8 963b
000000f0: 197a 6a3d 058e 6bbd 4eb6 a33c 6d36 023c
00000100: 6ca8 80bd 40c0 a43d 82c0 9ebd ee8a 17bb
00000110: b398 16bc 85a0 2a3e 8aac ec3d 3bba 85bc
00000120: 8ec7 c83d 67a0 d13d e89c 81bd e2b8 af3c
00000130: 3dc9 9f3e 0738 b3bd c32d 783d 6745 88bc
00000140: 8547 463d 7e3b f7bc b407 7e3b d8d1 d93c
00000150: 7574 843d dcb0 773e 94e4 1abc 3a21 c93d
00000160: 0aee 143d 0385 1dbd 7240 b4bd fd49 193e
00000170: 0425 203c 0882 8ebd 621c 2a3d 6fb8 fb3d
00000180: 453a 39bd 31e2 f23d 04c6 d8bc 2687 543d
00000190: c03c 5abb 9355 d13d ec8b 003e 69e7 813e
000001a0: 6567 073d 3daa 303e b59c 883c c9fd 063e
000001b0: a033 1d3d 9d3c a7bd d9d6 283e 7b5b 673c
000001c0: d797 753e 0c38 ae3d 8caf 68bc dfe7 173c
000001d0: 66b3 e93b b28f f83d 99c1 753e b0c4 acba
000001e0: 9dc6 c7bc 232a fabc 2a8a a63c 22cc 013d
000001f0: c418 7d3d 09a8 133d 4d8a e03d aa7b a93d
00000200: ec0f bf3d 6f6f f43e c2fb 293d 734e 0d3e
00000210: 617e 9fbb c417 303f f50c 9e3c cbfb ed3d
00000220: 51a0 023e bc22 d3bc 04a0 fe3d 033b 2abd
00000230: cf62 9d3d 9833 333d b976 163c d870 303d
00000240: 6ded eb3d a2a7 6f3c db6a 2f3d f720 1e3c
00000250: 3094 25be 6cc9 023e 553c 783d b775 283e
00000260: 5e7f b13d 33f1 8dbd df5f 18be c05d 033d
00000270: e154 893c 6f60 753d ef26 cf3d bb89 943c
00000280: d8f0 bc3b ab6c 7ebb ec5f c7be 4bf0 473d
00000290: bfa8 023e 9b52 883d 5d6a df3d a5fa 163e
000002a0: 81f0 f33d 73bd a53d ac8c 90bc a564 3b3c
000002b0: 4ed9 a93e 1584 d93d bcea 3fbc 0eff f6bc
000002c0: 659f e33d 95bd dcbd 4512 bc3d 0134 4b3d
000002d0: c1d6 0e3d 41eb c53d 5317 b5bc fce7 1d3d
000002e0: 95b1 053e 103b 53b9 63b0 9dbd 6244 e2bd
000002f0: 4041 523c 2f3f af3c a505 9e3c dab0 c0bc
00000300: 6dc6 8cbd 37e7 ae3d 1d71 8d3d 7841 383d
00000310: 4afa a1bd d3b4 f8bc 2d49 973d 07c8 133d
00000320: 2349 e03b 9b23 c33d 9636 f3bc 9e40 37bd
00000330: d22b a9bd 3af6 35bd bbba 7cb9 4fc8 d83d
00000340: 1ac4 823c 0e78 5d3d d8be d73d df7f 513d
00000350: 88ef c4bb bfe4 063f 86de 22bf 18c0 8e3d
00000360: c52c fb3d 551b 8b39 d4d9 6f3d 9d2b 253f
00000370: 898f cdbc a844 8a3d be56 b73d 9aba 84bb
00000380: 65d6 683d 765c f4bc 3bfa 0d3f faa1 c1bc
00000390: 0417 ef3c f0ff d23d 93d0 59bc 9608 183e
000003a0: 071a 26bc c93a 893e 6134 183d 4b71 283e
000003b0: 364c 7b3d 1462 67bd b6c8 073d fb10 c93d
000003c0: d83f 8c3e d56f e0bd ee8f ce3d d445 1d3e
000003d0: 563b d53d f2e4 913d c3c6 3b3e 5760 24bd
000003e0: a021 cd3d f7ab 2a3d d59a f03b 1cab b73d
000003f0: 1729 fb3d d5d2 053c ee09 cfbc efd1 a43d
-0.054363236 0.20682004 -0.005015929 0.030923225 -0.02726715 0.23646554 0.072581336 0.050279588
0.028038805 0.061142404 0.053901132 0.04823361 -0.027636383 -0.022731163 0.013983405 0.15612979
0.08573405 0.048925273 0.0005631229 0.019733738 0.15403976 0.104416855 0.09983437 0.3169668
-0.04603693 -0.0367169 0.24709496 -0.031008488 0.3099983 0.10165253 0.042556707 0.028283793
0.005139597 0.11803805 0.7286936 0.01369069 0.041469987 -0.026188025 0.07537348 -0.0046479735
0.03814909 0.05641881 -0.038162246 -0.025735639 0.16014639 0.09867267 0.061713625 0.08007737
0.21898808 0.02076451 0.009677103 0.0100675 -0.008565116 -0.005136812 0.047661267 -0.0024876348
0.067170046 -0.00036641362 0.0692186 0.00460729 0.057245348 -0.057508487 0.01998439 0.007947546
-0.06282124 0.08044481 -0.07751562 -0.002312358 -0.00919168 0.16662796 0.11556347 -0.016324153
0.09803687 0.102356724 -0.063287556 0.021450464 0.3120822 -0.08750921 0.060590517 -0.016634656
0.04840805 -0.030179735 0.0038761916 0.02658932 0.06467525 0.2418856 -0.009453911 0.098207906
0.036359824 -0.038456928 -0.088013545 0.1496963 0.00977445 -0.06958395 0.041530974 0.12291037
-0.045221586 0.11859549 -0.026461609 0.0518867 -0.003330037 0.102214 0.12553376 0.25371864
0.03305759 0.17252441 0.016676286 0.13182749 0.03837931 -0.08165858 0.16488208 0.014120932
0.23983704 0.08506784 -0.01420201 0.009271591 0.0071319817 0.12136783 0.23999633 -0.0013181176
-0.024386698 -0.03053767 0.020329554 0.031688817 0.061791196 0.036048923 0.10963879 0.0827554
0.09329209 0.47741267 0.04149986 0.13799457 -0.0048673605 0.68786263 0.019293288 0.11620291
0.12756468 -0.025773399 0.12432864 -0.041560184 0.07684862 0.043750376 0.009183579 0.043076366
0.11519895 0.014627369 0.042826515 0.009651414 -0.1616981 0.12772149 0.060604412 0.16451155
0.086668715 -0.06930771 -0.14880322 0.03207183 0.016764106 0.05990642 0.10114848 0.018132081
0.0057660155 -0.0038822095 -0.3894037 0.048813146 0.12759684 0.06656381 0.10908959 0.14744051
0.11911107 0.08092775 -0.017645203 0.01143757 0.33173603 0.10620896 -0.01171368 -0.030150916
0.111143865 -0.107783474 0.09183172 0.04961014 0.034872774 0.09664012 -0.022105848 0.038551316
0.13056023 -0.0002014453 -0.07699659 -0.11048199 0.01283294 0.021392433 0.0192898 -0.02352183
-0.06873784 0.085401945 0.0690634 0.04498431 -0.07909067 -0.030359661 0.07387004 0.036079433
0.006844656 0.095282756 -0.029689115 -0.044739358 -0.08260311 -0.044424273 -0.00024102155 0.10585081
0.01596265 0.05406957 0.105344474 0.051147338 -0.0060099997 0.5269279 -0.63620794 0.06970233
0.122643985 0.0002653251 0.058557346 0.64519674 -0.025092857 0.067513764 0.08952092 -0.004050565
0.056845088 -0.029829245 0.55459946 -0.023636807 0.02918578 0.103027225 -0.013294357 0.14847025
-0.010138041 0.26802662 0.037159327 0.16449468 0.061351977 -0.05649002 0.033150397 0.09817692
0.2739246 -0.1095883 0.10086046 0.15358669 0.10411708 0.07123746 0.1833754 -0.04013094
0.10016179 0.041667905 0.007342676 0.089681834 0.12263697 0.008167942 -0.02527329 0.08047854

output.bias f4 [16]
00000000: 8a18 313e 8718 cc3d 906a 183e 3701 69bb
00000010: ff9b 843d 981c 203d f50d 86bc 4744 e43c
00000020: ed3b 1d3b caad ac3c fafa 4e3b 0773 6cbc
00000030: 37ef 4abc e505 023d 599d 983d b767 06bd
0.17294517 0.09965616 0.148844 -0.0035553703 0.064750664 0.03908977 -0.016364077 0.027864588
0.0023992017 0.021078963 0.00315827 -0.0144317215 -0.012386135 0.031743903 0.07451887 -0.032813754
