temp_morel/pretrained_models2/pretrain_model3.pt (torch, 19487 bytes, 4 tensors)

hidden.weight f4 [128, 18]
000000 ec 5e ae 3b 7a 07 67 be 5f c3 0c be fe 3a 49 bc
       0.005321374 -0.22561446 -0.13746403 -0.012282131
000010 fc 6b a7 3d d4 00 7b bd 14 82 bc bd ff 20 4c 3e
       0.08174893 -0.061280087 -0.09204498 0.19934462
000020 5c 7a cd bd 48 a8 59 3d 1b 5f e7 3d 0e b2 02 3e
       -0.10033104 0.053139 0.11297437 0.12763235
000030 a5 ec 46 be 2a 90 ca 3d ef bc 03 3d 57 b5 1a 3e
       -0.1942621 0.09890778 0.032162603 0.15108238
000040 2d a6 b6 bc 1f 5e 34 3e 01 fb c7 bb 39 aa 4a bd
       -0.022296036 0.1761403 -0.00610292 -0.049478743
000050 35 85 11 be ce 6f 5b be cc 52 b7 bd 26 01 53 be
       -0.1421097 -0.21429369 -0.08951339 -0.20605907
000060 74 5c 4d 3e 64 65 88 3d 6a d5 9a bd bf d9 99 bd
       0.200548 0.06659964 -0.07560237 -0.07512235
000070 96 55 44 be 9c ad 20 be 83 07 99 bd 49 d9 34 bd
       -0.19173273 -0.15691227 -0.07472136 -0.04415253
000080 74 84 be 3c 37 ee 38 be 4e a1 33 3d a6 fe 19 3d
       0.023256518 -0.18059622 0.043855004 0.037596367
000090 b3 86 36 be e9 3a 5d be a6 15 ae 3d 2d e6 3c 3d
       -0.17824821 -0.21604504 0.08500223 0.04611795
0000a0 7d ee b1 3d 32 8d ee 3d 44 82 f8 3c 95 a1 a3 bd
       0.08688066 0.116480246 0.030335553 -0.07989804
0000b0 95 19 15 bc 39 00 42 bd 57 f6 a9 be 20 7c 5c 3d
       -0.0091003375 -0.047363494 -0.33195755 0.053829312
0000c0 54 3d cc 3e 9c 15 a5 bd 4a 22 c6 3c 67 13 8e be
       0.3989054 -0.08060762 0.024186272 -0.27749178
0000d0 ed 1c 28 bd 4a 7b 2a be ae 32 fe bd 86 e8 5b 3d
       -0.04104321 -0.16648594 -0.1241201 0.05368855
0000e0 76 98 b5 bd e5 d9 a3 3e 0c 51 a4 be 3e 5b 8f be
       -0.0886697 0.32002178 -0.32093084 -0.279993
0000f0 99 ec ba bb 1d ea c9 3e 36 93 0c be 10 30 94 3e
       -0.005704474 0.39436427 -0.13728032 0.2894292
000100 6e 99 2e 3f cd d5 a2 be 2f 57 84 be 56 e6 5f bd
       0.68202865 -0.31803742 -0.25847766 -0.054663025
000110 12 64 9a be 5a fd 9e bd ba 02 96 be 71 21 84 be
       -0.30154473 -0.07763167 -0.29298955 -0.25806764
000120 9a a9 89 be b2 e7 8c 3c a0 4e 6f bd e4 f3 b4 be
       -0.26887208 0.017200325 -0.058424592 -0.35342324
000130 4a a7 62 be 98 e2 9d bd 60 b8 f1 3c c3 a3 15 bd
       -0.22134128 -0.07709235 0.029506862 -0.03653313
000140 35 00 9b be 8e d9 a1 3d 2b 98 0a be 86 d3 bc be
       -0.30273595 0.079028234 -0.1353461 -0.3688013
000150 ea 8a 4c 3d ab 20 36 be 82 56 2c be fa cf ac be
       0.049937166 -0.177859 -0.16829875 -0.33752424
000160 52 ca 97 be 12 ed c9 be ec 1a 95 be 64 30 a7 3d
       -0.29646546 -0.39438683 -0.29122102 0.08163527
000170 60 74 e0 bd e2 16 65 be 91 38 20 bd 15 1a b1 3d
       -0.10959697 -0.2237201 -0.039116446 0.08647553
000180 75 f3 29 3d 2d 04 df 3d 90 47 48 3e d4 1e 3d bd
       0.041491944 0.10889468 0.19558549 -0.046171978
000190 3c a0 28 be c6 a6 7b 3d d8 38 68 3e e2 f9 55 be
       -0.16467375 0.061438344 0.22677934 -0.20896104
0001a0 11 45 0b be d5 2b 77 3c d7 1c fb bc ef 66 82 bc
       -0.13600565 0.015086134 -0.0306534 -0.015918223
0001b0 e1 4a c7 bd bb e6 96 be a6 f9 21 3d 20 49 15 be
       -0.09731079 -0.29472908 0.039544724 -0.14578676
0001c0 98 ab 3b bb cd 4a de 3c 87 02 54 3d 27 52 1b 3e
       -0.0028636213 0.027135277 0.051760223 0.15168057
0001d0 89 c6 5e 3d ac e4 1b 3e 78 d8 0f bd d3 d4 95 bd
       0.054388557 0.1522395 -0.03511855 -0.073159836
0001e0 72 09 37 be 58 17 bf 3d e7 d9 ce bd 49 c2 b6 bc
       -0.17874697 0.09330624 -0.10100155 -0.02230944
0001f0 e1 89 83 bd 5a 97 89 be a2 24 2e 3e f0 91 72 3d
       -0.06422783 -0.26873285 0.17006162 0.059221208
000200 ca f9 7d 3e 93 5e 9c 3d e6 a7 b7 3e db 15 7b 3d
       0.24802318 0.07635226 0.35870284 0.06130014
000210 62 04 65 3e 1c d6 39 bf e4 19 28 3e 26 79 c4 bf
       0.22364953 -0.7259233 0.16416126 -1.5349472
000220 5d d5 4f c0 ae 11 3c 3e 19 a4 70 3f 0d cd c8 bd
       -3.2473977 0.1836612 0.94000393 -0.09804735
000230 94 07 8c bc 56 ad a2 3c 29 4c a2 3e 45 07 b5 3e
       -0.017093457 0.019858044 0.3169873 0.3535711
000240 c9 ce 54 be d1 7d 35 be 84 d7 15 3d 8d 81 1d be
       -0.20782007 -0.17723776 0.036582485 -0.15381451
000250 79 b2 6d bc 72 9a a1 bd 4a 47 a9 be 6d a5 b0 bd
       -0.014507883 -0.07890786 -0.33062202 -0.086253025
000260 e9 5e 00 be 90 7f 97 3d ea 7b 12 3d e9 2f 8d 3d
       -0.12536205 0.073973775 0.035762705 0.06893904
000270 59 be cb 3d 33 4f 2b 3d db 95 22 be 68 ab 4b bd
       0.09948415 0.041823577 -0.15877478 -0.049724013
000280 8e ba a2 be 7f 37 9a be de 27 ec 3d 83 3c 14 3e
       -0.31782955 -0.30120465 0.115310416 0.14476208
000290 b4 fe 9a 3e 80 de 00 3e 54 73 1e bb c4 f2 7a bc
       0.30272448 0.12584877 -0.0024177628 -0.015316669
0002a0 39 cc c1 3d e8 3b e4 3e aa 08 b7 3e ce 68 61 bf
       0.094627805 0.44576955 0.35748798 -0.88050544
0002b0 ff 4b 2a c0 6a 95 35 3d dc 1c 9b be 0d d8 bc 3e
       -2.6608884 0.044331945 -0.30295455 0.36883584
0002c0 e8 f5 51 3d d9 8a 34 3e 4a 1d a4 3e 4f 05 95 bc
       0.051259905 0.17631091 0.32053596 -0.018191008
0002d0 87 cb 0e 3e b6 7e 79 3d 13 b9 0f bd 3f a6 4d 3e
       0.13944827 0.060911857 -0.03508861 0.20082949
0002e0 3c 33 9a 3e af da c3 3d a9 38 16 3f e4 ac f1 3f
       0.30117214 0.09563195 0.58680207 1.8880887
0002f0 93 a1 28 3e 99 03 fd 3f 53 d7 4a 40 05 56 9a 3e
       0.16467886 1.9766723 3.1693923 0.30143753
000300 32 0a 4d c0 68 6d fc 3e 04 ef 9a 3c 53 e5 3f 3e
       -3.2037473 0.4930222 0.0189128 0.18739824
000310 c8 6a 56 be 36 35 96 be 3b c7 33 3d 5c bb 61 3e
       -0.20939171 -0.29337472 0.043891173 0.22044128
000320 8c de 02 bd 03 12 9b 3e 0b 06 19 3e 64 2b 2d 3c
       -0.03195052 0.3028718 0.14943711 0.010569427
000330 3d da d9 3d 1a 2b 5b 3f 02 03 35 3f 8e 33 40 be
       0.10637329 0.8561264 0.70707715 -0.18769667
000340 e0 08 3d bf 2d 69 c1 3d a0 95 35 bf e3 12 c4 3e
       -0.7384167 0.09443889 -0.70931435 0.3829566
000350 eb c0 1f 3e 44 12 6a 3e 31 fb 55 bd 20 09 87 bd
       0.15600936 0.2285853 -0.052241508 -0.06593537
000360 20 71 4e bd 6c 0a a8 3c 2e 15 13 3d d1 c7 8e 3e
       -0.050400853 0.020512782 0.03590887 0.27886823
000370 22 76 36 be dd 81 90 3d fa 4e 79 3e fa 4e ef 3f
       -0.17818502 0.070560195 0.24346533 1.8695977
000380 f7 b8 6e bf ac 5c e6 3f 45 20 6d 40 92 0c 9c 3d
       -0.93250984 1.7997031 3.7050946 0.07619585
000390 23 02 41 c0 62 7c 1d 3f 14 5c f8 be 2b 91 88 be
       -3.0157554 0.6151792 -0.4850775 -0.26673254
0003a0 13 34 fb bd e7 35 06 bf 36 d5 76 be bb 78 24 3d
       -0.12265792 -0.52426 -0.24104771 0.0401542
0003b0 f1 f3 88 bd c5 1e 4b be 0c 1e a5 bd 6b c9 3e be
       -0.06687153 -0.19835956 -0.080623716 -0.18631522
0003c0 75 2a 69 be 50 84 a9 bd 93 e8 56 be 3e 29 b4 bd
       -0.22770102 -0.0827719 -0.20987158 -0.08796929
0003d0 97 f4 e9 bd e5 7b 9b bd 9d 74 29 be ec 21 ac 3c
       -0.11423605 -0.075919904 -0.1654839 0.021012269
0003e0 40 c6 94 be 0a c1 28 be 11 9c 98 be 6c 13 70 be
       -0.29057503 -0.16479889 -0.2980657 -0.23444909
0003f0 c6 37 84 3e e0 ab 94 be 68 65 52 be 67 86 18 3e
       0.25823802 -0.2903738 -0.20546496 0.1489502

hidden.bias f4 [128]
000000 ff a8 e5 bd ab fa 0d 3e 45 18 29 3c a9 b3 36 be
       -0.11213874 0.13865153 0.010320728 -0.17841972
000010 b9 5f 53 bd 94 d2 e0 bc d3 13 87 bd b9 7a 9d 3e
       -0.05160496 -0.027444161 -0.06595578 0.30757692
000020 d8 41 6f be fc df ac 3e 73 19 fa 3d 09 8c 9b 3e
       -0.23364961 0.33764637 0.12211885 0.30380276
000030 93 8a 24 3e 0e fe 29 be 49 dc 09 3f 44 95 cd 3d
       0.16068487 -0.1660082 0.53851753 0.10038236
000040 6a a3 46 be 89 c2 8f bd b9 41 6b 3e d8 6a a6 3d
       -0.19398275 -0.070195265 0.2297429 0.081258476
000050 86 7a 4e be 82 d0 05 be ce bd 01 be 9c f1 c6 be
       -0.20163926 -0.1306782 -0.12670061 -0.38856208
000060 c2 7f db 3d f4 f1 19 be 0b bd 18 3f 63 85 87 be
       0.10717727 -0.15033704 0.59663457 -0.26468953
000070 4d be e3 3d b7 6d bb 3e 40 08 86 be 98 f6 8f 3e
       0.11120281 0.36607143 -0.2617817 0.28117824
000080 08 cb 2e be 17 30 d9 bb e4 d7 20 3e 68 9a 2b 3e
       -0.17069638 -0.006628047 0.15707356 0.1675812
000090 1e 8f b2 bd 18 59 a5 be 42 ce 29 be 93 d2 53 3e
       -0.08718704 -0.32294536 -0.16582587 0.20685796
0000a0 b7 b2 a4 bd 18 e8 f0 bd a7 93 4a be 28 b9 57 3d
       -0.080419 -0.11763018 -0.19782887 0.052666813
0000b0 e2 78 12 3d de 05 7c 3d 49 eb 58 be cf 2d 81 bd
       0.035759814 0.061529033 -0.21183504 -0.063075654
0000c0 9f 9e 01 3f 83 42 a7 3e 41 6c d5 bd 9b 7f 8d be
       0.5063266 0.32667932 -0.104210384 -0.27636418
0000d0 a3 5c 06 3e 0d 9d 20 be ba 6a b8 bd a6 b0 1d 3e
       0.13121276 -0.1568491 -0.090047315 0.15399417
0000e0 c4 7b 6d 3e 8b ec 55 be 98 5e 81 bd d2 eb 71 be
       0.23191744 -0.20891015 -0.063168705 -0.23625115
0000f0 e0 cd 7c be 52 52 2e 3d 83 4c 43 3d 04 2b 2b be
       -0.2468791 0.042558976 0.04768039 -0.16715628
000100 81 2b 21 3e 42 80 9f 3c df 11 13 3d c9 a5 b1 3e
       0.15739252 0.019470338 0.035905715 0.34696797
000110 b0 03 9c 3c 70 cf 23 3d 20 01 83 3f 99 ff 6c 3d
       0.019044727 0.03999275 1.0234718 0.057860944
000120 25 be 70 3e d0 9b a9 3e bc 11 8f be 59 6a 97 3e
       0.23510034 0.33126688 -0.27943218 0.29573324
000130 58 76 5d 3e e7 bb 48 3e 9a dc 9e 3d 27 92 88 be
       0.21627176 0.19602929 0.0775692 -0.26674005
000140 ec 31 a0 3e 81 75 11 3e 45 b1 38 be 20 ab 69 3f
       0.31288087 0.1420498 -0.18036373 0.9127674
000150 95 90 72 be 47 f0 7f bc ca a3 74 be d2 7c 5a 3d
       -0.23687966 -0.015621251 -0.23890606 0.053341694
000160 14 29 05 3d b2 19 92 bc 60 8b ba bc eb 11 8f be
       0.03250988 -0.017834518 -0.022771537 -0.27943358
000170 df a2 dc bc 1c 85 2f be 6a d4 72 3e 3c 0a a5 bd
       -0.026933132 -0.17140621 0.23713842 -0.08058593
000180 16 12 b9 bd 72 66 7c be 84 78 30 3e 27 53 8a 3c
       -0.09036653 -0.24648455 0.17233473 0.016885353
000190 74 35 95 3e 1d c6 22 bd 0b cc 03 3d 25 7c 3f 3e
       0.29142344 -0.039739717 0.032177012 0.18699701
0001a0 4a ad 20 be 7b 9b c2 3d 04 0a 86 3d d2 f0 26 bd
       -0.15691105 0.09502312 0.06544879 -0.040757008
0001b0 a9 91 54 3e 10 5b 86 3e 9b c7 7c 3f a5 61 31 bd
       0.2075869 0.2624135 0.98742074 -0.04330601
0001c0 14 c9 69 bd 20 ab 49 3f f9 95 d2 3e de 84 0e 3e
       -0.05707653 0.7877674 0.41130045 0.13917872
0001d0 5c 64 de bd 95 33 59 3f fd bd 17 3e 63 a5 a5 bd
       -0.10858986 0.8484433 0.14818569 -0.08088186
0001e0 58 3c ef 3c ce 5b af be 48 e9 eb 3d 98 ea 4e 3d
       0.029203579 -0.3424973 0.11519104 0.050516695
0001f0 1f d7 04 bd 12 9b 08 be 13 df 28 3e 32 ff de bd
       -0.032431718 -0.13340405 0.16491346 -0.108885184

output.weight f4 [16, 128]
000000 2e 86 22 3a 81 90 15 3d 5f 20 0c 3e 37 ad cd 3d
       0.0006199804 0.036514763 0.13684224 0.10042804
000010 2a e6 e2 3d 86 41 34 bc ef d0 cc 3c 0e b6 8b 3c
       0.110790566 -0.01100195 0.025001971 0.017054584
000020 35 06 0d 3e 98 f6 2d 3d b7 49 cc 3d 13 3b 83 bb
       0.13771899 0.0424715 0.099749975 -0.004004845
000030 22 47 f1 3d 87 64 71 3d 1a 09 18 3e 57 a0 ef b9
       0.11781146 0.05893376 0.14847222 -0.00045705095
000040 71 99 b1 3c 09 ed 70 3b 60 55 fa bc 94 5b cd 3d
       0.021679612 0.0036762378 -0.030558288 0.10027233
000050 52 21 a5 3c 47 97 a7 3d b6 a0 e3 3d 50 a8 12 3e
       0.02015749 0.08183151 0.111146376 0.14322019
000060 56 8e c2 bb 7d 99 4b 3e 90 0d 4d 3e 86 f3 c4 3c
       -0.005937378 0.1988277 0.20024705 0.024041902
000070 ad eb 26 3e 1d 61 9e 3d 2d 9c 60 3c b6 fc ee 3a
       0.1630084 0.07733367 0.01370911 0.0018233273
000080 db d1 99 3d 0d 7a ba 3d 33 ed 8d 3d f4 6b 03 3d
       0.0751073 0.091053106 0.06930008 0.032085374
000090 4f d6 8b 3d 01 74 e6 3d c9 02 48 3d c0 c2 97 bd
       0.068279855 0.11252595 0.04883078 -0.074101925
0000a0 af ac 2f bd 71 8b 0b 3d bf 91 2b 3e 87 5f 9a bd
       -0.042889293 0.03406853 0.16754816 -0.07537752
0000b0 51 97 04 3e ad 4d 5c 3d c3 98 85 3d 82 28 73 3d
       0.12948348 0.053785015 0.065232776 0.059364803
0000c0 e3 c9 56 3e ac 79 d9 3c 14 9d ae 3d 24 5b 1f ba
       0.20975451 0.026547275 0.08526054 -0.00060789497
0000d0 95 99 81 3c 60 9d b4 3d 47 eb 3c 3d bd f6 2e bb
       0.015820304 0.088190794 0.046122815 -0.002669736
0000e0 85 67 80 bd 9e b5 78 3c 15 3d 73 3d 91 56 ec 3d
       -0.06269745 0.01518002 0.059384424 0.11539949
0000f0 b1 09 95 3d 54 22 08 3e 5b d1 c6 ba 7b 38 4c 3d
       0.07277239 0.13294345 -0.0015168594 0.04985855
000100 2a 0a 8c 3d 5d dd 32 bb 02 74 40 3d 93 0c 12 3c
       0.06837876 -0.0027292587 0.046985634 0.008914131
000110 4a 14 60 3d fb 6a 98 3d 88 f1 84 3e fe 6a c6 3d
       0.05470685 0.0744228 0.25965524 0.09688376
000120 15 b7 83 bd 9b f8 32 3f 80 9c cb 3d 74 b2 9c 3e
       -0.064314045 0.6991059 0.099419594 0.306049
000130 1d b3 e2 39 19 ca af bc 2c db 70 3d 75 bc 89 3b
       0.0004323953 -0.021458672 0.05880277 0.004203374
000140 2c c2 92 3d 8c 11 fc 3c e3 b1 7b 3d 0d e3 0b 3e
       0.071659416 0.030770086 0.061448943 0.13660832
000150 ea 58 41 3e 95 39 83 bd 0d 53 d6 3a 11 d2 e4 b9
       0.18881574 -0.06407467 0.0016351655 -0.0004364406
000160 00 a2 2c 3d 6d 5d a3 3b 39 30 66 bd b4 80 03 3d
       0.042146683 0.0049855025 -0.056198332 0.032105163
000170 a4 3a 31 3e 5f 2c a1 bd 30 06 89 3e 3a 93 c3 bc
       0.17307526 -0.07869791 0.26762533 -0.023873914
000180 28 c6 4b 3d 4a d3 03 3d 74 63 49 3d a5 bd 29 3d
       0.049749523 0.032183923 0.04916711 0.041440625
000190 5c df b9 3d db 7c 36 3c d3 88 08 bd 1b a6 60 3e
       0.090758055 0.011138166 -0.03333361 0.21938364
0001a0 37 8f 3b 3d ff c3 d1 3d 4c 37 22 3e 6d 9a 32 3c
       0.045790877 0.102424614 0.15841407 0.010901076
0001b0 da 9a 22 bd 9e 6a c2 b9 f7 c9 78 3e a5 20 0c 3e
       -0.03969846 -0.00037082 0.24295793 0.13684328
0001c0 9b d4 fb 3c de 47 05 b9 e9 8e ab 3e 8b 86 43 3d
       0.030741027 -0.00012710641 0.3350747 0.047735732
0001d0 48 82 1b 3d 7c 2e 95 3e b4 a0 58 3d 9b b9 fe bc
       0.037966043 0.29137027 0.052887633 -0.031094363
0001e0 21 b5 d7 bc b8 80 ec 3d 35 8c ad 3d 3f dc cc 3d
       -0.026331486 0.11547989 0.08474008 0.10002946
0001f0 ab cf a4 3d 87 c9 52 3d b9 22 ff 3c 0f 6e 08 3e
       0.08047422 0.051461723 0.031144487 0.13323234
000200 fe ab ba bc 6e 5c 42 3d 0d 17 9c bc d9 60 c5 3d
       -0.02278709 0.04745143 -0.01905396 0.09637613
000210 d8 7c b1 3d c8 53 e1 bb ff 89 09 3e 5e 71 3d bc
       0.0866639 -0.0068764426 0.13431548 -0.011562673
000220 6c f7 cb 3c 80 2f 4f 3d 35 ca 12 3e 3a dc 87 3d
       0.024898253 0.05058241 0.14334948 0.06633802
000230 f4 50 07 3e a6 bf 15 3e 1d 20 d3 3e 18 11 d4 bb
       0.13214475 0.1462389 0.41235438 -0.0064717643
000240 d6 e3 0c 3e 51 11 88 bb f4 e1 20 3e eb cf 8a bc
       0.13758788 -0.004152455 0.15711194 -0.016944846
000250 6e e5 6a bd 39 3c 21 bc e7 0c 59 bd d6 09 8f 3d
       -0.057347707 -0.009841018 -0.05299082 0.06984298
000260 37 7b b2 3c 4b be 2b 3e b1 56 55 3e ae 29 9f 3d
       0.021787269 0.1677181 0.20833851 0.07771622
000270 0c a2 06 be 0a 5e e9 3c 43 20 f8 3d 04 51 ef 3d
       -0.13147753 0.028487224 0.121155284 0.116853744
000280 e2 bb d0 3d ce 83 e7 bd 3c 9a 2f 3d eb 59 93 bd
       0.10192086 -0.113044366 0.0428717 -0.07194885
000290 45 bd 0d 3d f6 8a 31 3e e7 7b d6 bb 54 96 12 3e
       0.03460433 0.17338166 -0.006545532 0.14315158
0002a0 bf 4c 7a 3d c2 03 58 3d db 38 09 bd 5f b7 2b bd
       0.061108347 0.05273796 -0.033501487 -0.041922923
0002b0 07 10 25 3f 98 12 a0 bd fe 32 8c 3c 02 7f 75 bd
       0.6447758 -0.078160465 0.017114159 -0.059935577
0002c0 ee 15 a5 3e 77 e7 ce 3c 49 82 84 3d 53 3a d5 bd
       0.32243294 0.025256855 0.064701624 -0.10411515
0002d0 d0 1a 51 ba 4e b3 bf bc 62 07 1e 3e ed 91 43 3d
       -0.00079767127 -0.023400929 0.15432504 0.047746588
0002e0 4c 24 fa bb 07 16 4d 3d 56 55 1e 3e 3d 0b 86 3d
       -0.0076337215 0.050069835 0.1546224 0.06545112
0002f0 65 ee 18 bb 50 bf 05 be 5d d5 4a 3d 9a 57 6c bd
       -0.0023335454 -0.13061261 0.049519885 -0.05770073
000300 75 64 97 3d 16 27 02 3d 2e d5 8c 3d 59 c1 b4 3d
       0.073922075 0.031775557 0.06876598 0.08825941
000310 95 de a1 3d 62 c0 b4 3d cb 69 8f 3e 14 d8 10 3e
       0.07903782 0.088257566 0.280104 0.14144927
000320 1d df ec 3c 61 c0 e1 be f3 93 39 3e ca fe 56 be
       0.028914982 -0.44092086 0.18122844 -0.20995632
000330 93 bb c4 3d 18 fd 46 3e a7 41 17 3e a2 af a2 3d
       0.096060894 0.19432485 0.14771138 0.079436556
000340 b5 55 43 bd 39 35 bb ba f5 59 5f 3d 8a 53 88 3e
       -0.04768916 -0.0014282829 0.05452915 0.26626235
000350 d8 25 66 3d f8 11 9d 3d 62 d1 a8 3c fd c8 38 3e
       0.056188434 0.07669443 0.020607654 0.18045421
000360 69 e5 f5 3d c9 0f 85 3d 02 8d 1c 3e b0 fe 0e 3d
       0.12006647 0.064971514 0.15288165 0.034910858
000370 44 73 fc 3d f1 e1 83 3d f8 ba 63 3b f4 fe 14 3e
       0.12326673 0.06439579 0.0034748893 0.14550382
000380 e0 a8 31 bc 92 dd ec 3d ae 9e 24 3d 7d d0 4e 3d
       -0.010843486 0.11565699 0.04019039 0.0504918
000390 de 9a cc 3d 1e 01 d7 3d 27 01 a5 3c 80 de 67 3d
       0.09990476 0.1049826 0.020142151 0.056608677
0003a0 97 84 2b 3e 54 de 44 3d 2a 52 b3 3d 8a ea f1 3d
       0.16749798 0.04806359 0.08755906 0.11812313
0003b0 71 b7 45 3d d2 28 25 3e 85 0b 0b 3e f9 8f 06 bc
       0.048270646 0.16128853 0.13578613 -0.008213037
0003c0 b9 ba 56 3d 38 eb 47 3f d5 aa e5 bd f8 fb f9 3c
       0.052424166 0.7809329 -0.11214224 0.030515656
0003d0 d6 a0 78 3d 7c 6f 32 3e a5 5b b0 3d df cf 30 bd
       0.06070026 0.1742534 0.0861123 -0.04316699
0003e0 cd 09 a4 3d 10 ec a2 3c fa f5 94 3d b2 25 56 3b
       0.08009682 0.019887954 0.07273479 0.0032676277
0003f0 1e 17 aa bd 85 39 63 3d 00 6d 1f bd 38 2d f8 3d
       -0.083051905 0.055474777 -0.03892231 0.12118

output.bias f4 [16]
000000 75 9c 8d 3d f4 91 16 3e 5a 1f 31 3e 89 7a b0 3d
       0.069146074 0.14704114 0.17297116 0.08617122
000010 29 d1 4a 3d db 39 03 3e eb 9c fd bb f4 57 21 bd
       0.049515877 0.12815039 -0.0077396533 -0.03939052
000020 3d f5 54 bd c1 eb 6c bc b7 54 d9 bc e6 d0 34 bd
       -0.05199169 -0.014460505 -0.026529653 -0.044144534
000030 dc d9 a8 bd db 56 81 3d 6c 65 08 bc f2 d9 8b 3d
       -0.082446784 0.063153945 -0.008324962 0.06828679
