temp_morel/pretrained_models2/pretrain_model6.pt (torch, 19487 bytes, 4 tensors)

hidden.weight f4 [128, 18]
0	0xbe782ecf	-0.24236606
1	0xbc0a0659	-0.008424365
2	0xbd2fb808	-0.042900115
3	0x3e988a99	0.29793242
4	0x3d9f9789	0.07792575
5	0xbdbd2cef	-0.09237086
6	0xbe30b9b5	-0.17258342
7	0x3f0fb1af	0.561305
8	0x3e27d9b8	0.16391647
9	0x3d6444ac	0.055729553
10	0x3f4f26f4	0.8091881
11	0xbe55dd92	-0.20885304
12	0xbdace7bc	-0.08442637
13	0xbea2f76f	-0.31829402
14	0x3e005986	0.1253415
15	0xbe1da999	-0.15396728
16	0xbe8003db	-0.2500294
17	0xbe78d6bc	-0.24300665
18	0xbc61e9e9	-0.013788679
19	0x3dbd1c55	0.092339195
20	0xbdf41294	-0.11917606
21	0xbe0e4827	-0.13894711
22	0xbcbbbacf	-0.022916226
23	0x3da39a4a	0.07988413
24	0xbe1412e6	-0.14460334
25	0x3cc00be6	0.023443174
26	0xbcc7e19b	-0.02439957
27	0x3e07d4ab	0.1326472
28	0xbd886847	-0.06660514
29	0xbd407a71	-0.04699177
30	0x3d8b9f87	0.06817537
31	0x3e20a8c0	0.15689373
32	0x3e278291	0.16358401
33	0x3c4cf152	0.012508707
34	0x3e2de88a	0.16983238
35	0x3d889924	0.06669834
36	0x3e055452	0.13020447
37	0xbd2a29ec	-0.041543886
38	0x3dc19b83	0.0945349
39	0x3c9bf215	0.019036332
40	0xbda2fe0c	-0.07958612
41	0x3e229e01	0.15880586
42	0x3eb056de	0.34441274
43	0x3fa4b1d5	1.286677
44	0xbe8a4e57	-0.27012894
45	0x3fc8d313	1.5689415
46	0x402c86ca	2.6957269
47	0x3eaf6ada	0.3426121
48	0xbffa6046	-1.956063
49	0x3f06a15b	0.5258996
50	0x3d9dbbaa	0.0770181
51	0x3e6a1f41	0.22863485
52	0x3e2e7b46	0.17039213
53	0x3e1ef881	0.15524484
54	0x3d864709	0.06556518
55	0xbdd03c02	-0.101676956
56	0x3da16a85	0.07881645
57	0x3eee1459	0.464999
58	0x3e6332fb	0.22187416
59	0xbd90db13	-0.07073035
60	0xbe33e829	-0.17569031
61	0x3eeaf569	0.45890358
62	0xbee81309	-0.45327023
63	0xbf0f0b7b	-0.5587689
64	0xc0361d51	-2.8455393
65	0x3e879cef	0.26486918
66	0x3f8f8fed	1.1215798
67	0x3e62da3d	0.22153564
68	0xbe5fc2aa	-0.21851602
69	0xbd35c5f3	-0.044378232
70	0x3e2e789a	0.17038193
71	0xbd846e35	-0.06466333
72	0x3e4afaca	0.19822231
73	0x3dfdbc08	0.1238938
74	0x3cce421d	0.02517801
75	0x3ec2fcb2	0.38083416
76	0xbd4fa54e	-0.050694756
77	0x3d057ec9	0.032591615
78	0x3e7a5d6f	0.24449705
79	0x3f84d185	1.037644
80	0xbe5eb762	-0.21749642
81	0xbe00550b	-0.12532441
82	0xbf2e4c6f	-0.6808538
83	0x3e984e55	0.29747263
84	0xbf912753	-1.1340126
85	0x3ec91719	0.39275435
86	0x3e26c304	0.1628533
87	0x3e13d023	0.14434867
88	0x3e0952b8	0.13410461
89	0x3b8169e4	0.0039493907
90	0xbe4bbc63	-0.19896083
91	0x3e6612b7	0.22468077
92	0x3daa7a75	0.08324138
93	0x3ec81c5b	0.39084134
94	0x3dfd6a87	0.12373834
95	0x3dd6348c	0.10459241
96	0x3f132e86	0.57492864
97	0x3ec0d1f6	0.37660187
98	0xbe9c1b1f	-0.30489442
99	0xbe782bba	-0.2423543
100	0x3fe7d945	1.811318
101	0x3e955c28	0.29171872
102	0xc000eb54	-2.0143633
103	0x3e83ac4e	0.25717396
104	0xbde48fb5	-0.111602224
105	0xbd0442d0	-0.03229028
106	0x3d92a653	0.0716063
107	0x3e28a976	0.16470894
108	0x3df8c852	0.12147583
109	0xbe1593e8	-0.14607203
110	0xbd8e8843	-0.069595836
111	0x3cb29372	0.021798823
112	0xbdfcd28d	-0.12344847
113	0xbe5b6fa0	-0.214293
114	0x3d971661	0.07377315
115	0x3e330353	0.17481737
116	0xbe63c1fd	-0.2224197
117	0x3d66e24d	0.05636816
118	0xbc8094c4	-0.015695937
119	0xb9af94a6	-0.00033489353
120	0xbcd7362f	-0.026270954
121	0xbe901ce1	-0.28147033
122	0xbe1484a2	-0.1450372
123	0x3dde7286	0.10861687
124	0xbe551e97	-0.2081245
125	0xbe8384d9	-0.25687292
126	0x3e8af63f	0.27140996
127	0xbe26c992	-0.1628783
128	0x3e777a11	0.24167658
129	0x3e4cbaad	0.19993086
130	0xbd95b440	-0.073097706
131	0x3e0e2432	0.13880995
132	0x3ec06d65	0.3758346
133	0x3fa79cf8	1.3094778
134	0x3d6e5ba7	0.058192875
135	0x3ee4b887	0.44672033
136	0xbe577143	-0.210393
137	0x3db818a1	0.089890726
138	0xbf91c181	-1.1387178
139	0x3e61b229	0.22040619
140	0xbcabfb1a	-0.020993758
141	0x3d796f11	0.060896937
142	0x3da66d06	0.08126263
143	0xbde17af1	-0.11009777
144	0x3e04bae2	0.12961915
145	0xbe46e712	-0.19424084
146	0xbe5e8e90	-0.21734071
147	0xbe2c54bb	-0.16829197
148	0x3e472283	0.19446759
149	0x3e4c36da	0.19942799
150	0x3df9f703	0.12205317
151	0x3d34e36c	0.0441622
152	0xbcc87409	-0.024469392
153	0xbe29ad85	-0.16570099
154	0xbe5e656d	-0.21718378
155	0xbe6c514b	-0.23077886
156	0xbd900e67	-0.07033997
157	0xbe1c5dc4	-0.15270144
158	0x3dfa9f87	0.12237459
159	0xbe3f1546	-0.18660459
160	0xbd1c378b	-0.038138907
161	0xbe4f0dc1	-0.2022009
162	0x3d1ef2fb	0.038805943
163	0x3f0283a1	0.509821
164	0xbe5779fe	-0.2104263
165	0x3d144738	0.036200732
166	0x3f52281f	0.8209247
167	0x3ecd5414	0.4010321
168	0x40151665	2.3294919
169	0x404710d1	3.1104014
170	0xbd6a8bdb	-0.057262283
171	0x4021acc4	2.5261698
172	0x408c52ee	4.3851233
173	0x3ffdd3a9	1.9830219
174	0xc067cc4f	-3.621845
175	0x404085d2	3.0081677
176	0xbf949346	-1.1607444
177	0x3ec58aa1	0.38582328
178	0xbf72cf30	-0.94847393
179	0xbfc1de09	-1.5145885
180	0xbe947d0e	-0.2900166
181	0xbe72c765	-0.23708875
182	0x3dd05733	0.10172882
183	0xbe5d67fc	-0.21621698
184	0xbe911c95	-0.2834212
185	0xbdf806ec	-0.12110695
186	0x3d935cb3	0.07195415
187	0xbe94726c	-0.28993547
188	0x3e006d98	0.12541807
189	0xbe4795e3	-0.19490771
190	0xbe23027a	-0.15918913
191	0xbe75c18d	-0.23999615
192	0x3d8dd4c6	0.06925349
193	0xbe34da91	-0.17661501
194	0xbea2ff11	-0.31835225
195	0xbe4d0be9	-0.20024075
196	0xbe61831d	-0.22022672
197	0xbe0e669d	-0.13906331
198	0xba300c33	-0.0006715685
199	0x3d1a1703	0.037619602
200	0x3e12d507	0.14339076
201	0x3ec8eac1	0.39241603
202	0x3e931645	0.28727928
203	0x3d957719	0.07298107
204	0xbdb106b2	-0.08643855
205	0x3e3e0ad9	0.18558826
206	0xbdc3f88f	-0.09568893
207	0xbf3d89d5	-0.7403844
208	0xc01376c0	-2.304123
209	0xba7102e1	-0.00091938494
210	0x3ee690d6	0.45032376
211	0xbb2ce235	-0.0026379947
212	0x3e41ba8f	0.18918823
213	0x3d36c3c6	0.044620298
214	0xbd12a50b	-0.03580193
215	0x3cc888ef	0.024479358
216	0xbdc7006c	-0.09716877
217	0x3e337d23	0.17528205
218	0x3e8c6bda	0.27426034
219	0x3eaaf8ae	0.33392853
220	0x3eb45438	0.35220504
221	0x3cbe8c17	0.02326016
222	0x3e9f8d70	0.31162596
223	0x3f81c7ab	1.0139059
224	0xbe34b28e	-0.17646238
225	0xbf176536	-0.5913881
226	0xbe774c4c	-0.24150199
227	0x3ebe7205	0.37196365
228	0xc010c094	-2.261754
229	0x3dabca2c	0.083881706
230	0x3e95da4e	0.29268116
231	0xbdf26b58	-0.118368804
232	0x3e7835f2	0.24239329
233	0x3e8511b0	0.25990057
234	0x3e286a73	0.16446857
235	0x3ce7ac0f	0.028280286
236	0xbe4a5de5	-0.1976238
237	0x3e8602ec	0.26174104
238	0x3e305a9d	0.17222066
239	0xbbfbf3f0	-0.0076889917
240	0x3efebd3b	0.49753746
241	0x3e981557	0.2970378
242	0x3fcd1114	1.6020837
243	0x3e0c829a	0.13721696
244	0x3f34aa1d	0.7057207
245	0xbe86fd5f	-0.26365182
246	0x3ef8172d	0.48455182
247	0xbe81b93d	-0.25336638
248	0x3e2175ec	0.1576764
249	0x3e0c23e7	0.1368557
250	0x3d995355	0.074865974
251	0x3e025078	0.12726009
252	0x3d1c6dea	0.03819076
253	0x3e578113	0.21045332
254	0x3d5fa882	0.05460406
255	0xbc5c0ca7	-0.013430751

hidden.bias f4 [128]
0	0xbe820427	-0.25393793
1	0xbe6efa9d	-0.23337789
2	0x3dfc295f	0.123125784
3	0xbd381572	-0.044942327
4	0xbc895cde	-0.016767915
5	0x3dca0994	0.09865108
6	0x3db07ccf	0.08617555
7	0x3e9eac2a	0.30990726
8	0xbe63db2f	-0.2225158
9	0x3e78af07	0.24285518
10	0x3c8fd9d9	0.017559933
11	0x3e0af00d	0.13568135
12	0x3e9a1825	0.30096546
13	0x3ea60718	0.32427287
14	0xbdcf5dc2	-0.10125305
15	0xbe3056c4	-0.17220598
16	0x3de8a4a2	0.11359526
17	0x3f621c63	0.88324565
18	0xbe293075	-0.16522391
19	0xbe2072ac	-0.15668744
20	0x3f4ae572	0.79256356
21	0xbd1daf8a	-0.038497485
22	0xbcdd4e29	-0.027014809
23	0x3f720ff9	0.9455562
24	0xbe0158c0	-0.12631512
25	0x3e83ac33	0.25717315
26	0x3e6ce5f1	0.2313459
27	0xbd50b4f6	-0.050953828
28	0x3e3a392c	0.18185872
29	0x3d61ef3b	0.05515979
30	0x3e81cf3a	0.25353414
31	0xbe41af53	-0.18914537
32	0xbe8deeae	-0.2772116
33	0xbea1ae87	-0.31578466
34	0xbea2d724	-0.31804764
35	0x3e526d0d	0.20549412
36	0xbe317fea	-0.17333952
37	0x3ddc5b41	0.10759593
38	0xbdfe205c	-0.12408516
39	0xbd18c18a	-0.03729395
40	0x3dca9a67	0.09892731
41	0xbe58c5c1	-0.21169187
42	0x3de3479a	0.11097641
43	0x3de7d7ed	0.113204814
44	0xbe101176	-0.14069161
45	0xbd11f46f	-0.0356335
46	0x3e1c6284	0.15271956
47	0xbe1b0634	-0.15139085
48	0x3ea923b6	0.33035058
49	0xbe2fced7	-0.17168747
50	0xbdd5b056	-0.10434024
51	0x3dc01977	0.09379857
52	0xbe062df6	-0.1310347
53	0xbe57d9e1	-0.21079208
54	0x3f254b6b	0.64568204
55	0x3e91f407	0.2850649
56	0x3e43b8c5	0.19113453
57	0x3e681180	0.22662926
58	0xbec9aa2f	-0.39387652
59	0x3e36a166	0.17835006
60	0xbcfc1539	-0.030771839
61	0x3e400053	0.18750124
62	0x3af82206	0.0018931038
63	0xbe19ef6e	-0.15032741
64	0x3d41c979	0.04731128
65	0x3e1d260b	0.15346543
66	0xbe8608d6	-0.26178616
67	0xbd8ee6d0	-0.06977618
68	0xbb5dd957	-0.0033851468
69	0xbda013fa	-0.0781631
70	0x3cb1ff24	0.021728106
71	0xbd51c238	-0.051210612
72	0x3df95460	0.121742964
73	0x3e86b047	0.26306364
74	0xbd84340d	-0.064552404
75	0xbe094797	-0.13406216
76	0xbdd4da91	-0.10393251
77	0x3db218e0	0.08696151
78	0x3d91d504	0.07120708
79	0x3dfa827a	0.12231918
80	0xbe1c87c6	-0.15286168
81	0x3da1d18d	0.07901297
82	0x3ee9619e	0.45582289
83	0xbd459f0e	-0.04824739
84	0x3f47a177	0.7798075
85	0x3e049a48	0.12949479
86	0xbd2d9337	-0.042376723
87	0x3da839a0	0.08214116
88	0xbe1cad9a	-0.15300599
89	0x3e47d112	0.19513348
90	0xbe061d1d	-0.13097043
91	0x3e40e12f	0.188359
92	0xbcf5741b	-0.02996259
93	0x3e02297a	0.12711135
94	0xbb5a13f7	-0.003327606
95	0x3e093da0	0.13402414
96	0x3d9d502d	0.07681308
97	0xbe923128	-0.28553128
98	0x3f1d2102	0.6137849
99	0x3cb58300	0.022157192
100	0xbe22567d	-0.15853305
101	0x3d5ab61f	0.05339634
102	0x3d8fb844	0.07017568
103	0xbc2a8573	-0.010407793
104	0x3e935dca	0.28782493
105	0xbe2c62ac	-0.16834515
106	0x3e5c5cf1	0.2151983
107	0x3ea7ee24	0.32798874
108	0x3e147b52	0.14500168
109	0xbdf43f63	-0.119261526
110	0x3e5ff0ad	0.21869154
111	0x3e91a53d	0.2844638
112	0x3e331904	0.17490011
113	0x3d2c2f8f	0.042037543
114	0x3d431ef3	0.047636937
115	0xbdc0daaf	-0.094167106
116	0xbd40b0f3	-0.047043752
117	0x3e4daaf1	0.2008474
118	0xbd229ee4	-0.03970231
119	0xbd13c6a8	-0.036078125
120	0x3e9394f3	0.28824577
121	0x3e812f18	0.25231242
122	0xbe828fd1	-0.25500348
123	0x3e45e58e	0.1932585
124	0xbd8fc34a	-0.0701967
125	0x38f7132c	0.00011781449
126	0x3db2a145	0.08722166
127	0x3e388166	0.18018112

output.weight f4 [16, 128]
0	0x3df12226	0.117740914
1	0xbca54293	-0.020173347
2	0x3d67d887	0.05660298
3	0x3dc4c8f9	0.09608645
4	0x3d74335a	0.059619285
5	0xbccfdef5	-0.025374869
6	0xbdb52c6d	-0.08846364
7	0x3e1458c2	0.14486983
8	0x3d19ea3b	0.037576895
9	0x3dc048fe	0.09388922
10	0x3d0c6da6	0.034284256
11	0x3c999c8d	0.018751407
12	0x3bef0fe4	0.0072955955
13	0x3e28bc05	0.16477974
14	0x3bfe28e0	0.0077563375
15	0x3d28f5e9	0.041250143
16	0x3d81ed6c	0.06344113
17	0x3eb49dc8	0.35276628
18	0xbcecd3e3	-0.02890963
19	0xbd2d44ec	-0.042302057
20	0x3e47d21d	0.19513746
21	0x3dd07446	0.101784274
22	0x3d1d0d2f	0.03834265
23	0x3e997cca	0.2997802
24	0xbcd4b53b	-0.025965324
25	0x3dbbceb9	0.091702886
26	0x3e07c35d	0.13258119
27	0x3d174de5	0.03693952
28	0x3e405f68	0.18786395
29	0x3bef032c	0.0072940793
30	0x3c089a00	0.008337498
31	0x3d8c0e48	0.068386614
32	0x3db0ec75	0.086388506
33	0x3dab7f8d	0.08373938
34	0x3d10f2d9	0.035387848
35	0x3d07c58d	0.033147383
36	0xbc728968	-0.014803268
37	0x3cc890a8	0.02448304
38	0xbd4aef06	-0.049544357
39	0x3d1fba87	0.038996246
40	0x3df71a05	0.1206551
41	0xbd729d81	-0.05923224
42	0xbca0b5f9	-0.019618021
43	0x3cd3d724	0.025859423
44	0x3dffa279	0.12482161
45	0xbb1177a7	-0.0022196562
46	0xbcaaea99	-0.020863818
47	0x3c6be056	0.014396748
48	0xbc85ed2a	-0.01634844
49	0x3d126cca	0.03574828
50	0x3e38945f	0.18025349
51	0x3d5efd3a	0.054440714
52	0x3da7ef78	0.08199972
53	0x3e1f9475	0.15583976
54	0x3ebe9180	0.37220383
55	0x3db247d8	0.08705109
56	0xbbe21a38	-0.006900098
57	0x3d8e2354	0.06940332
58	0x3db937b5	0.090438284
59	0x3cd9b64a	0.02657618
60	0xbcca4d5e	-0.024695095
61	0x3c3c0dc6	0.011477893
62	0x3dc395f1	0.095500834
63	0x3bdb2038	0.0066871904
64	0x3e5ecd67	0.21758042
65	0x3e0d4e89	0.1379949
66	0xba0f1b9e	-0.00054591324
67	0x3ce4abc7	0.027913941
68	0xbaa84e69	-0.0012840751
69	0xbc3fd3ae	-0.011708183
70	0x3e0e5f4c	0.1390354
71	0x3d4ece52	0.05048973
72	0xbd8b24ae	-0.067941055
73	0x3ebd664f	0.36992118
74	0x3b1bfc2d	0.0023801432
75	0x3d590692	0.05298478
76	0x3deca3d6	0.11554687
77	0xbd212dd9	-0.039350364
78	0xbc11c09c	-0.008896019
79	0xba85a33d	-0.0010195744
80	0xbd2b9f4f	-0.041899975
81	0x3d1b50ba	0.037918784
82	0x3e3052e2	0.17219117
83	0x3e4bd943	0.19907098
84	0x3edf49f9	0.43611124
85	0x3d3f66f4	0.046729043
86	0x3d5e0c0f	0.05421072
87	0xbd8bedc7	-0.06832462
88	0x3d9dbf1f	0.07702469
89	0xbc0c4cb6	-0.008563211
90	0xbc287f0f	-0.010284199
91	0x3e66b223	0.22528891
92	0x3c0ce09e	0.008598475
93	0x3d8ad698	0.06779212
94	0xbd91dd30	-0.07122266
95	0x3dbf83d6	0.093513176
96	0xbd1f243e	-0.038852923
97	0xbc88d4f7	-0.016703112
98	0x3d739e13	0.059476923
99	0xbbd5064a	-0.006500994
100	0x3df3cbf4	0.11904135
101	0x3da91655	0.082562126
102	0x3db41fe9	0.08795149
103	0x3d0b3738	0.033988208
104	0x3d72555c	0.059163436
105	0x3dc40450	0.09571135
106	0xbb7827ba	-0.0037865476
107	0x3e16ce6e	0.14727184
108	0x3dd1b261	0.10239101
109	0x3e025ba9	0.12730278
110	0x3bf06200	0.0073359013
111	0x3f1237ff	0.57116693
112	0xbd6176f2	-0.055045076
113	0x3df08e50	0.11745894
114	0x3e21a8ab	0.15786998
115	0xbd5058dd	-0.050865997
116	0x3cd23366	0.025659274
117	0x3cfe9d18	0.031080768
118	0x3b38442a	0.00281168
119	0xbd2cd21a	-0.042192556
120	0x3e7d44b7	0.24733244
121	0x3dc84348	0.09778458
122	0x3d4a6910	0.0494166
123	0x3e16c2e4	0.14722782
124	0x3d0563ca	0.03256587
125	0x3c20111a	0.009769702
126	0x3dd164c6	0.10224299
127	0x3b7d8d93	0.003868912
128	0x3decbd68	0.11559564
129	0x3d8d5f9d	0.069030024
130	0x3dd872b9	0.105687566
131	0xbccddb77	-0.025129063
132	0x3d69f4af	0.057118114
133	0x3e3f4216	0.18677554
134	0x3c3e512a	0.011616031
135	0x3d82ea56	0.06392352
136	0x3d2a982a	0.04164902
137	0x3f3c317e	0.7351302
138	0x3d30712d	0.043076683
139	0xbb27df60	-0.002561532
140	0x3df102e3	0.11768129
141	0x3e7a0767	0.24416886
142	0x3ced61c3	0.02897728
143	0xbb078ad2	-0.0020682109
144	0x3d9b462e	0.07581745
145	0xbb062a62	-0.002047204
146	0xbd1943e0	-0.037418246
147	0xbb742d8d	-0.0037258596
148	0x3cc74865	0.024326513
149	0x3dc6ff98	0.097167194
150	0x3da14c4e	0.07875882
151	0x3e591a7a	0.21201506
152	0x3d536f60	0.051619887
153	0x3e2ba552	0.16762283
154	0x3b59a838	0.0033211838
155	0xbd09366c	-0.033499166
156	0xbdcac5cb	-0.09901007
157	0x3d268d90	0.04066235
158	0x3db1a5b4	0.086741835
159	0x3d905ee4	0.07049349
160	0x3d2e24dc	0.04251562
161	0x3dbd95e6	0.092571065
162	0x37c5d9a8	2.3585584e-05
163	0xbc89bcf3	-0.01681373
164	0x3ce71487	0.02820803
165	0x3ce21aad	0.02760061
166	0xbd9cf5db	-0.07664081
167	0x3d9ecd5c	0.07754013
168	0xbc1f8dde	-0.009738414
169	0xbdbd7f83	-0.092528366
170	0x3d144bd8	0.036205143
171	0x3d9826e0	0.0742929
172	0x3da916a2	0.0825627
173	0x3cb25153	0.021767294
174	0x3db44291	0.08801759
175	0x3d9e1a5d	0.07719872
176	0x3df43123	0.119234346
177	0xbd4d168c	-0.05007033
178	0x3e314318	0.1731075
179	0x3d9da435	0.07697336
180	0x3db169b6	0.08662741
181	0x3dfd7b19	0.12376995
182	0x3e8e603d	0.278078
183	0xbd842435	-0.064522184
184	0xbce92f52	-0.028464947
185	0x3d98c026	0.074585244
186	0x3df6b220	0.120456934
187	0x3ca41df1	0.020033808
188	0xba9ebaee	-0.0012110153
189	0x3d7cfa6b	0.061762255
190	0x3dd540df	0.10412764
191	0x3cd7e6fd	0.026355261
192	0x3c6c44e4	0.014420722
193	0x3dba316e	0.09091459
194	0x3dd4a071	0.10382164
195	0xbca79e79	-0.020461308
196	0x3d9563d8	0.07294434
197	0x3dbd61ea	0.09247191
198	0x3df1aedc	0.1180093
199	0xbce036ee	-0.027369943
200	0x3c2b9a07	0.010473735
201	0xbcca9337	-0.0247284
202	0x3deee29c	0.11664316
203	0x3d23fc7a	0.040035702
204	0x3dd4d9f1	0.103931315
205	0x3de25df4	0.110530764
206	0xbd0a7108	-0.0337992
207	0xbd481810	-0.048851073
208	0x3e253f7d	0.161375
209	0x3d8c7fb8	0.06860298
210	0x3eafb2ad	0.34316006
211	0x3d786528	0.060643345
212	0x3f19385f	0.5985164
213	0xbda20a0a	-0.07912071
214	0x3dd7d303	0.10538294
215	0x3c665b1e	0.01405981
216	0x3dfc0d49	0.123072214
217	0x3ddd59ac	0.10808119
218	0xbd2a211a	-0.041535474
219	0xbc3b20af	-0.011421367
220	0x3d19113b	0.037369948
221	0x3ddfb327	0.109228425
222	0x3d8f4978	0.06996435
223	0x3dc22e84	0.094815284
224	0x3cc4ab2c	0.024007402
225	0x3e070319	0.13184775
226	0x3f73f3c9	0.9529386
227	0x3cdffe5e	0.027342971
228	0x3bb8182f	0.0056181173
229	0xbc5043ea	-0.0127115045
230	0xbd881f99	-0.06646652
231	0x3d86e9a2	0.06587531
232	0x3bef6169	0.0073053134
233	0x3c282234	0.010262061
234	0x3e135697	0.143885
235	0xbd829767	-0.06376534
236	0x3dfa8d20	0.12233949
237	0x3df1198e	0.11772452
238	0x3c7481cc	0.014923524
239	0xbf0609b5	-0.5235856
240	0x3e2ccb82	0.16874507
241	0xbdfaa2df	-0.122380964
242	0x3df28c58	0.11843175
243	0x3d12620d	0.03573804
244	0xb8cfcd0e	-9.9087236e-05
245	0xbc6c0157	-0.014404616
246	0xbda09360	-0.078406096
247	0x3d42be30	0.04754466
248	0xbe6f1364	-0.2334724
249	0x3d082395	0.03323706
250	0x3d1c8f47	0.038222577
251	0x3d4ffc1d	0.050777543
252	0x3d3bafe5	0.045822043
253	0x3d71eed4	0.059065655
254	0x3d00935e	0.03139054
255	0x3d8a47bb	0.06751963

output.bias f4 [16]
0	0x3d70c579	0.058782075
1	0x3e299e9f	0.16564415
2	0x3e4f0599	0.20216979
3	0x3d39c0ab	0.045349758
4	0xbcb5076b	-0.022098264
5	0xbcb34911	-0.021885427
6	0x39a6a25f	0.00031782963
7	0xbbbc486e	-0.005745939
8	0xbc1c2b45	-0.009531801
9	0x3b7e55b2	0.0038808403
10	0xbc85c0f2	-0.016327355
11	0x3c07bb1a	0.008284355
12	0xbdad7a12	-0.08470549
13	0xbd65419a	-0.055970766
14	0xbd66e6f7	-0.05637261
15	0x3d8d97f9	0.06913752
