temp_morel/pretrained_models2/pretrain_model1.pt (torch, 19487 bytes, 4 tensors)

hidden.weight f4 [128, 18]
00000000: 12f9 203e 264e ebbd ee35 96be c564 e13d
00000010: fccb 143f 4bce 333e d87d ebbe 420c bf3f
00000020: 3ad7 5b3f a27d b33c 540e 533f 2c49 2dbe
00000030: fc3a 073f 2648 bfbc 7166 3e3e d9c3 d93e
00000040: 5c1a 883e ef30 483e 1967 633d 4a47 c83c
00000050: 1ba4 43be ca82 183e dc36 59bd 8182 c13d
00000060: 2a73 aebe 7fb4 783d b97d 3cbe 6616 c33c
00000070: a2a3 8b3e 5b2a 8bbe 0022 bdbd 0fa3 94be
00000080: c1fc 82bd 1454 13be 10cd a7be b8ba ac3d
00000090: 60ee 223e 7ad2 13be e85b bdbd 1a30 923e
000000a0: 8ef0 a53d 7b57 4fbd be1b 94be ad41 203f
000000b0: 3dfd 023e 45cb 353e b99b 1b3f 88d1 26be
000000c0: 29c0 3d3e 9fe0 e1bd dc60 0abe 49a1 31be
000000d0: b240 84bc 0531 0cbe cf1a 6dbc fb36 323d
000000e0: a54b 94be 635e 9a3d 4b86 843e 60b7 373e
000000f0: 1919 2ebf c3e7 1140 7e97 5f3f c8e8 58bd
00000100: b9f2 dd3e 46b2 f6bd 2eaf 533e b12c e43d
00000110: eb5d 8e3d 6c12 a73c 66fb 443e 6f5b b53d
00000120: d18b c7ba 0363 6cbe 7475 723e 4a59 65bc
00000130: 0425 ac3c e478 263e 951d 0ebe 84e9 39bf
00000140: 8d0e 24be 70f6 bbbf cfe8 81c0 93ea 83be
00000150: 15d6 d03f 7630 89be a677 5d3d 2119 5b3e
00000160: 5363 623e c6ab 843e 5282 51be c3c6 933d
00000170: de98 cfbd d3ad 85be abd1 ffbd 3055 55be
00000180: 658b 8ebe 7b53 7bbe 00b1 abbd 353b 27be
00000190: 68e0 873d b6e0 89be a522 9bbd 3118 8dbd
000001a0: 612e 75be ade6 aebd 78fe e33d 5f47 153e
000001b0: 51bc 46be 9075 603e 4503 393e 448c 81be
000001c0: 5cd1 bb3c fcfb 7cbc 5acb 043c 1f65 48bf
000001d0: 05ea 3c3e ab10 b2bf 8b19 bdbf 9927 653d
000001e0: 242f cbbe 2c7d 34be 582f 973e e817 573e
000001f0: d5f1 453e 84af b03e d8ae 47bd 39be b7bc
00000200: 6d00 afbd 345f 213d 49fa 61be fc10 dbbd
00000210: e333 08be 0e17 cebc fbd6 aebd bf03 c8be
00000220: 08d3 72be 8860 14be 68f6 953d 83bb 45be
00000230: df33 3ebe e88c 84be 425d f33d dc83 5d3d
00000240: f985 b73d 2fc4 cc3d e93d 2ebe 863c 65be
00000250: 96f8 90be 4d7d 17bc 30e7 47be 946e babe
00000260: b4d9 c2be f140 63be aeff 2ebe ab7b 7dbe
00000270: 8ed7 bbbb 6777 edbd 4e84 7dbe 6b67 76be
00000280: 4e5b 8dbe 441a c4bd ce4b 5fbe dc01 ab3d
00000290: 63cb e3bd 8393 bfbd ecde 153e b3c6 433d
000002a0: 1863 8d3d e948 043d c1f4 43be 0fb5 e33d
000002b0: cf14 4bbe 9f86 85be 2895 f0bd a7dc 3bbe
000002c0: 6d9b a0be 95ac ebbd 5f1d 243c e8dc 05be
000002d0: f4e7 503e 549c 00bd 11be 3b3e 6812 813d
000002e0: 384b b63d baab 52bd 5f87 973e c4fe 3c3e
000002f0: e3e8 9bbe 7d0d 19bf 70ec 31c0 ef4a 993e
00000300: 48a6 aa3e 4dd3 943d 57de ae3e 0f55 583e
00000310: 3f89 25bd 08e2 9b3e 3c69 5abe ce62 10bd
00000320: 0838 22bd defd 87be f0d7 d3bd 8112 42be
00000330: 1782 1a3c 765f 093e 3da9 a5be 3d2d a23e
00000340: d40a 073e de7d fcbc a243 77be 0ed5 91bd
00000350: 44a6 483c 9d90 693d ef5a 8abe 7841 4e3d
00000360: 5525 27be 2b04 3dbe 1494 ab3c 528c 913d
00000370: 4c5c 7abd 9c9b 9abe 2375 84bc 095b cdbd
00000380: 0e0f 84be 548f c13e 7944 01bc f129 5abc
00000390: 9ca9 a3be 1e94 58bc d1f9 88be 0206 c6be
000003a0: c671 3bbe 9034 a4be ea0a 01be e08c 9e3b
000003b0: 913e 11bd 27d4 0dbc 506e c5be 5241 543d
000003c0: 4c88 723d 186b b5be 62ce 1bbe 4fe0 33be
000003d0: 12b1 83bd e546 c1be 7889 95bc 96a6 98be
000003e0: e2b1 953d e53e c0bd 16e5 4cbe 31c3 81be
000003f0: 6c0d a2bd 684f 653e 86d9 0a3e f8de 493e
0.15720013 -0.11489515 -0.2933802 0.110055484 0.58123755 0.17559163 -0.4599445 1.4925616
0.85875285 0.021910492 0.8244374 -0.16922444 0.5282438 -0.023349833 0.18593766 0.42532232
0.2658261 0.19549917 0.055518243 0.024448056 -0.1910557 0.14893642 -0.053030834 0.0944872
-0.34072238 0.06071901 -0.18407334 0.023814391 0.2727328 -0.27180752 -0.092350006 -0.29030654
-0.06395865 -0.14387542 -0.32773638 0.08434051 0.15911245 -0.14435759 -0.09246045 0.28552324
0.08102523 -0.050620537 -0.28927416 0.62600213 0.12791915 0.17753322 0.6078449 -0.16290867
0.18530335 -0.11029171 -0.13513511 -0.17346682 -0.01614413 -0.13690574 -0.014471724 0.043509465
-0.28963962 0.07537534 0.25883707 0.17941046 -0.68007046 2.2797706 0.87340534 -0.052956372
0.43349245 -0.12045722 0.20672294 0.11141337 0.06951507 0.020394526 0.19236526 0.0885533
-0.0015224164 -0.23084645 0.23677617 -0.013998339 0.021013744 0.16257054 -0.13878472 -0.7262194
-0.16021176 -1.4684582 -4.059669 -0.25764903 1.6315333 -0.26794785 0.054069184 0.21396305
0.22108202 0.25912303 -0.2045987 0.07215645 -0.10136579 -0.2610918 -0.12491163 -0.20833278
-0.27840725 -0.24543564 -0.083833694 -0.1633118 0.06634599 -0.26929253 -0.07574967 -0.0688938
-0.23943473 -0.08540092 0.111325204 0.14578007 -0.19407775 0.21919847 0.18067653 -0.25302327
0.022926979 -0.015440937 0.008105123 -0.782793 0.18448646 -1.3911337 -1.477342 0.055945966
-0.39684403 -0.17625874 0.29528308 0.21005213 0.19330533 0.34508908 -0.04875073 -0.022429572
-0.08545003 0.039397433 -0.22068132 -0.10696599 -0.13301043 -0.025157478 -0.08537098 -0.39065358
-0.23713315 -0.14489949 0.07322389 -0.19309811 -0.18574475 -0.25888753 0.11883022 0.05408083
0.089611 0.099983566 -0.17015804 -0.22386369 -0.28314656 -0.009246183 -0.19521785 -0.3641249
-0.3805672 -0.22192742 -0.17089722 -0.24754207 -0.005732483 -0.1159504 -0.24757501 -0.24062888
-0.27608722 -0.09575322 -0.21806261 0.08349964 -0.11122777 -0.093543075 0.14635819 0.047796916
0.06903666 0.032296095 -0.19136335 0.111185186 -0.19832157 -0.2607927 -0.11747199 -0.18345891
-0.3136858 -0.11507527 0.010016768 -0.1307255 0.20400983 -0.031399086 0.18334223 0.06302339
0.089010656 -0.051433302 0.29595467 0.1845656 -0.30451116 -0.59786206 -2.780056 0.29939982
0.33329988 0.07266865 0.34154007 0.21126197 -0.04041409 0.30445886 -0.21329206 -0.035250477
-0.039604217 -0.26560873 -0.10343921 -0.18952371 0.00943043 0.13415322 -0.3235568 0.3167514
0.13187724 -0.030821737 -0.24146894 -0.07120715 0.012246672 0.05702268 -0.27022502 0.050355405
-0.16322835 -0.18458621 0.020944633 0.07106842 -0.061123177 -0.30196846 -0.016169136 -0.10027129
-0.25792736 0.37804663 -0.00788986 -0.013315664 -0.3196534 -0.013218908 -0.26753095 -0.3867646
-0.1830512 -0.32071352 -0.1260182 0.004838571 -0.03546006 -0.008656538 -0.38560724 0.051820107
0.059212014 -0.3543327 -0.15215448 -0.17566036 -0.06430258 -0.377494 -0.018254027 -0.29814595
0.07309319 -0.09386996 -0.20009264 -0.25344232 -0.07912716 0.22393572 0.13559541 0.19713962

hidden.bias f4 [128]
00000000: aa38 193f 063c 3fbe fda9 49be 8fa0 6f3e
00000010: 73ac 8b3e e0be cabd df8a 753d 52e8 9cbe
00000020: 44d6 eabd 0338 08be 0435 0cbd 42fb a7be
00000030: 2faf e1bd 8504 93be ff89 023e d6c9 0dbe
00000040: b055 c1bd 6fbd a1be f82e 0d3e a167 643d
00000050: 4539 523e b403 0dbe 3f85 1c3f 3cc8 39be
00000060: 5d98 203f 5df2 0d3e de62 15bd 7bfe 873e
00000070: a208 1cbe 06e0 efbd e1f1 89be be90 693d
00000080: 196b cabb 3c50 00bd eda2 78bc f368 ed3c
00000090: 002b 313e 9fcf 4f3e aa9f b03d 756d 5b3d
000000a0: da4f 6f3d fa39 2d3d 1c91 83be b4d8 da3d
000000b0: 8574 8b3c 5909 913c bdb2 263f 73bc c23d
000000c0: 9aa1 333f bf12 82be 2fbd 1bbe 93a9 2abe
000000d0: e195 fb3c 6fee 0abe d01d 043e f222 89bd
000000e0: c92e 343e aa07 6fbd b7ec c83c ff4c 91be
000000f0: 9de8 973e 24e4 103c 72cf b2be 8475 f4bd
00000100: f2ff c23d cf79 3c3e 96c4 3ebd ec17 873d
00000110: feca 243e feb6 8abb 675c 463e 6ddd 3fbe
00000120: 0629 04be 6f63 44be f824 ee3e c5c6 0d3d
00000130: 24f8 773f 0d62 c93e 9070 c3be 5cee 203f
00000140: 1bd7 d9bc e596 783e b6fa 443f 3b38 92bc
00000150: 7639 69be 0017 d1bd 09cf 4dbe 0c5c 3fbe
00000160: 2d44 c9bd 9f95 273e bc83 a9bc 0385 2e3c
00000170: 132c fabc c347 22be 268f 79bd a9cc 0abe
00000180: 9413 7cbe 157b 193e 072a a9bd 4201 1a3f
00000190: d85e 0d3d 844d a63d 88d0 97bd 02a2 6fbe
000001a0: 755c 803b fecf 78be e5e3 c6be 4be9 83bd
000001b0: 0ac1 3b3f 691a 3a3d 57d4 213e 17fc c43d
000001c0: aed5 563d 0721 073f 0575 ecbc 53a3 873d
000001d0: 1a2f f43d 8d36 cebb 1919 53be 748b 8a3e
000001e0: 9a86 573d db29 813e 12c3 283d c68c 9a3e
000001f0: fa38 2d3c 84cc 073f cdf6 70be a10c 373e
0.5985209 -0.18675241 -0.19693752 0.23401092 0.27280006 -0.09899688 0.05994689 -0.30645996
-0.11466649 -0.13302617 -0.034230247 -0.32808882 -0.11019742 -0.28714386 0.12747954 -0.13846526
-0.09440172 -0.3158984 0.13787448 0.05576289 0.20529659 -0.13770944 0.6114082 -0.1814279
0.6273249 0.13861986 -0.03647124 0.2656134 -0.15237668 -0.11712651 -0.2694235 0.057022803
-0.006177318 -0.031326517 -0.015175563 0.028980708 0.1730156 0.20294045 0.086242035 0.053571183
0.05842576 0.04229162 -0.25696647 0.10685864 0.017023334 0.017704653 0.6511648 0.095086
0.7016846 -0.25404927 -0.15208887 -0.1666625 0.030711116 -0.13567518 0.12901998 -0.066961184
0.17595972 -0.05835692 0.024526937 -0.28379056 0.29669657 0.008843455 -0.34923893 -0.11936477
0.09521474 0.18405841 -0.046574198 0.065963596 0.1609306 -0.00423324 0.19371186 -0.18736811
-0.12906274 -0.19178556 0.4651258 0.03461339 0.9686301 0.3933262 -0.38171816 0.6286371
-0.026591828 0.24276312 0.76945055 -0.017849078 -0.22775826 -0.10209465 -0.20098509 -0.18687457
-0.098274566 0.1636567 -0.020692699 0.01065183 -0.030538594 -0.15847687 -0.060927533 -0.13554634
-0.24616843 0.14988358 -0.08259969 0.6015817 0.03451428 0.08120254 -0.07412821 -0.23401645
0.0039172717 -0.24298093 -0.38845745 -0.064409815 0.7334143 0.045435343 0.15803657 0.09618395
0.052449875 0.5278477 -0.028864393 0.066229485 0.119230464 -0.006293124 -0.20615043 0.2705952
0.0526186 0.25227246 0.04120166 0.30185527 0.010572666 0.5304644 -0.23531647 0.17875911

output.weight f4 [16, 128]
00000000: 4fa9 073e 95c5 ba3c 32d4 363e aa39 0f3e
00000010: 2bbf 90bc 15d2 8c3d 6b32 9bbd 1734 893c
00000020: 8f77 453b 499a 59bc 5e70 a7bb 45b1 7b3d
00000030: aae4 e1bb 2f93 8f3d 4f07 84bc 61fb 663d
00000040: f384 b13d 372d cd3d 1426 45bd 7c3b 463d
00000050: 762f d73c 464e 843d 6466 663e 6bc9 983d
00000060: 41a7 ae3e c371 dd3d 443d a63c 91e6 d9bc
00000070: bcde a03c cac2 2c3e 91ce fdbc 85df a63d
00000080: 5f16 453e 05de 9e3d fd67 a63d c721 933d
00000090: e83b d83d adb2 8a3d 99e8 863c 1a52 c73c
000000a0: 6c62 a4bc b572 873d d37f 4d3c 13ca 073d
000000b0: 14e2 e43c 4811 c83d 6602 3f3e 62b7 473d
000000c0: 5879 4c3e c224 a13c f7bd 8fbd 753c 9d3d
000000d0: 1205 ccbb 82e1 033d b1d7 ae3d f22e 103e
000000e0: 5851 173d 163b 943d 7eeb debb 1d69 a73b
000000f0: 58c9 813d 24cf 973c bfe9 30bc 8b9b 1bbd
00000100: 7eae b03c 295f cc3d 2474 b6bb 13ea a43c
00000110: 0afb c23d f77b ec3d 39ba 6d3d ba45 ad3d
00000120: 8c08 0d3e b45b 0b3c 422d 6c3e ad15 2f3e
00000130: 5fe9 8f3e a644 553f 9d32 82be 3d5e 483e
00000140: 433a c43d 67b5 1c3d d0b8 553e 6537 1c3d
00000150: ac70 0bbd 4cbc 953d 14e3 943c 56cb 2d3d
00000160: 5a51 913d e89b 91bc 4cdc 113d 13c4 7dbd
00000170: 7f5e ac3d d925 c33d 7109 28bd 3172 adbd
00000180: c013 4a3c de40 373d 6e57 563e 68bb 353e
00000190: 1efd 4d3d 3e16 423d 1dad 3c3e ce74 b1bd
000001a0: 4ed4 e2bc dc9b e53c 2f89 de3d 7ba5 a43d
000001b0: aa9e 293e 5d43 e13c c987 af3b 9b65 af3d
000001c0: 7407 763d e366 883e 1609 413c 72fd 4bbc
000001d0: 83fa 443d b48e 94bc 218c 273e c7b0 7b3d
000001e0: dfcc 4e3a a2dc 483d ae9e 79bc 853d d23d
000001f0: 0f98 373c 0701 dd3d 853a 623c fec4 babc
00000200: 9e23 073e abf7 113e b02b ef3d c5f4 85bb
00000210: 82c8 82bd 0395 d33d fb54 0d3d f256 d6bb
00000220: 2ec0 8b3d efcf 723d 15bd 863c bbcc 313e
00000230: e8e3 ed3d 6053 853c 4dcb f73d f0d9 043c
00000240: 3207 893d 72e7 1a3d 285e a33d 46c7 b43d
00000250: 786b 0a3d 4a88 043f 268b 883e e96f a8bd
00000260: b46e 3dbd e45e 8c3c 8d4d 813d 58ca 81bd
00000270: 98c2 9e3d 9da2 1a3e 37df 333d 6e9d 103e
00000280: b80e 4b3d 03e2 b0bd 64f3 e53c 3a59 0f3d
00000290: 65cf 333d 9340 f83d 162c a4bc 85d2 a43b
000002a0: 0b57 213e 2d74 ac3d 9ecc 1a3b ce4b 913d
000002b0: 0962 063d d8a2 06bd c851 c63e e64f 853d
000002c0: a67a c43d 14f6 61be 4f36 8ebd e473 8d3c
000002d0: ad74 983d a4ee 08bb 54dd c23d 8330 763d
000002e0: d8ed d53d c32d 203e e05c 833d 87c4 003e
000002f0: 24a1 003e 272e e13d ef71 e03d e5d7 9fbc
00000300: 16a4 503b 66e0 0f3e 23eb 0d3d 7bd3 0c3e
00000310: e2c1 86bc da50 153c 98c0 b13d bcfc 9c3d
00000320: a4ea 133d 5cd2 b33d 0518 c63d 1f54 2bbd
00000330: 402b a83e 69f8 ccbe eb20 28bf 33e8 1c3e
00000340: 9a4c 583d a2ba 973d 6a8b 193f 4c39 0ebd
00000350: 0431 5abc 0940 bd3d f3c3 a0bc be02 9e3b
00000360: d9c9 ec3c d121 62bd 6722 073c c1bb 27bd
00000370: 28a9 78bc c047 403d ee80 9abd 4e9d a0bd
00000380: 374f 423e 7717 cdbc 0ed5 05bd 10dd 083f
00000390: 4603 933c bfc5 7e3d 9b61 093d 9efc b4bd
000003a0: 6544 933d 13c2 6a3b ac61 2bbf be23 ac3b
000003b0: 6851 813e e484 a33d 2e90 0f3e 5b91 9b3d
000003c0: 07a3 873d cfbc d73d 9d59 1b3e 55d0 df3d
000003d0: 0f39 f13c 4857 223d 41e6 db3e 5219 23bc
000003e0: bc3a ffbc 6586 7f3d 59ef 003d b637 0dbb
000003f0: 856a 063c 0c29 f23e 7e30 aa3c e6ea 8e3d
0.1324818 0.022799293 0.17854384 0.13986841 -0.017669281 0.068760075 -0.07577976 0.016748471
0.0030131077 -0.013281413 -0.0051098308 0.061448354 -0.006893714 0.07010495 -0.016116766 0.056392077
0.08667936 0.1001839 -0.048132017 0.048396572 0.026267748 0.06460242 0.22499996 0.074602924
0.3411198 0.10812714 0.020292886 -0.0265992 0.019637458 0.16871181 -0.030982288 0.08148102
0.19246815 0.077571906 0.08125303 0.07184177 0.10558301 0.06772361 0.016468333 0.024331141
-0.020066462 0.066136755 0.012542683 0.033151697 0.027939834 0.09768921 0.18653259 0.04875887
0.19968164 0.019670848 -0.07018655 0.07677547 -0.0062261904 0.032197483 0.085372336 0.14080408
0.03694281 0.07237832 -0.006802975 0.005108966 0.063372314 0.01853139 -0.010797917 -0.037990134
0.02156758 0.09979088 -0.0055680443 0.020131147 0.09520538 0.11547082 0.058038924 0.08460565
0.13772792 0.00850575 0.2306414 0.17098112 0.28107736 0.83307874 -0.2542924 0.19567199
0.09581425 0.038258936 0.20871282 0.038138766 -0.034043 0.073113054 0.018174686 0.042430244
0.07095595 -0.017774537 0.035610482 -0.06195457 0.08416461 0.09528703 -0.04102463 -0.08469046
0.01233381 0.044739597 0.2093179 0.17747271 0.05029022 0.047384493 0.18425412 -0.08664857
-0.027689125 0.028028421 0.108660094 0.080393754 0.16564432 0.027497942 0.005356763 0.085643016
0.0600657 0.26640996 0.011781951 -0.012450563 0.04809047 -0.018134452 0.16362049 0.061447885
0.00078888045 0.049038537 -0.015235586 0.1026564 0.011205687 0.107912116 0.013807897 -0.022799011
0.1319718 0.14254634 0.116782546 -0.0040880167 -0.063859 0.10331156 0.03450487 -0.0065411264
0.06823765 0.059280332 0.016447583 0.17363255 0.11615735 0.016275108 0.120993234 0.008108601
0.066908255 0.03781838 0.07976943 0.08827071 0.033793896 0.5177046 0.26668662 -0.0822447
-0.046248153 0.017135091 0.0631362 -0.06337422 0.077519596 0.15101095 0.043914046 0.14122555
0.049574584 -0.08636858 0.02807016 0.034997202 0.04389896 0.121216916 -0.020040553 0.0050299787
0.1575586 0.08420596 0.0023620497 0.07094537 0.032808337 -0.032870144 0.3873427 0.0650938
0.09593706 -0.22066528 -0.06943952 0.017267175 0.07444129 -0.0020894194 0.09514871 0.060104858
0.10445756 0.15642457 0.06414199 0.12574969 0.1256147 0.10995131 0.10959231 -0.019512126
0.0031836084 0.14050445 0.034648072 0.13752548 -0.016449872 0.009113515 0.086793125 0.07665393
0.036112443 0.08780357 0.0967255 -0.04182827 0.32845497 -0.40033272 -0.6567523 0.15322952
0.052807428 0.07408644 0.59978354 -0.03472261 -0.01331735 0.09240729 -0.019624686 0.0048221042
0.028904842 -0.05520803 0.008247948 -0.04095054 -0.015177049 0.046943426 -0.07544123 -0.078425035
0.1897553 -0.025035603 -0.032673888 0.53462315 0.017945897 0.062200304 0.03354035 -0.088372454
0.071907796 0.0035821244 -0.6694591 0.0052532842 0.2525742 0.07984331 0.14019844 0.07596084
0.06622892 0.10534059 0.15170904 0.10928408 0.029446153 0.03963402 0.42949107 -0.009954767
-0.031155936 0.062384028 0.03147826 -0.00215481 0.008204107 0.4729694 0.020775076 0.06978397

output.bias f4 [16]
00000000: 29ff 043e e06c 223e 9ccb c23d dff0 5abd
00000010: 8a0c 603d ce5d 533c 39d6 7dbd 4074 4abd
00000020: 1c76 053d e57f 0b3d 3f3d 00bd 2025 11bd
00000030: f069 673d a175 1a3d d82a 2fbd 68b8 43bd
0.12987961 0.15861845 0.09511492 -0.05345237 0.05469946 0.012900783 -0.061971877 -0.04942727
0.03258334 0.034057517 -0.03130841 -0.035435796 0.056497514 0.037709836 -0.04276547 -0.047783285
