temp_morel/pretrained_models2/pretrain_model8.pt (torch, 19487 bytes, 4 tensors)

hidden.weight f4 [128, 18]
-0.24823435 0.24650805 0.19608106 0.34853914 -0.11131171 -0.0638704 0.43199316 0.7289278
-0.49211785 1.0767225 2.6747513 0.29080144 -2.2339864 0.2195976 -0.060592502 0.08071378
0.103840694 -0.024826175 0.0713368 0.08192795 0.07582678 0.28567588 0.101657994 0.2780586
0.33231494 1.3909087 0.114948004 1.2039853 1.6035765 0.014918342 -1.7605908 0.39819932
0.07667256 0.27619296 -0.062465012 0.15120314 0.005182264 0.002848818 -0.13183886 -0.044161186
0.13063155 -0.01767785 -0.15442082 0.15851225 -0.14129677 0.074589275 0.041644093 0.17449014
-0.07599644 -0.18386953 0.0884965 -0.079136804 0.17798536 -0.09915212 -0.21159051 -0.086701125
-0.012050063 -0.23601967 0.010174268 -0.04655012 -0.057107676 -0.12655391 -0.27999663 -0.15545551
-0.08916884 0.098090604 -0.121630654 -0.18910176 -0.32026854 -0.042952377 -0.016849363 -0.2531024
0.18450224 -0.010644474 0.2568441 0.4045536 -0.07793903 0.35165903 0.0013320933 0.79816264
0.31778672 -0.624092 -2.35968 0.26175234 -0.6205587 0.35398877 -0.022380939 -0.012901087
0.0094550215 -0.13999498 0.3117925 -0.1855087 -0.11037218 0.41702163 0.37584668 0.022936903
-0.3773764 1.5836425 0.8022853 -0.0069001173 1.0288235 0.18880433 0.54215455 -0.3044063
0.048391882 -0.036693513 0.19298944 -0.05404935 -0.18392426 -0.1936843 -0.22019506 0.046047457
0.0490254 0.09998026 0.083443284 -0.13230741 -0.14061119 0.03843253 0.024649689 -0.07641058
-0.053701606 -0.052434668 0.03939453 -0.0349538 -0.22063223 -0.30564335 -0.07243973 0.19951881
0.29360068 0.26848927 0.2988064 0.16951856 0.1564804 0.889943 -0.35614964 -0.6107149
-1.23534 -0.006671946 -1.5555911 0.40106386 0.23249957 -0.08275057 0.0076347184 0.20865214
0.20195034 0.16883902 0.15129375 0.1223995 0.30624384 -0.032448642 0.42809877 1.3063353
-0.35800415 0.5814051 0.31857157 0.44342348 -1.9417135 0.29830727 -0.13016117 0.023355983
-0.18954304 -0.007479701 -0.07117907 0.22677617 0.21115203 0.3484345 0.038206566 -0.13240562
0.572836 0.7917525 -0.6305792 -0.19696045 2.2193606 0.02498914 -2.1058424 0.4390156
-0.12846166 -0.025967576 -0.22383478 -0.095763676 -0.096402176 0.01088845 0.1304298 0.24883768
-0.023914441 0.09450485 -0.092228964 -0.41843376 0.40906528 -0.9216191 -2.6347945 0.30635357
0.8098207 -0.08419374 0.10056018 0.12722223 0.035704754 -0.08364794 0.11094013 0.021465402
0.09750212 0.53678316 0.17666793 -0.09027703 -0.083863005 1.2524799 0.7082665 -0.31958973
-2.1144695 0.26138014 0.9956743 0.30848265 0.29526716 0.11335052 0.20601207 0.2184548
0.079252176 -0.2031153 -0.23524019 0.0057900497 -0.16886099 0.14650112 -0.025633657 -0.12758695
0.17282073 0.19112048 0.036193043 0.05274414 0.12008548 -0.15477207 -0.15280573 -0.029394673
-0.21319719 0.21071418 0.039944943 -0.28960705 -0.09293527 0.23324393 0.30111688 0.1585729
-1.0448575 1.4458823 0.8201105 0.472074 0.37370157 -0.17093968 0.43224537 0.24745703
0.34868318 0.5610676 0.39206842 0.5980087 0.06992734 0.028566465 -0.21621644 0.10424092
00000000: 2531 7ebe 9b6c 7c3e 79c9 483e b973 b23e
00000010: 65f7 e3bd 7cce 82bd 352e dd3e 039b 3a3f
00000020: dff6 fbbe 0bd2 893f 202f 2b40 ede3 943e
00000030: a2f9 0ec0 31de 603e d82f 78bd 444d a53d
00000040: 6eaa d43d 4360 cbbc 0719 923d d7c9 a73d
00000050: 124b 9b3d 1c44 923e 1132 d03d b25d 8e3e
00000060: 2f25 aa3e 4c09 b23f dc69 eb3d 311c 9a3f
00000070: ff41 cd3f 106c 743c 0a5b e1bf c8e0 cb3e
00000080: 8106 9d3d 2a69 8d3e 50db 7fbd ffd4 1a3e
00000090: fbcf a93b 3cb3 3a3b c400 07be 5ce2 34bd
000000a0: 47c4 053e 23d1 90bc 7e20 1ebe 0951 223e
000000b0: 1ab0 10be 43c2 983d ff92 2a3d 8bad 323e
000000c0: 06a4 9bbd 4b48 3cbe a73d b53d 7a12 a2bd
000000d0: cb41 363e 4410 cbbd 2fab 58be 5c90 b1bd
000000e0: a16d 45bc 24af 71be f9b1 263c 57ab 3ebd
000000f0: bde9 69bd 5997 01be b85b 8fbe bb2f 1fbe
00000100: 279e b6bd bae3 c83d 7e19 f9bd e4a3 41be
00000110: 3dfa a3be d5ee 2fbd ad07 8abc a396 81be
00000120: 28ee 3c3e 2966 2ebc 1281 833e a621 cf3e
00000130: 809e 9fbd a70c b43e a299 ae3a 6354 4c3f
00000140: f1b4 a23e 7ec4 1fbf ff04 17c0 6704 863e
00000150: efdc 1ebf 043e b53e 3b58 b7bc 155f 53bc
00000160: 3ce9 1a3c d85a 0fbe 44a3 9f3e fef5 3dbe
00000170: cf0a e2bd dc83 d53e fa6e c03e 2ce6 bb3c
00000180: 7b37 c1be ccb4 ca3f 9262 4d3f 611a e2bb
00000190: 7db0 833f ec55 413e a4ca 0a3f 24db 9bbe
000001a0: 9136 463d f04b 16bd 069f 453e da62 5dbd
000001b0: a456 3cbe 2d55 46be d07a 61be 429c 3c3d
000001c0: dcce 483d 73c2 cc3d 50e4 aa3d 987b 07be
000001d0: 61fc 0fbe 6e6b 1d3d 25ee c93c 267d 9cbd
000001e0: 37f6 5bbd bcc5 56bd 295c 213d b72b 0fbd
000001f0: 6aed 61be 497d 9cbe 485b 94bd a94e 4c3e
00000200: d452 963e 6d77 893e 27fd 983e 4696 2d3e
00000210: 663c 203e 4ed3 633f 3f59 b6be d057 1cbf
00000220: 9f1f 9ebf 57a0 dabb 9c1d c7bf 3e58 cd3e
00000230: 5e14 6e3e 2179 a9bd a92c fa3b e8a8 553e
00000240: 12cc 4e3e 23e4 2c3e c0ec 1a3e 97ac fa3d
00000250: fecb 9c3e dee8 04bd c32f db3e ff35 a73f
00000260: 524c b7be f7d6 143f d01b a33e 6708 e33e
00000270: 118a f8bf bbbb 983e f848 05be 0c55 bf3c
00000280: 9217 42be 4818 f5bb 55c6 91bd 0338 683e
00000290: 3d38 583e 0266 b23e 7d7e 1c3d 5795 07be
000002a0: 61a5 123f 4bb0 4a3f a36d 21bf 00b0 49be
000002b0: 010a 0e40 06b6 cc3c 1fc6 06c0 a7c6 e03e
000002c0: 748b 03be f4b9 d4bc f234 65be bf1f c4bd
000002d0: 816e c5bd 7865 323c 648f 053e 4ecf 7e3e
000002e0: 38e8 c3bc c28b c13d 8ae2 bcbd f33c d6be
000002f0: 0171 d13e 3bef 6bbf 79a0 28c0 60da 9c3e
00000300: 6950 4f3f c46d acbd 7ff2 cd3d 8b46 023e
00000310: 263f 123d 9c4f abbd 9434 e33d 36d8 af3c
00000320: 31af c73d 9f6a 093f 70e8 343e 2ae3 b8bd
00000330: 5ec0 abbd 4351 a03f f450 353f 44a1 a3be
00000340: 7853 07c0 9ed3 853e 83e4 7e3f 70f1 9d3e
00000350: 422d 973e 5124 e83d d4f4 523e 9db2 5f3e
00000360: f74e a23d 75fd 4fbe cee2 70be 75ba bd3b
00000370: e5e9 2cbe 6404 163e adfd d1bc 27a6 02be
00000380: ebf7 303e 16b5 433e 283f 143d 3d0a 583d
00000390: 60ef f53d 927c 1ebe 1b79 1cbe 19cd f0bc
000003a0: 5d50 5abe 75c5 573e 4f9d 233d 6047 94be
000003b0: d954 bebd 7fd7 6e3e fe2b 9a3e ef60 223e
000003c0: e4bd 85bf ac12 b93f c3f2 513f afb3 f13e
000003d0: d055 bf3e d00a 2fbe 444f dd3e 6065 7d3e
000003e0: 9a86 b23e 20a2 0f3f 31bd c83e 1917 193f
000003f0: 1136 8f3d 3804 ea3c d867 5dbe 437c d53d

hidden.bias f4 [128]
0.16161628 -0.005633565 -0.017321512 -0.3288723 0.09281132 0.18666562 0.07352053 0.13749804
-0.03420543 0.087965176 0.15279038 0.23797916 -0.08309892 0.34774768 0.251534 -0.060464583
0.1208468 -0.20304272 -0.21854435 -0.27142012 -0.11634157 -0.012130616 -0.100059986 0.026034895
0.43065813 0.06731107 -0.23012185 0.25412622 -0.09254561 0.27460507 0.2748976 -0.13300866
-0.020142436 0.18229106 0.05226581 -0.2368798 -0.06458628 -0.115111314 -0.031697553 0.58481705
-0.0041925386 0.093978085 -0.061438065 -0.100057125 0.033578556 0.018902035 -0.15678634 -0.09598895
-0.28429174 0.10850948 -0.20723113 -0.066535726 0.016858319 0.111268535 -0.090304434 0.040766567
-0.02797382 -0.038333256 0.06277869 -0.15650631 -0.17314106 0.23099634 0.01564564 -0.029853165
0.022609165 0.23835662 0.14952399 -0.03096944 0.08284417 -0.16969119 -0.21124117 0.046534136
0.011466825 0.35665372 0.14245592 -0.04885112 0.72500974 0.16898724 -0.05723762 0.16394722
-0.03801832 -0.06912218 0.16876231 -0.11540265 -0.12029666 -0.13297594 0.05538956 0.16940872
0.22463222 0.117948465 0.054878205 0.30192995 0.19486958 0.054768853 -0.31584805 -0.024921944
0.13791609 0.116609156 0.091508776 -0.15403783 0.06132577 0.13371302 0.25480348 0.11635041
0.11180901 0.7085146 -0.22633897 0.096371636 0.20122609 0.12521817 0.10210572 -0.09815004
0.05049492 0.22814272 0.09497362 -0.110529095 0.18041077 0.2620473 0.0008264002 0.06078036
-0.03872866 0.20459881 -0.24656332 0.103606686 0.014264547 0.24930918 0.1622955 0.23716731
00000000: bd7e 253e c599 b8bb d8e5 8dbc f361 a8be
00000010: dd13 be3d 4625 3f3e ee91 963d 49cc 0c3e
00000020: fe1a 0cbd 1627 b43d 1575 1c3e cfb0 733e
00000030: c42f aabd fc0b b23e 10c9 803e b6a9 77bd
00000040: 877e f73d 6eea 4fbe 17ca 5fbe 94f7 8abe
00000050: 7d44 eebd 7ebf 46bc 40ec ccbd 2247 d53c
00000060: 397f dc3e 63da 893d 10a5 6bbe d51c 823e
00000070: 8e88 bdbd 0999 8c3e 61bf 8c3e 6c33 08be
00000080: c001 a5bc 82aa 3a3e ad14 563d 9e90 72be
00000090: d045 84bd 7bbf ebbd 4bd5 01bd 92b6 153f
000000a0: 9061 89bb 9577 c03d 7ba6 7bbd c0ea ccbd
000000b0: ab89 093d 71d8 9a3c 998c 20be db95 c4bd
000000c0: b08e 91be 383a de3d 6634 54be e243 88bd
000000d0: 751a 8a3c c2e0 e33d 88f1 b8bd d8fa 263d
000000e0: 5a29 e5bc 5503 1dbd 1d92 803d 3143 20be
000000f0: e44b 31be 4e8a 6c3e 492b 803c a08e f4bc
00000100: db36 b93c c213 743e d11c 193e 9fb3 fdbc
00000110: 34aa a93d 87c3 2dbe 9b4f 58be 949a 3e3d
00000120: 5adf 3b3c 519b b63e f7df 113e 1d18 48bd
00000130: 3d9a 393f fe0a 2d3e ff71 6abd c8e1 273e
00000140: 19b9 1bbd ee8f 8dbd 07d0 2c3e 3958 ecbd
00000150: 185e f6bd d82a 08be 2ae0 623d 7b79 2d3e
00000160: fd05 663e f78e f13d f8c7 603d 9096 9a3e
00000170: e48b 473e 4e55 603d d6b6 a1be 1b29 ccbc
00000180: e039 0d3e c8d0 ee3d f468 bb3d 18bc 1dbe
00000190: bb30 7b3d 11ec 083e 9a75 823e 2049 ee3d
000001a0: 1ffc e43d 3661 353f 67c5 67be 7e5e c53d
000001b0: 360e 4e3e 3139 003e ce1c d13d e302 c9bd
000001c0: c3d3 4e3d 3f9e 693e 8781 c23d 145d e2bd
000001d0: 9abd 383e 102b 863e c7a2 583a d4f4 783d
000001e0: f2a1 1ebd 5a82 513e 187b 7cbe be2f d43d
000001f0: d9b5 693c e84a 7f3e cb30 263e fddb 723e

output.weight f4 [16, 128]
0.0074273096 0.09540504 0.08794202 0.023183292 0.06135218 0.28637394 0.0047838893 0.029719295
0.071052365 -0.02282332 0.016162507 0.102301694 -0.05040525 0.16664901 0.15596385 -0.07621295
0.1084023 0.080040224 0.032221712 0.02934678 0.049150612 0.07802626 0.10046602 -0.06828518
0.04520372 0.05713727 -0.07013062 0.07508355 0.0762439 -0.07003069 0.011654885 0.04410438
0.0683421 0.0121183125 -0.01757679 0.07610609 -0.02385885 -0.023128025 0.027063815 0.39696506
-0.02526666 0.109490186 -0.040482886 -0.05801504 0.008933788 0.02027752 -0.0361199 -0.002118251
0.08095913 0.07343006 -0.109482594 0.038379416 0.12570377 0.0080613755 0.094414875 0.00069032324
0.029012984 0.06483375 0.37022275 -0.0009654789 0.0783548 0.021885695 0.012631062 0.033006243
0.09954911 0.117672935 0.076544054 0.09273433 -0.04504111 0.019522367 0.06433763 0.028436007
0.15426992 0.25251785 0.18570141 0.078789525 0.28570947 -0.035074737 -0.029295651 0.03683255
0.08675474 0.08217291 -0.023461588 0.08478466 -0.06103853 0.054476004 0.08043068 0.056772742
0.08640706 -0.044490796 -0.02247861 0.017576778 -0.04690099 -0.0313526 0.20668298 0.056610137
-0.03332228 0.015635068 -0.010741796 0.095873065 0.009484071 0.0883172 -0.034404058 0.049386855
-0.10608702 0.36316937 0.03950208 -0.013096278 0.038312696 -0.003609888 0.089261696 -0.017451683
0.045128826 0.028783385 -0.03748392 0.06573327 0.07661446 0.07068274 0.057257302 0.09625727
0.030758685 0.04393599 0.049572196 0.07519661 0.06647297 0.52906084 -0.0012884483 0.08665363
0.16725674 0.12404755 -0.035160966 0.092027545 0.023866227 0.4605592 0.030231196 0.088636175
0.14152004 0.15856607 -0.035262402 -0.03085956 -0.028120618 0.28667223 -0.0015669926 0.69776666
-0.16554524 0.09242899 0.108711354 0.00815934 0.04719247 0.031682014 0.041113384 0.0036734666
0.2889661 0.031102646 -0.11138688 -0.103742145 0.054614212 0.012149977 0.17883499 -0.05009489
0.058835857 0.12918057 0.05097765 0.015111474 0.0046941666 -0.11847032 0.09763344 0.50083613
-0.06217753 0.08222578 0.12435642 -0.00084238907 -0.03651567 0.065428995 -0.0019197784 -0.04346976
0.0233717 0.10512161 0.019248487 0.098255366 0.055959333 0.1279497 0.04886314 -0.035796054
0.025154429 -0.02226576 0.34140614 0.050486613 -0.058389883 0.0593063 0.0066020507 0.005484653
-0.03906562 -0.1155637 0.05000506 0.08464909 -0.009013433 -0.022589551 0.058528755 -0.0057098437
0.071443625 0.033276517 0.1612416 0.038098905 0.12724142 -0.050486058 -0.06951307 0.101646595
0.02666025 0.088130556 -0.007396121 0.11764217 0.043375112 0.08415295 0.030542469 0.005098399
-0.04458949 0.12515607 0.017958457 -0.022140525 0.042644583 -0.13669872 -0.64773506 0.078077175
0.12865874 0.06423463 0.1148285 0.05162439 0.108377345 -0.03655831 0.11496059 -0.055944096
0.015508372 0.3933386 0.0637016 -0.067223154 0.018160887 0.04577192 0.015385501 -0.15414241
0.16500206 0.008431813 0.025835581 -0.022403985 0.038208697 0.025254814 0.12908766 -0.0025881457
0.004442849 0.058218125 0.08590147 0.059583955 0.10578708 -0.67800593 0.06836089 0.062344275
00000000: ca60 f33b b863 c33d f21a b43d e3ea bd3c
00000010: 6c4c 7b3d 9b9f 923e 2cc2 9c3b e175 f33c
00000020: e783 913d f9f7 babc 3c67 843c 8d83 d13d
00000030: bc75 4ebd 0aa6 2a3e fdb4 1f3e 8915 9cbd
00000040: 0602 de3d 21ec a33d eafa 033d a968 f03c
00000050: 2752 493d 3bcc 9f3d 21c1 cd3d 1ad9 8bbd
00000060: 8927 393d c508 6a3d a4a0 8fbd 67c5 993d
00000070: c325 9c3d 406c 8fbd 21f4 3e3c cba6 343d
00000080: f1f6 8b3d e38b 463c 33fd 8fbc 82dd 9b3d
00000090: a373 c3bc fc76 bdbc efb4 dd3c 013f cb3e
000000a0: 07fc cebc 643c e03d 62d1 25bd 2ea1 6dbd
000000b0: 065f 123c 0b1d a63c 76f2 13bd 5bd2 0abb
000000c0: e6cd a53d 8062 963d 6938 e0bd bc33 1d3d
000000d0: 7db8 003e dc13 043c 965c c13d cff6 343a
000000e0: a3ac ed3c 8fc7 843d d68d bd3e 3118 7dba
000000f0: 7b78 a03d a149 b33c 84f2 4e3c 8e31 073d
00000100: 67e0 cb3d 82fe f03d 21c3 9c3d 7feb bd3d
00000110: 077d 38bd 5fed 9f3c 73c3 833d a1f2 e83c
00000120: eff8 1d3e 054a 813e 8328 3e3e 675c a13d
00000130: 8348 923e 87aa 0fbd 6ffd efbc badd 163d
00000140: 78ac b13d 454a a83d 8432 c0bc 94a3 ad3d
00000150: 8a03 7abd 3b22 5f3d d7b8 a43d 898a 683d
00000160: 2ff6 b03d fb3b 36bd 1025 b8bc 2dfd 8f3c
00000170: 411b 40bd 956b 00bd b4a4 533e 08e0 673d
00000180: f17c 08bd 1d15 803c 5cfe 2fbc 1959 c43d
00000190: 1463 1b3c a6df b43d 45eb 0cbd df49 4a3d
000001a0: 2744 d9bd 56f1 b93e efcc 213d c591 56bc
000001b0: c6ed 1c3d df93 6cbb d6ce b63d d5f6 8ebc
000001c0: 01d9 383d 22cb eb3c bd88 19bd 2a9f 863d
000001d0: 0be8 9c3d 1dc2 903d a286 6a3d 8822 c53d
000001e0: a3f9 fb3c 3af6 333d 370c 4b3d ae00 9a3d
000001f0: fb22 883d 8870 073f 27e1 a8ba 7577 b13d
00000200: 5a45 2b3e a40c fe3d f204 10bd f078 bc3d
00000210: 1b83 c33c 6ace eb3e 6aa7 f73c e286 b53d
00000220: a1ea 103e 255f 223e 4f6f 10bd 30cd fcbc
00000230: 365d e6bc b4c6 923e 8c63 cdba d6a0 323f
00000240: b184 29be 694b bd3d 0fa4 de3d c1ae 053c
00000250: e44c 413d 00c5 013d 8266 283d 8bbe 703b
00000260: 5df3 933e faca fe3c ce1e e4bd c376 d4bd
00000270: 27b3 5f3d b210 473c 8520 373e 4d30 4dbd
00000280: defd 703d e947 043e f1cd 503d 1e96 773c
00000290: 86d1 993b 91a0 f2bd 0af4 c73d cc36 003f
000002a0: dead 7ebd fd65 a83d 94ae fe3d c6d3 5cba
000002b0: 7591 15bd a3ff 853d 13a1 fbba 590d 32bd
000002c0: 0276 bf3c 004a d73d 01af 9d3c 1c3a c93d
000002d0: 9d35 653d 3f05 033e b724 483d e29e 12bd
000002e0: a910 ce3c af66 b6bc c9cc ae3e 0dcb 4e3d
000002f0: 3b2a 6fbd 2aeb 723d 0456 d83b 9bb8 b33b
00000300: 4603 20bd a9ac ecbd 1bd2 4c3d 815c ad3d
00000310: 14ad 13bc b90d b9bc d9bb 6f3d a419 bbbb
00000320: 0951 923d f54c 083d 851c 253e 990d 1c3d
00000330: 934b 023e 78ca 4ebd de5c 8ebd 172c d03d
00000340: 9966 da3c cb7d b43d 295b f2bb 61ee f03d
00000350: 1aaa 313d 6258 ac3d 3334 fa3c 7810 a73b
00000360: 78a3 36bd ea28 003e 9d1d 933c 0c60 b5bc
00000370: 16ac 2e3d c0fa 0bbe f7d1 25bf ede6 9f3d
00000380: 1ebf 033e 728d 833d 342b eb3d 1974 533d
00000390: f1f4 dd3d 2bbe 15bd 7570 eb3d a325 65bd
000003a0: d416 7e3c ad63 c93e fc75 823d 4bac 89bd
000003b0: 24c6 943c 567b 3b3d 7813 7c3c 82d7 1dbe
000003c0: 4df6 283e 9625 0a3c 24a5 d33c 9088 b7bc
000003d0: b980 1c3d 2fe3 ce3c 8e2f 043e e19d 29bb
000003e0: 5295 913b 2176 6e3d 1ced af3d 4e0e 743d
000003f0: e6a6 d83d cc91 2dbf cb00 8c3d b65c 7f3d

output.bias f4 [16]
0.15831421 0.123380005 0.06892138 -0.015489779 0.051619142 0.0008680034 0.012819736 -0.0051073255
-0.07389397 0.07594531 -0.0029152243 0.065224685 -0.0055083446 0.10049126 0.026068252 -0.04747487
00000000: 1f1d 223e a8ae fc3d a726 8d3d d8c8 7dbc
00000010: 986e 533d b98a 633a df09 523c 5a5b a7bb
00000020: b955 97bd 3789 9b3d 590d 3fbb 8594 853d
00000030: 587f b4bb 5dce cd3d 168d d53c 0275 42bd
