temp_morel/pretrained_models2/pretrain_model5.pt (torch, 19487 bytes, 4 tensors)

hidden.weight f4 [128, 18]
0.025520975 -0.06982409 0.20502399 0.3641988 0.30795488 0.29424143 0.4768654 0.36746708
0.15808439 0.013566566 -0.8877011 0.31399184 -1.1544627 0.178203 -0.04459662 0.13886847
0.08722002 0.13547668 -0.048933316 -0.24717486 0.052424427 -0.10251178 -0.059596397 -0.31839517
0.054685418 -0.28360093 0.05433404 0.2189581 -0.15017603 -0.07493381 0.024916084 -0.02803552
0.045747202 -0.08199586 0.08943758 -0.23056531 -0.17710848 0.08028659 0.26544833 0.3921423
0.25995415 0.20113926 0.56656253 1.6688862 0.12364921 0.33251292 0.24183977 0.33500186
-1.7632729 0.14486344 0.22935453 -0.015057187 0.17539494 0.27137274 0.21386494 0.11481743
0.20991246 0.333317 0.32164347 -0.10237119 0.30033112 0.7169503 -0.07828135 -0.2271954
-2.1337168 0.19327337 -0.41155908 0.37074012 -0.0251686 0.06875869 0.2395639 0.24899848
0.116087176 -0.22881855 -0.09173978 -0.13286072 -0.0836266 -0.1619398 0.15455835 0.20017555
0.0115581555 -0.19614688 0.04645569 0.0025226856 -0.18445437 -0.057059947 0.03803149 0.15793453
0.018365208 -0.19405876 -0.07109864 0.11819446 -0.1814516 -0.15339348 0.19896302 0.017340787
-0.1548907 0.14550224 0.21346693 -0.23211382 0.21101652 -0.024270404 -0.015942972 0.13212386
0.06843139 0.0011861247 0.14331302 0.23124447 0.029467234 -0.084060565 -0.082861975 0.081279755
-0.025501022 -0.19526921 -0.26924282 0.19296499 0.15481034 -0.017997911 0.35881767 -0.18106468
-0.047850307 -0.012693013 0.033791546 -0.25895733 -0.016708884 -0.10311417 0.019236548 -0.0016430044
0.020375304 0.13025975 0.1248693 0.22178678 0.52905774 1.6410834 0.20331062 1.3030721
-0.39886522 0.102671064 -1.9984844 0.29456428 -0.09438869 0.14850157 -0.12162909 -0.09693778
-0.08911785 0.035480298 -0.11816491 -0.22297622 -0.06077433 0.13432899 0.15612066 0.043286897
0.19168355 0.123504244 -0.05196411 -0.21894921 0.22551164 -0.28306568 0.10237361 -0.2945004
0.10590321 -0.021034352 -0.044377122 -0.0026520856 0.04275176 0.13211682 -0.07049235 0.027762337
0.69631517 1.5086708 0.21542706 1.2888122 2.6630018 0.2717513 -1.9428294 0.364821
-0.16553691 -0.13052437 -0.23752241 -0.2025537 -0.19151537 -0.24947184 0.045806695 -0.15476587
-0.104540154 -0.15854734 -0.10633654 -0.17704183 -0.0049871993 0.33994097 -0.1061471 -0.28313184
-0.11844982 -0.015329008 0.06581326 0.07442945 -0.1253856 -0.23836161 -0.071833126 -0.034563858
-0.15533346 0.2772789 0.22225113 0.06350222 -0.54320955 1.55166 1.1075208 -0.10689211
0.70663923 -0.3545992 0.5149644 -0.06851806 0.23083533 0.31045505 -0.11709602 0.18883787
-0.123004876 -0.047417086 0.010121426 0.044017214 -0.0044533485 -0.2202797 0.044328567 -0.0931268
0.05522468 0.097618595 0.021963257 -0.17948477 -0.20841974 -0.17660809 -0.21475856 0.16428426
-0.17352287 -0.13594893 0.1371113 -0.035260767 -0.1667126 0.42448834 -0.16509385 -0.006273382
-0.24584301 0.114142664 0.14707863 -0.17345554 0.627719 -0.18832603 -0.05754886 0.026050579
-0.29871812 -0.016534513 -0.2090397 -0.11278766 0.413925 0.109767534 -0.22310875 0.36244154
00000000: 5d11 d13c efff 8ebd cff1 513e 4478 ba3e
00000010: 43ac 9d3e d0a6 963e b427 f43e a524 bc3e
00000020: e0e0 213e 4d46 5e3c 6140 63bf 8ac3 a03e
00000030: 6fc5 93bf d97a 363e f2aa 36bd 8933 0e3e
00000040: 69a0 b23d 66ba 0a3e 4d6e 48bd 681b 7dbe
00000050: ffba 563d b2f1 d1bd 5a1b 74bd b104 a3be
00000060: d1fd 5f3d 2434 91be 5f8d 5e3d 8d36 603e
00000070: bfc7 19be e676 99bd d11c cc3c bfaa e5bc
00000080: 6b61 3b3d 72ed a7bd 0d2b b73d 5019 6cbe
00000090: ed5b 35be 4c6d a43d d8e8 873e e0c6 c83e
000000a0: b618 853e 73f7 4d3e 3e0a 113f 109e d53f
000000b0: cc3b fd3d 223f aa3e d8a4 773e 5d85 ab3e
000000c0: edb2 e1bf 1557 143e eadb 6a3e 6bb2 76bc
000000d0: bb9a 333e 5ef1 8a3e 69ff 5a3e 6725 eb3d
000000e0: 4bf3 563e 87a8 aa3e 74ae a43e fda7 d1bd
000000f0: 00c5 993e 0e8a 373f f951 a0bd e9a5 68be
00000100: d18e 08c0 74e9 453e dfb7 d2be a6d1 bd3e
00000110: 612e cebc 5bd1 8c3d 3d50 753e 75f9 7e3e
00000120: 1dbf ed3d 694f 6abe 11e2 bbbd a40c 08be
00000130: 6c44 abbd 8cd3 25be 8b44 1e3e d2fa 4c3e
00000140: 6b5e 3d3c bada 48be 5248 3e3d a453 253b
00000150: 9be1 3cbe b1b7 69bd e8c6 1b3d 97b9 213e
00000160: a272 963c 57b7 46be 2a9c 91bd f00f f23d
00000170: 73ce 39be 2e13 1dbe f6bc 4b3e 440e 8e3c
00000180: ab9b 1ebe 8afe 143e 1397 5a3e 3faf 6dbe
00000190: b714 583e bad2 c6bc d69a 82bc 7a4b 073e
000001a0: c225 8c3d be77 9b3a a6c0 123e 5acb 6c3e
000001b0: 4565 f13c f227 acbd 8ab3 a9bd 0076 a63d
000001c0: 85e7 d0bc a7f4 47be 32da 89be 9d98 453e
000001d0: 9a86 1e3e 5b70 93bc f3b6 b73e 0569 39be
000001e0: affe 43bd 5bf6 4fbc 0169 0a3d 0e96 84be
000001f0: 12e1 88bc 862d d3bd f795 9d3c 145a d7ba
00000200: 1cea a63c d062 053e 7abb ff3d 131c 633e
00000210: 5470 073f 050f d23f a930 503e 11cb a63f
00000220: 1038 ccbe 3545 d23d 56ce ffbf 21d1 963e
00000230: dc4e c1bd cc10 183e ac18 f9bd 5187 c6bd
00000240: 6b83 b6bd ca53 113d 7200 f2bd e153 64be
00000250: 81ee 78bd 8a8d 093e 18de 1f3e 9a4d 313d
00000260: b148 443e cbef fc3d 52d8 54bd 3934 60be
00000270: 86ec 663e fced 90be 41a9 d13d c2c8 96be
00000280: c8e3 d83d 3c50 acbc c9c4 35bd 9dce 2dbb
00000290: 781c 2f3d a249 073e 4b5e 90bd d76d e33c
000002a0: b641 323f 201c c13f e998 5c3e ccf7 a43f
000002b0: 9f6e 2a40 fd22 8b3e a2ae f8bf d1c9 ba3e
000002c0: 8282 29be 2ea8 05be 1339 73be 3d6a 4fbe
000002d0: 9b1c 44be 8c75 7fbe cd9f 3b3d f27a 1ebe
000002e0: 2619 d6bd 3c5a 22be f9c6 d9bd 744a 35be
000002f0: a96b a3bb be0c ae3e a763 d9bd a8f6 90be
00000300: d295 f2bd 8526 7bbc 1ac9 863d 786e 983d
00000310: 1565 00be 1115 74be 3f1d 93bd d592 0dbd
00000320: bc0f 1fbe 80f7 8d3e cd95 633e 740d 823d
00000330: c80f 0bbf cb9c c63f 3ec3 8d3f 40ea dabd
00000340: 4fe6 343f 078e b5be b5d4 033f 3253 8cbd
00000350: 1960 6c3e f7f3 9e3e 0ad0 efbd b75e 413e
00000360: fbe9 fbbd 6b38 42bd 56d4 253c 654b 343d
00000370: 65ed 91bb 0091 61be df91 353d 44b9 bebd
00000380: 4633 623d 42ec c73d 4aec b33c dbca 37be
00000390: fc6b 55be c0d8 34be abe9 5bbe 223a 283e
000003a0: fbaf 31be 3236 0bbe e866 0c3e 986d 10bd
000003b0: b5b6 2abe 8956 d93e 5d0e 29be f190 cdbb
000003c0: 45be 7bbe a1c3 e93d c89b 163e 549e 31be
000003d0: 31b2 203f 8ad8 40be 5ab8 6bbd 0668 d53c
000003e0: 95f1 98be 6373 87bc 810e 56be 37fd e6bd
000003f0: faed d33e cdcd e03d 9f76 64be f091 b93e

hidden.bias f4 [128]
0.11349578 -0.16335446 0.13957131 0.0035052998 -0.0027370164 0.18721746 0.076297134 0.1806013
0.06590258 0.12167063 0.040511906 0.09050835 0.10661526 -0.11355975 0.11060518 0.004693053
0.2342561 0.7532423 -0.008315281 0.04429512 -0.15930194 0.023267506 0.30963075 0.14978097
-0.26074106 -0.22271909 -0.23389672 0.09170689 -0.005448698 -0.066147864 -0.117385946 0.29732078
0.23150955 -0.12311592 -0.15033509 -0.1261191 -0.049598314 0.03179023 0.30220005 0.16080391
-0.22455215 -0.07242408 -0.05869598 -0.08538116 -0.021362651 -0.115576014 -0.23948991 0.8338218
-0.117319405 -0.15443297 -0.25031206 -0.21214639 0.05618516 -0.06585909 -0.2751573 -0.022856385
-0.09108476 0.03499667 -0.0031655384 -0.02991468 0.4006791 0.49671435 -0.020145519 0.057215393
0.14316545 -0.01510144 -0.28628975 -0.36902377 -0.21491584 0.090550676 -0.02210087 -0.06589661
0.040888164 -0.06130816 -0.3023968 -0.25724503 0.1547905 -0.15096295 -0.26684391 0.21766686
0.10394521 0.15319669 -0.16323645 -0.0056165857 0.065372095 0.0086808745 0.19959144 -0.16514644
-0.17497101 -0.08607113 -0.27162835 -0.2993983 -0.17889974 -0.06807729 0.011846496 0.7929558
0.21142979 -0.16046758 0.3087241 0.069507755 -0.0019959067 0.07833219 -0.10792032 0.2996062
-0.10275865 0.07029878 0.20242526 -0.1449673 -0.032081544 0.18904476 -0.19302936 -0.11775946
0.09640438 0.22698669 -0.085769035 0.090543576 0.26012993 0.19796783 -0.18804418 -0.2404513
-0.08410446 0.075109504 -0.20996505 0.07350952 0.22296701 -0.029183798 -0.053470265 0.1472918
00000000: 7a70 e83d 6446 27be c8eb 0e3e 2cb9 653b
00000010: 845f 33bb efb5 3f3e ac41 9c3d 8cef 383e
00000020: eff7 863d 742e f93d d0ef 253d 715c b93d
00000030: 1a59 da3d 0492 e8bd f884 e23d 2fc8 993b
00000040: d5e0 6f3e 7dd4 403f d13c 08bc cd6e 353d
00000050: 0c20 23be 7f9b be3c ec87 9e3e 2f60 193e
00000060: da7f 85be 7910 64be 9f82 6fbe d2d0 bb3d
00000070: fe8a b2bb 8878 87bd 0b68 f0bd 6e3a 983e
00000080: d710 6d3e 3324 fcbd 71f1 19be 5e25 01be
00000090: 9a27 4bbd 7936 023d f7b9 9a3e c8a9 243e
000000a0: 00f1 65be 1353 94bd 326b 70bd 51dc aebd
000000b0: ba00 afbc 1eb3 ecbd d83c 75be 5875 553f
000000c0: 2845 f0bd ad23 1ebe e728 80be e73c 59be
000000d0: 6922 663d 21e1 86bd 6be1 8cbe 503d bbbc
000000e0: a68a babd ab58 0f3d ec74 4fbb a20f f5bc
000000f0: d025 cd3e 5851 fe3e 3708 a5bc b05a 6a3d
00000100: f799 123e 086c 77bc 9294 92be aff0 bcbe
00000110: e612 5cbe a272 b93d e20c b5bc cdf4 86bd
00000120: 597a 273d 441e 7bbd c1d3 9abe 9fb5 83be
00000130: 6781 1e3e 0896 1abe c49f 88be 10e4 5e3e
00000140: 3ae1 d43d 98df 1c3e 7527 27be 560b b8bb
00000150: cee1 853d 3a3a 0e3c b361 4c3e 261c 29be
00000160: 9a2b 33be 1046 b0bd df12 8bbe bc4a 99be
00000170: 7e31 37be 1b6c 8bbd ce17 423c 27ff 4a3f
00000180: 0d81 583e 9d51 24be 1611 9e3e 155a 8e3d
00000190: c2cd 02bb a16c a03d 5405 ddbd fc65 993e
000001a0: 2173 d2bd cff8 8f3d 9148 4f3e 4f72 14be
000001b0: f067 03bd f394 413e 7da9 45be df2b f1bd
000001c0: a96f c53d 336f 683e ada7 afbd e96e b93d
000001d0: c02f 853e 14b8 4a3e a78e 40be de38 76be
000001e0: f63e acbd 03d3 993d 1401 57be 298c 963d
000001f0: 7751 643e dc12 efbc a303 5bbd a9d3 163e

output.weight f4 [16, 128]
0.06495842 0.018539015 0.10482114 0.10780091 -0.072464846 0.084906824 0.07097655 0.08767118
0.08600295 0.022882285 0.067464694 0.06787959 -0.056061987 0.17965935 0.54496986 -0.0017618138
0.07101143 0.27871773 0.12509039 0.10121581 0.06683177 0.070038155 0.00519544 0.03997197
0.03319773 -0.011499937 0.023434179 -0.025780667 0.00023190331 -0.036673218 0.03955776 0.24024552
0.36216474 0.08951806 -0.01751706 -0.016031643 -0.06886199 0.0059196153 0.06821106 -0.04679951
0.15652117 0.1056077 0.085395284 0.105808616 -0.0011491459 -0.086994015 0.0208735 0.42565712
-0.09321919 -0.003979463 0.04978911 0.0611212 0.073116615 0.020821491 0.044462796 0.089966275
-0.007082654 0.12202891 0.0405804 0.023960108 0.06844289 0.28064463 0.18232869 0.03654832
0.074435525 -0.06685552 0.016696298 -0.024814617 0.06377041 -0.05543088 0.037951395 -6.0030114e-05
0.14126892 0.06439182 0.14453632 0.021056015 0.10124102 0.0013686934 -0.045861576 0.060245164
0.08770669 0.03456836 0.039115857 -0.17320158 0.02964204 -0.06390656 0.080017544 -0.027602645
0.020148424 0.0043445015 -0.018893382 0.049990986 0.07486482 -0.07179171 -0.045316216 0.36779797
0.18067771 0.042033184 -0.032216884 0.0310839 0.026017522 0.04167137 0.04132921 -0.048129804
0.045071725 -0.08176572 0.08233829 -0.03697763 -0.05702559 -0.0034140463 -0.057210878 0.055219628
0.12564918 0.08654032 -0.08527068 0.06988411 0.11436645 0.066064164 0.045143045 0.011906022
-0.03240873 0.07018071 0.074814044 0.13429426 0.030030485 0.10827327 0.028335689 0.007841727
0.09832502 0.09920108 0.08869357 0.048241924 -0.06803858 -0.028240064 0.06965346 0.070192136
0.05696214 0.11246731 0.12730365 0.112574935 -0.027851574 0.0561483 -0.45618832 -0.055946898
0.04520676 0.27933368 0.08897355 0.01641411 0.020973217 0.04367226 -0.010119222 0.011389423
0.010117433 0.10841373 -0.04303639 0.10681763 -0.18394746 0.023188088 0.116754435 0.14585556
0.46568 0.006250563 0.08984727 0.0124427015 0.051864855 0.1061316 0.09771884 0.079700805
0.08030712 0.04405043 0.051991273 0.03458562 0.15652862 -0.062065344 0.020403706 0.8379995
0.029133612 -0.026957387 -0.0041246153 -0.009306309 0.14017446 -0.047685567 -0.014023512 -0.008600151
0.04822109 0.048601303 0.02325869 0.034856103 0.52486664 -0.029136699 0.03326723 0.115856044
0.3827504 0.023651842 0.03364792 0.080674894 0.009165956 0.037844077 0.13387153 0.09383846
0.11767515 -0.053164862 0.07083073 0.01925632 -0.018940581 0.12200935 0.0012210504 0.14944044
-0.019197874 0.057660133 0.1354908 0.68915385 0.014890382 0.057637468 0.07751476 0.037946977
-0.12381543 0.06784827 -0.006920237 0.110391 0.10220929 0.04794995 -0.06083244 0.048663124
0.49924317 0.11418547 0.016472112 0.05313864 0.120654754 0.06472167 -0.035385802 -0.019333694
0.1246939 0.0789297 0.08589842 0.13083914 -0.01641309 0.054765336 0.04199712 0.111847
0.048628192 -0.039399378 -0.0137527585 0.1265847 0.18502265 -0.029120533 -0.044080187 2.981225e-05
0.102526076 -0.014764167 0.17232385 0.116355896 -0.050345507 0.053373672 -0.1087331 0.079564735
00000000: ec08 853d 22df 973c 77ac d63d b9c6 dc3d
00000010: 7368 94bd a1e3 ad3d 275c 913d f38c b33d
00000020: 5122 b03d a173 bb3c ee2a 8a3d 7404 8b3d
00000030: 41a1 65bd 9ff8 373e 2583 0b3f a9ec e6ba
00000040: 716e 913d 17b4 8e3e b217 003e 3c4a cf3d
00000050: 18df 883d 2a70 8f3d 823e aa3b a6b9 233d
00000060: 58fa 073d 3b6a 3cbc 09f9 bf3c fa31 d3bc
00000070: 122b 7339 a836 16bd 5107 223d ec02 763e
00000080: a86d b93e 3f55 b73d f07f 8fbc cb54 83bc
00000090: 8407 8dbd 55f9 c13b 3db2 8b3d d8b0 3fbd
000000a0: 1647 203e da48 d83d b9e3 ae3d 30b2 d83d
000000b0: f09e 96ba eb29 b2bd e7fe aa3c bbef d93e
000000c0: b4e9 bebd 2866 82bb aaef 4b3d 395a 7a3d
000000d0: 2abe 953d d591 aa3c 9f1e 363d 3d40 b83d
000000e0: 9c15 e8bb 4bea f93d a237 263d fd47 c43c
000000f0: c92b 8c3d a7b0 8f3e 5fb4 3a3e b1b3 153d
00000100: a771 983d 8ceb 88bd adc6 883c 0648 cbbc
00000110: 109a 823d 7e0b 63bd ec72 1b3d d8c8 7bb8
00000120: cda8 103e dcdf 833d 5401 143e aa7d ac3c
00000130: 7457 cf3d bb65 b33a 59d9 3bbd a2c3 763d
00000140: 919f b33d 8d97 0d3d f337 203d c15b 31be
00000150: ddd3 f23c 71e1 82bd 3de0 a33d f11e e2bc
00000160: 4f0e a53c 525c 8e3b 4bc6 9abc 59c3 4c3d
00000170: ba52 993d 8807 93bd 7f9d 39bd 0450 bc3e
00000180: 9403 393e fd2a 2c3d daf5 03bd aaa3 fe3c
00000190: b322 d53c 99af 2a3d d148 293d c223 45bd
000001a0: 219d 383d c974 a7bd faa0 a83d db75 17bd
000001b0: aa93 69bd 31be 5fbb f455 6abd fa2d 623d
000001c0: 2eaa 003e 0d3c b13d 65a2 aebd 661f 8f3d
000001d0: f538 ea3d a64c 873d eae7 383d 7a11 433c
000001e0: 04bf 04bd e7ba 8f3d 1b38 993d 6f84 093e
000001f0: 7e02 f63c 60be dd3d 3f20 e83c 967a 003c
00000200: a15e c93d f029 cb3d f9a4 b53d 5399 453d
00000210: d057 8bbd b557 e7bc 79a6 8e3d e5c0 8f3d
00000220: 2251 693d 4355 e63d e35b 023e b08d e63d
00000230: fc28 e4bc c3fb 653d 8491 e9be 9328 65bd
00000240: b92a 393d d304 8f3e c437 b63d e276 863c
00000250: 06d0 ab3c afe1 323d 18cb 25bc b49a 3a3c
00000260: 97c3 253c 0508 de3d ed46 30bd 34c3 da3d
00000270: b95c 3cbe f2f4 bd3c f31c ef3d 295b 153e
00000280: 9c6d ee3e 86d1 cc3b d801 b83d 79dc 4b3c
00000290: 3e70 543d 865b d93d d120 c83d 2d3a a33d
000002a0: 0f78 a43d 396e 343d cdf4 543d a7a9 0d3d
000002b0: 0a49 203e 3b38 7ebd ac25 a73c 2387 563f
000002c0: 9da9 ee3c bdd5 dcbc c827 87bb 7d79 18bc
000002d0: e589 0f3e f151 43bd dfc2 65bc a6e7 0cbc
000002e0: 7a83 453d 2912 473d 0289 be3c 46c5 0e3d
000002f0: a95d 063f 16b0 eebc 3843 083d ef45 ed3d
00000300: dcf7 c33e 82c1 c13c 67d2 093d e138 a53d
00000310: ce2c 163c 6402 1b3d 9e15 093e 612e c03d
00000320: abff f03d 66c3 59bd b40f 913d 6ebf 9d3c
00000330: 4729 9bbc 0ae0 f93d a70b a03a ea06 193e
00000340: dc44 9dbc 082d 6c3d 1abe 0a3e 636c 303f
00000350: caf6 733c 4415 6c3d 0fc0 9e3d 4a6e 1b3d
00000360: f292 fdbd 09f4 8a3d 28c3 e2bb ad14 e23d
00000370: 1b53 d13d 2b67 443d 702b 79bd fc52 473d
00000380: cd9c ff3e 12da e93d 86f0 863c e7a7 593d
00000390: d719 f73d cb8c 843d b4f0 10bd b261 9ebc
000003a0: 845f ff3d e5a5 a13d 83eb af3d b2fa 053e
000003b0: bf74 86bc 9e51 603d 2c05 2c3d 0a10 e53d
000003c0: 5b2e 473d 3e61 21bd 4053 61bc 6b9f 013e
000003d0: 9476 3d3e 2f8e eebc 6d8d 34bd 5215 fa37
000003e0: 31f9 d13d 68e5 71bc aa75 303e 004c ee3d
000003f0: 1737 4ebd 5a9e 5a3d 76af debd d6f2 a23d

output.bias f4 [16]
0.005966025 0.0121396165 0.118949935 -0.014525556 -0.035779007 0.077907376 -0.08299432 -0.0032619871
0.05569625 0.008019611 -0.044798985 0.026658976 -0.07296124 0.050467964 -0.045840338 -0.030273741
00000000: a57e c33b 3ee5 463c 069c f33d 99fc 6dbc
00000010: 028d 12bd e78d 9f3d edf8 a9bd 10c7 55bb
00000020: c021 643d b064 033c 247f 37bd ed63 da3c
00000030: b46c 95bd 7fb7 4e3d 14c3 3bbd a300 f8bc
