temp_morel/pretrained_models2/pretrain_model10.pt (torch, 19487 bytes, 4 tensors)

hidden.weight f4 [128, 18]
00000000: fce8 85be ec18 133d 4c06 4fbd 2ed0 a83d
00000010: 3c22 a2bd 464b 57be f7e4 51be 5c93 84be
00000020: d192 91be 680e 19be 60ef 1abe 7310 dfbd
00000030: 4baa 90bd fea5 28be 7c91 98be 00fe 27be
00000040: 8b43 b7ba 8528 dabb 8576 703e e00e 47bd
00000050: 4fbf 8b3d fea2 083d 2f76 813e 4bd2 f6bb
00000060: f7a8 943e 5da9 cc3e 84aa c0be c3ab 0bbf
00000070: 485a ab3e b185 813d 5b1f a1bf 215b a13e
00000080: 3be9 463e 16e8 6f3e eb25 5d3e 2ef3 12be
00000090: 9f9a 223d 08d6 453e a583 fabc f042 c93d
000000a0: 1b81 edbc bd45 763e b8eb e83e 24c9 083f
000000b0: 2e27 c43e 8596 063d b139 2940 761b a33e
000000c0: be0c 00c0 f1e9 913e 9f0b 3b3e 4ae3 c93c
000000d0: f277 0dbd 139e 0c3e 632c 1abe 9a97 743d
000000e0: 3771 76bd 1ae9 88bc 5aca 0c3d e54d d5bd
000000f0: 2a60 e5bd fcbf 68be 1d4d 8fbc a358 d7bc
00000100: eeb8 38be 875b 58be ce5a 42be 69ed 5bbe
00000110: 232b 533d 16fe f33d 7b89 24be 634e 2abe
00000120: e300 3bbe 6128 a13d 4093 11be 846b 34be
00000130: 1e14 59bd a700 d33d df0b f2bd de5d 643d
00000140: 06b3 65be 11f5 0b3d cfcd b03d 33ba a33c
00000150: ab03 0dbd a3bb 6abe 01b3 19be 0428 87be
00000160: d223 983d 039f babe 7ec3 68be f08c 61be
00000170: 5643 6a3d fe77 e2bd e46c 8fbd 7254 94be
00000180: f8c3 26bc 7b4c 0dbd e42f 8cbc 47ef b33d
00000190: a676 c5bd a3fb a33d 2ca5 debd 7ebf cebd
000001a0: 4075 aebb 7723 d63d fa16 03be d11a 3cbe
000001b0: 0835 1f3e 4f6e 703e 7bbe 563e 40bc 8a3e
000001c0: 2ff3 97bd c991 b23d 7108 843d c21f 11be
000001d0: 240a 103f 9c61 74bf 5a0a 11c0 ef7c 1b3e
000001e0: 2e7b 04bc e97c f13d 1fb7 a13e 8b2d c63d
000001f0: 6e27 f2bd 4a21 313e a626 fbbd f49c 01be
00000200: ffea 14be 5a74 9a3d 46fd 21be 735c a43d
00000210: 4a9e 263e 6806 4cbd 52f3 5c3e 6bfd 513e
00000220: 9f2b d43d 444d 5b3e 804f afbd 806f 9fbd
00000230: ce91 87be ddf5 1f3e ab2d c5bd 95fc 2dbe
00000240: c9df 54be afd8 31be 8816 87bd dd68 6e3c
00000250: 12d8 31bd c72e 65be fee1 2c3e ae3e 03bd
00000260: 3451 6bbe 16a9 433b a2cc 4abd c7fa d2bd
00000270: 64bd 113e 2315 563d 58c6 bb3d 7075 5ebb
00000280: 6cf1 5d3e df36 453e ca82 a8bd 941c a03d
00000290: ed38 1bbe 10a8 69be aeed a2bd e052 f13d
000002a0: 3cee fa3c d196 333d 739f 8a3c 42e5 70bd
000002b0: d6a9 223e df61 f1bd 69cc 3e3e 25b5 4e3e
000002c0: ef74 523e 60e4 04be 4ece 08be 4a4f cc3d
000002d0: 4676 b93d 9234 46be ba40 6ebe 7bf0 37bc
000002e0: 1d74 42be 1a8f 5b3e eb83 113d dfe9 053e
000002f0: 023b b23b 5628 92bd 31d4 a83d 48c3 2b3e
00000300: ee93 82bd f111 5e3e 5b29 8e3d d546 59be
00000310: 181a 4c3d f17b 76bd b0a8 6b3e d5b1 13be
00000320: ff68 65be d683 6fbe 4a96 ec3d 0e59 b0bd
00000330: 8084 183e e0aa 863d ffb9 1cbe e135 69be
00000340: c5d8 83bd 88c2 cb3d ffe4 e4bc ef3b 45bd
00000350: 9cc3 223e 1f8d 63be 09e6 1fbe 2830 703e
00000360: c789 153e 7b1b 62be 5d46 943e bbe6 bf3e
00000370: eff2 493e a13e 073e 55fe 773e eb2e ebbc
00000380: 90b0 ab3e 37ad 32bf 18ae 36c0 c6b7 b83e
00000390: b20c 633f ec0c 1f3e 519a 903c 8b79 03be
000003a0: cd19 ac3e 31f3 af3e b3a3 40bd 1cae 97be
000003b0: f246 773d ea8a 653d fbc7 28be 9bae 36be
000003c0: 2f47 7cbe 666b 873e 9eff 8ebe 642f b3bd
000003d0: ce4e 56bd a329 b93d 8f47 29be 72c9 6cbe
000003e0: 428c e4bd ce57 febc 6571 1dbe 4a01 fd3d
000003f0: aa52 1bbe 3321 4fbd 40a4 06be 1873 57be
-0.26154315 0.03591244 -0.050543115 0.08242832 -0.07916686 -0.21024808 -0.204975 -0.25893676
-0.28432325 -0.14946902 -0.15130377 -0.10891809 -0.07063731 -0.16469571 -0.29798496 -0.16405487
-0.0013981921 -0.0066576623 0.23482712 -0.04859817 0.068235986 0.033358566 0.2528548 -0.007532393
0.2903516 0.39972964 -0.37630093 -0.5455896 0.33467317 0.06324328 -1.2587694 0.31514838
0.19424908 0.23428378 0.21596496 -0.14350578 0.03969824 0.19319928 -0.030580351 0.098272204
-0.028992226 0.2405004 0.4549234 0.53431916 0.38311142 0.03285839 2.6441462 0.3185689
-2.0007777 0.28498796 0.18266152 0.024644513 -0.034538217 0.13732176 -0.15055995 0.05971489
-0.060166564 -0.016712714 0.034372665 -0.10415248 -0.111999825 -0.22729486 -0.017492825 -0.026287382
-0.18039295 -0.21128665 -0.18979952 -0.21477284 0.05155481 0.119136974 -0.1606807 -0.16631465
-0.18262057 0.0786903 -0.14216328 -0.17619139 -0.0529977 0.10302859 -0.118186705 0.05575358
-0.22431573 0.03416926 0.08633005 0.019986248 -0.034427326 -0.2292314 -0.15009691 -0.26397717
0.07428707 -0.3644944 -0.22730824 -0.2202642 0.057193123 -0.11058043 -0.07003191 -0.28970677
-0.0101785585 -0.034496766 -0.01711268 0.08785873 -0.09641771 0.0800698 -0.10871348 -0.10095118
-0.005324036 0.10455983 -0.12801734 -0.18369605 0.15547574 0.2347958 0.209711 0.27096748
-0.074194305 0.087192126 0.064469226 -0.14172271 0.56265473 -0.9546144 -2.2662568 0.15184377
-0.008086009 0.11791403 0.31585023 0.096766554 -0.11823927 0.17297855 -0.12263231 -0.12657529
-0.14542769 0.075417235 -0.15819272 0.08025446 0.1627132 -0.049810797 0.21577194 0.20506828
0.103598826 0.21416193 -0.08560085 -0.07784939 -0.26478428 0.15621133 -0.09627851 -0.16990884
-0.20788492 -0.17367814 -0.06596094 0.014551369 -0.04341895 -0.22381125 0.16883084 -0.032042198
-0.22980195 0.0029855422 -0.04951156 -0.10301738 0.14232403 0.05226625 0.091686904 -0.003394451
0.21674126 0.19259213 -0.08228071 0.07817951 -0.15158434 -0.22818017 -0.0795549 0.11783385
0.030631177 0.043845 0.016921734 -0.058812387 0.158851 -0.117862456 0.18632664 0.20186289
0.20552419 -0.12977743 -0.13359949 0.09976061 0.09055762 -0.19355991 -0.23266879 -0.011226769
-0.18989606 0.21441308 0.035526197 0.13077496 0.005439163 -0.071366 0.08243597 0.16773713
-0.063758716 0.21686532 0.06941482 -0.21218427 0.049829572 -0.060176793 0.23013568 -0.14423306
-0.22403334 -0.23390135 0.11552103 -0.08610736 0.14894295 0.065755606 -0.15305327 -0.2277446
-0.0643783 0.09949213 -0.027941225 -0.04815286 0.15894932 -0.22221802 -0.15615095 0.2345587
0.14603339 -0.22080795 0.28959933 0.3748072 0.19721578 0.13207485 0.24218114 -0.028708896
0.33533144 -0.69795555 -2.8543758 0.36077708 0.88691247 0.15532273 0.017651709 -0.12839334
0.33613434 0.34365228 -0.047031116 -0.29625022 0.060370393 0.056040682 -0.16482536 -0.17840044
-0.2463653 0.26449126 -0.27929395 -0.087492734 -0.052321248 0.09041145 -0.16531204 -0.2312372
-0.111595646 -0.031047728 -0.15375288 0.123537615 -0.15168253 -0.05056877 -0.13148594 -0.21039999

hidden.bias f4 [128]
00000000: f1f7 89be 6723 e4bd 855c fb3d b400 0a3c
00000010: 50f9 0cbe 8292 ffbd 6ef4 9c3d 2747 f63d
00000020: 015d 1e3e baa2 0a3e 72af 6d3e 1ab0 d13d
00000030: efc4 e63d 6551 90be 2528 93bd 05d1 a9be
00000040: d459 483e fe4b 8dbd bcf3 bcbc 8dbb 5d3e
00000050: fa81 2f3d 7284 103f 04b4 07be 30e7 963c
00000060: c0f5 4d3e 6221 0fbe bd0a 123d a148 613d
00000070: 478e 083e 42fd c13d 25ba 6a3e cba4 bd3c
00000080: cc11 92be 6c72 ce3e 17ff 5ebd 3350 593e
00000090: 402b 2e3f 8e34 0fbb 96da af3e 9fdc 493e
000000a0: 995d cd3d 8b24 2b3f f516 1cbe 34b4 d1be
000000b0: 7dbb 263f 95ce 2d3f f5d9 223e 08cc 8c3d
000000c0: a7c1 bbba 08fd 5bbd 0bba afbe bc86 353c
000000d0: 77e7 0e3e 3d89 94be ed8a 8fb8 a30f f83e
000000e0: 0122 313e db56 c0bd 6744 a1bb ecce 233f
000000f0: b75b 2dbe 3e34 c5bd 84e4 13be 8d79 e83c
00000100: f4f0 11bd d566 473c aeaa 173e b513 a53d
00000110: 276a 18bd d56a e63d b6c8 06be dba3 733f
00000120: 029e 413e c5f7 663e 6ecf 663d c730 0fbc
00000130: d7ad a23c 4ad9 02be fd37 f33e 66f5 cf3d
00000140: fa90 5f3d 782b f4bd 2083 203c 87c2 a6bd
00000150: 1f78 d8bb bfab ad3d 4862 883e 519a 06bd
00000160: 2825 9a3d 9dfc 24be 5fe5 fb3d 87b3 b4be
00000170: 9bb3 44be 6160 323e bc62 433c 921c 2bbe
00000180: 2772 6c3d b956 bfbd 99cd 3c3e fdce 90be
00000190: d6b6 f0bd 1871 2a3f cf6d 193d f0ac ccbd
000001a0: 7243 6bbd 3565 52be 8a4e 3ebd 54e7 113e
000001b0: 6496 9ebe 49eb 0fbe 75e3 423f a41d ba3c
000001c0: 81d8 c83d 9ae4 e0bc e258 0d3f 82c7 4b3f
000001d0: 7161 313f fda7 46be b3cb 34bf 6b9d 953c
000001e0: d0b9 a33e dbce e5bc 085f 933d 7a8a e1bd
000001f0: adad 1bbe c6a7 50be 2c1f 273d 6eb1 8c3e
-0.26946977 -0.11139565 0.12273506 0.008423019 -0.1376698 -0.12479116 0.07663809 0.1202529
0.15465166 0.13538638 0.23211458 0.10238667 0.11268031 -0.281871 -0.07185391 -0.33167282
0.19565517 -0.0689926 -0.02306544 0.21653576 0.042848565 0.56452096 -0.13252264 0.018420786
0.20113277 -0.13977578 0.035654772 0.055000905 0.13335524 0.09472133 0.22922571 0.023149868
-0.28529203 0.40321672 -0.05444249 0.21222 0.68034744 -0.0021851393 0.34346455 0.19713067
0.10027618 0.66852635 -0.15243132 -0.40957797 0.65129834 0.67893344 0.15903457 0.068748534
-0.0014324681 -0.053708106 -0.34321627 0.011079486 0.13955484 -0.29010954 -6.844648e-05 0.4844943
0.17298128 -0.09391566 -0.0049214843 0.6398761 -0.16929518 -0.09629105 -0.1444264 0.028378272
-0.03563018 0.012170513 0.14811203 0.080603994 -0.03721061 0.11250845 -0.13162503 0.951719
0.18907931 0.22555454 0.056350164 -0.008739657 0.019858284 -0.12778202 0.47503653 0.10154228
0.05458162 -0.119223535 0.009796888 -0.08142572 -0.0066061164 0.084800236 0.26637483 -0.03286201
0.07526618 -0.1611199 0.122996084 -0.35293218 -0.19209139 0.17419578 0.011925396 -0.16710117
0.05772605 -0.09342713 0.18437804 -0.2828292 -0.11753623 0.6657882 0.037458237 -0.09993923
-0.057437368 -0.2054642 -0.04646162 0.14248401 -0.30974114 -0.14054598 0.7612832 0.022719212
0.0980692 -0.027452756 0.5521375 0.796013 0.6928931 -0.1940002 -0.7062332 0.01826354
0.319777 -0.028052738 0.0719586 -0.110127404 -0.15202971 -0.203765 0.040801212 0.27479118

output.weight f4 [16, 128]
00000000: 9294 093d 5c74 973d ef67 e73b c486 a2bd
00000010: ea11 1e3e ca75 9f3d 09bc 5fbc bff0 f73d
00000020: 4cc5 343d 76c5 2e3d a85b 7b3d 4dfa 053d
00000030: 879d 673d 9c9c af3d d76a 973d 573d f9bc
00000040: 469a 063d 81ec d5bb 4643 c0bc 37fc 263d
00000050: 6aaf 053e b22c d03d 1a74 563d 2b12 73bd
00000060: a2aa 6ab9 c064 463d 965a 66bd 3ab6 a23d
00000070: 6372 ac3d ea80 933c b2b9 943c 3a9a 9e3d
00000080: e131 b13a 714a 1a3e a81c 913d 265d 713e
00000090: d61d 203e 665d 193f da8d 883d 0461 d13d
000000a0: 2f31 093d 2a32 653e e6b8 4b3d b12b ba3d
000000b0: fce9 673e 8b9d 293e 1ded 8dbc 2e87 7c3d
000000c0: e21d 443c 5ddd fd3d 4311 dc3c 6405 d7bc
000000d0: cf4d ae3d 1b99 f83c e4fd ac3d 8976 7a3e
000000e0: 821c 96bc 2d47 a23d 38dc b73c f4d5 883e
000000f0: 5705 02bd b50a 2abd 9cfb b83d ecc4 893c
00000100: c7f8 ac3e 729b 79bd cbe2 0cbd efef 303e
00000110: 2eef a03c 3c63 463d ffd0 1b3c fa38 7c3e
00000120: a727 253d 9d9b b8bd bbce 003d 2534 183e
00000130: 6f27 443d 1c09 bebc 96c8 2a3e 8e01 353d
00000140: 313b e43d 082b 013d 48cc 4f3e 2de7 913d
00000150: 065c 93bd 0b5c 833d 1dd5 b63b b031 6abc
00000160: c17d 10bb 6877 96bd 4278 793d e118 0a3c
00000170: 75fe de3d 53d9 403d 7999 fa3d 55a1 c13c
00000180: 6c4e f03c e915 dd3d fa31 a33d 3e41 e43b
00000190: 97e8 843d 32b7 2c3e 914b cf3b 19c2 a13d
000001a0: df16 a93d b4cd 90bd 8997 2e3d 763c 123e
000001b0: 878e ba3d f3ab b83d 7ff7 4b3e 8714 563d
000001c0: ea17 e13d e29c 0c3e 135d 8a3e c848 933e
000001d0: 6692 063e f971 e13d ead6 e9be 6751 073e
000001e0: 0fd6 8f3c edf8 a43d 6256 c53a 5b82 e9bd
000001f0: 682f f53c 9bcd 0bbd cfdd 6c3c 8748 ca3d
00000200: 80d5 be3d 1f3b 703d 231d 093e 6f11 9a3d
00000210: fca1 e03c 61fe 693d 1562 093d 4e26 2c3d
00000220: 999c 6a3d 851e 7c3d 387c a63c 00c0 683d
00000230: e89f 8dbc b2fb bf3d 4d6b b33d 8b58 e23c
00000240: 572b d0bd 0374 213c a3ec 153e f742 f93d
00000250: 816e 0c3c 455b 90bc 083c 71bd 6ee1 4fbd
00000260: 29f0 ac3d f867 84bd 2f22 743d bd5c 8c3d
00000270: fd4a a43d f425 24bd 5202 b63d 8106 dd3d
00000280: 57b5 2c3c 3d88 c03e 753f 123d aa8a 14bf
00000290: 2d9d dc3e e726 493d 9b94 903e 7722 7a3d
000002a0: d174 033e ee52 583c 4124 853d a38c e43d
000002b0: 017e 913e 7941 a83e c39a 8abd 1188 bf3c
000002c0: 20e4 293d 1019 433d f117 9d3d cdc6 113e
000002d0: 27ff e73c 5e73 ca3d d602 6ebd a930 9d3d
000002e0: b668 7cbd 8b5e 893d b6af 673c 811e ff3e
000002f0: 2c4a 003d 8ed7 953d ad70 f63d 5fd8 a63c
00000300: 7b87 c1be 1809 aa3d 1153 503d 8de2 f93e
00000310: fecd 343d 08b4 c53c a47f 97bd f645 4f3e
00000320: ce3c c53d 8262 053e a281 113e d15a f33d
00000330: 0d26 013e f97a 8a3c 7623 cabc eefb fc3d
00000340: f1e1 b63d 7303 7d3d bc94 59bd aba3 9bbd
00000350: ff1d 243a b293 323c 8ffb e53c 29f5 093e
00000360: 9e1e e63d d1b8 1e3e 8311 fabc 3e72 e63c
00000370: 5efd db3d 43f3 d63d 02db 0d3e 8ee3 0f3e
00000380: b28f d43c 83aa c03d 72e0 92bd e3e9 9f3d
00000390: ff19 9c3d 1659 b73d cb35 81bd 9171 853c
000003a0: 86d6 8d3c 527c a8bc 7306 b1bc 81a8 653d
000003b0: 7683 c13d 027f e53b c3c8 74bc 7dcc 003d
000003c0: 9508 093e fdd9 9cbd c13f 593f d652 863e
000003d0: da46 f33d 9c89 343c d585 f9be e369 bb3d
000003e0: 6b25 1e3c 80c2 bbbd ea65 393d e831 333e
000003f0: 9cc4 543d c71d bc3c 10f2 28bd 584c fc3d
0.033588953 0.07395241 0.0070619504 -0.07935861 0.15436521 0.07786138 -0.013655671 0.121064655
0.04413347 0.042668782 0.061366707 0.03270941 0.056546714 0.08574793 0.07393425 -0.030424757
0.03286197 -0.0065284376 -0.023469578 0.040767875 0.13055196 0.10164775 0.052356817 -0.0593435
-0.00022379545 0.048435926 -0.056238733 0.07944913 0.08420255 0.018005807 0.018154953 0.0774426
0.0013518893 0.1506746 0.07085544 0.2357069 0.15636382 0.5990814 0.06667681 0.102235824
0.03349417 0.22382417 0.04973688 0.09090365 0.22647852 0.16564004 -0.017324978 0.061652355
0.011970015 0.12395737 0.0268637 -0.026247688 0.085109346 0.030346444 0.08446863 0.2445928
-0.01832414 0.07923732 0.022443876 0.26725733 -0.031743374 -0.041514117 0.09032366 0.016817532
0.33783552 -0.06093926 -0.034395974 0.17279027 0.0196453 0.04843448 0.009510278 0.2463111
0.04032102 -0.09014056 0.031447154 0.14863642 0.04788917 -0.023197703 0.1667808 0.044190936
0.11144102 0.03153518 0.20292771 0.071241714 -0.071952865 0.0641404 0.0055796043 -0.014294073
-0.0022047611 -0.07346994 0.060905702 0.008428783 0.108883776 0.047082257 0.12236304 0.0236365
0.02933427 0.10795195 0.07968517 0.0069657853 0.064896755 0.16866758 0.006326147 0.07898349
0.082563154 -0.07070485 0.042624984 0.14280877 0.09109216 0.09017172 0.19918631 0.05226567
0.10990889 0.13731721 0.27024135 0.28766465 0.13141784 0.11008067 -0.4567178 0.13214646
0.017558126 0.08055291 0.0015055651 -0.114018165 0.029929832 -0.034131628 0.01445718 0.09877115
0.09318066 0.058650132 0.13390021 0.075228564 0.02742099 0.05712736 0.033540804 0.042028718
0.05727825 0.061552543 0.020322904 0.05682373 -0.017288163 0.09374179 0.087607004 0.027630111
-0.101645164 0.0098543195 0.14641051 0.12170976 0.008571268 -0.017621646 -0.05889514 -0.050752096
0.084442444 -0.06465143 0.059602913 0.06853626 0.080221154 -0.040075257 0.08887161 0.10792256
0.010541282 0.37603942 0.03570505 -0.58024085 0.43088666 0.049109366 0.28238377 0.061068024
0.1283753 0.013203366 0.065010555 0.11159637 0.28416446 0.32862452 -0.067678 0.023380311
0.041477323 0.047631323 0.07670582 0.14235993 0.028319908 0.09885286 -0.058108173 0.07675297
-0.061623298 0.06707486 0.014141014 0.4982796 0.031320736 0.073165044 0.1203321 0.020366846
-0.37798676 0.08302516 0.05086047 0.48805657 0.044141762 0.024133697 -0.073973924 0.20241532
0.09630738 0.13025859 0.14209607 0.11882556 0.12612171 0.016904341 -0.024675112 0.12352739
0.08929814 0.061770868 -0.05312036 -0.075995766 0.0006260573 0.010899471 0.028074054 0.13472427
0.112363085 0.1550019 -0.030525928 0.028130647 0.10741685 0.10495617 0.13853076 0.14051649
0.025947426 0.094075225 -0.07171716 0.07808282 0.07622146 0.08952539 -0.06309088 0.016289504
0.017314207 -0.020567093 -0.02160952 0.0560689 0.09448902 0.007003666 -0.014940443 0.031445015
0.1338218 -0.076587655 0.84862906 0.26235074 0.11878748 0.011019137 -0.48734918 0.09151056
0.009652476 -0.09167957 0.04526321 0.17499506 0.051945314 0.022963418 -0.041246474 0.12319249

output.bias f4 [16]
00000000: ae31 813d 6f1f 033e 3ab1 593e 387b a1ba
00000010: 542e efbb 8c7c 083d 1c86 7dbd 26e1 bfbd
00000020: da0f 86bc 29c6 9fbd 1635 a1bd 33d8 803d
00000030: 5098 4dbd 50a6 833c 2f3d 8d3d a2e5 993d
0.06308304 0.1280496 0.21259013 -0.0012320047 -0.007299224 0.033321902 -0.061895475 -0.093691155
-0.01636498 -0.07801468 -0.078714535 0.06291237 -0.050194085 0.016070515 0.068964355 0.07514502
