temp_morel/pretrained_models2/pretrain_model0.pt (torch, 19487 bytes, 4 tensors)

hidden.weight f4 [128, 18]
00000000: a4e4 dd3d 339b 12be 9641 883e 693d 813e
00000010: 5754 b33d 16ce d0bd 1a03 7e3e ac04 1bbf
00000020: 1e5e bbbe 9990 a8bf 755b 4ec0 1a75 513e
00000030: 8969 713e 40b8 f73d f8eb 6f3d 5ce9 13be
00000040: 7fc6 cf3c d99a 193d abea 5dbe 848e 0cbe
00000050: 793b ae3c d0a4 ae3e 3a0f b1bc f93e c4bd
00000060: e0b9 88bd 14de 083f 0b38 a03e 2248 4e3e
00000070: 4ed8 073e 3eec fabc caa7 48be 801c 49be
00000080: 854d 1e3e 2b7b c2bd 77a0 0cbe 08a6 39be
00000090: 5d52 2fbe a87e 2a3e e722 943e 1d74 0c3e
000000a0: a4ad 4d3e 7e52 563e 0807 993e 7086 d23d
000000b0: 41b3 81bd 68bf 8fbf 10d7 68bf 662b 46bc
000000c0: 4e4d a5bf 5771 4d3e 5664 8fbd e3b9 313e
000000d0: b7ad 433e 443e a23e 1532 3f3d 89a5 223e
000000e0: f179 8bbe 6de9 ebbc ea65 babd c34e 483e
000000f0: 79c5 b6bd 21f8 8e3e fdc7 023f 6dab 80bc
00000100: 518e 533f a16e 23be 82b9 913e 27e5 eabd
00000110: baea 813c 3cb7 bc3c fff0 75bd 8dc0 693e
00000120: e61e de3e 5085 33be 74ab 25be 67ad 753e
00000130: dad8 28bd b907 42be 4d2d e53d a434 c13e
00000140: 6c54 a23e 680c d93d 4ffd f73f 80d7 89be
00000150: 9001 4b3b 1c66 5a3c 6e30 843e 5e43 8e3b
00000160: e921 ff3d 102d 543d 1f72 97bd 1dd2 38be
00000170: 191c 303d 4b52 f5bd bb4c 5fbe 4632 553c
00000180: 9ba9 94bc 3772 023e 99ff 50be 719f 86bc
00000190: cdc6 583d f954 a8bd c286 40bd 4060 89bd
000001a0: 1806 78bd bec2 6abd 82bb 0fbd d909 f03d
000001b0: b78a ae3d 16ea 28be 57c6 823e ff32 d23e
000001c0: a0b1 403e 5b3b 3f3e a2eb 44be 001e 65bf
000001d0: c023 07bd d199 92bf f299 54c0 c97c 7f3d
000001e0: cdb1 a93f ebdd c03c 9ba9 503e 91a2 fbbd
000001f0: e4b5 ea3d b0d7 563e 56e7 523e 93fb 873b
00000200: 79b8 663e 1f69 963e 5602 a2bd c4e2 623e
00000210: 7648 293e 028e ff3e 1580 043f 78c4 e5be
00000220: 27d8 2ac0 d870 8c3e b4ca 463f 7e3a ba3e
00000230: d966 563e cd6b a93e 9d00 acbd 839e 0e3c
00000240: 9f5a 4fbe 71b3 59bd 842f 68bc 9697 9dbe
00000250: 51c4 e3bd 0d1f a5be e340 1fbe 8cb8 6bbd
00000260: e7d1 80be f28c 7ebd cd87 88bd 44f9 38be
00000270: 8549 42bd 56df 613b bd02 6abe 55f1 8abe
00000280: a1e9 88be 92c3 263c b8eb 2d3e 7f77 9abd
00000290: d1f9 13be ede2 cc3e 102f d13d 8522 443e
000002a0: 853c 88bc 288c 673e f88c 5a3e d1ba c4bd
000002b0: d7d7 6fbe e77f 073e f875 b63d 1575 5bbe
000002c0: bd4d 27bd a991 a43d dc54 da3d 83b3 943d
000002d0: 5c9f 3cbc 022a a6be 30f9 513d 43cc 9a3d
000002e0: d966 42bd d610 3cbe 9f3b c1bd d4da 40bd
000002f0: 822a 97bd 78ea 3b3e cda6 763d d1ca 213d
00000300: a369 a9be 00a3 d8bd a1fe db3b 5d16 0ebe
00000310: a93e e2bc d1cf da3d 8695 c3bc 9284 f4bd
00000320: 3c2e d43c 4375 0b3d ba76 5b3e 4ad7 423e
00000330: 4c83 05be 68e9 6dbd 0cee 60be 508c ac3d
00000340: 6ffb f9bd 5dbb 1dbe bfc5 9cbd cbc6 953d
00000350: 0528 90bc d3f8 023d 4caf f7bd 4e7e 5dbc
00000360: e45a 85bd aaf2 623e 86c6 e8bc 56f0 da3e
00000370: 2aa1 acbd 97fa 1dbe 737b f83e 8208 973f
00000380: c891 d03e 1f97 483e 7524 2640 211c 3c3c
00000390: ef29 17c0 a9a6 373e 5851 3bbe dbaf 9f3d
000003a0: c548 d9bc 60c8 ccbd cb79 7b3e 7f25 bfbd
000003b0: b6aa 113e 18ae 623e f51f ef3d 1447 bdbc
000003c0: 45ab 913e c217 9ebe bacb fe3e 9646 17bf
000003d0: b3ee 29c0 ac90 bf3d feac 8f3f 8370 8d3e
000003e0: 870c 053b 3c3e ca3d ac38 09be 46fa 4b3e
000003f0: c8aa 303e 14f0 8dbc 8f04 193e aedd 193e
0.10834625 -0.14317016 0.26612538 0.25242165 0.08756321 -0.10195558 0.2480587 -0.60554004
-0.36595243 -1.3169128 -3.224332 0.20454827 0.23575415 0.1209569 0.058574647 -0.14444488
0.025363205 0.03750119 -0.2167155 -0.1372624 0.021268593 0.34110117 -0.021613706 -0.095823236
-0.06676078 0.53463864 0.31292757 0.20144704 0.13266107 -0.030630227 -0.19595256 -0.19639778
0.15459259 -0.09496149 -0.13733087 -0.18129742 -0.17121263 0.16649878 0.28932878 0.13716169
0.2008577 0.20929906 0.29888177 0.10279548 -0.06333018 -1.1230288 -0.9095316 -0.012095308
-1.2914217 0.20062767 -0.070015594 0.17356066 0.19109236 0.3168813 0.04667862 0.15883459
-0.2724147 -0.02879783 -0.0910147 0.19561295 -0.08924384 0.27923682 0.5108641 -0.015706742
0.8263903 -0.1596017 0.28461844 -0.114694886 0.015858997 0.023036592 -0.060044285 0.22827359
0.4338295 -0.17531323 -0.16178685 0.23991929 -0.04122243 -0.18948258 0.11190281 0.37735474
0.31705034 0.105980694 1.9374179 -0.26922226 0.0030976273 0.013330009 0.258182 0.004341527
0.1245764 0.051800787 -0.07394814 -0.18048902 0.042995546 -0.11978587 -0.21806614 0.013012474
-0.01814728 0.12738882 -0.20410003 -0.01643345 0.052923966 -0.08219332 -0.047003515 -0.06707811
-0.060552686 -0.057314627 -0.03509093 0.11720628 0.085225515 -0.16495547 0.25541946 0.41054532
0.18817759 0.18674986 -0.19230512 -0.894989 -0.03299308 -1.1453191 -3.321896 0.062374864
1.3257385 0.023543319 0.203772 -0.122868665 0.11460474 0.20980716 0.2059606 0.004149863
0.22531308 0.29377076 -0.07910602 0.22156817 0.16531548 0.4991303 0.5175794 -0.44876456
-2.669443 0.27429843 0.7765305 0.3637275 0.20937671 0.33090058 -0.083985545 0.008704784
-0.20249413 -0.053149644 -0.014171485 -0.30779713 -0.11121429 -0.32250252 -0.15552096 -0.057549044
-0.25160143 -0.062146135 -0.06666527 -0.18063837 -0.047433395 0.0034465394 -0.22852607 -0.27137247
-0.26740745 0.0101784635 0.16984451 -0.07542323 -0.14450766 0.4001688 0.102140546 0.19153793
-0.01663042 0.22612059 0.21342838 -0.09605945 -0.2342218 0.13232385 0.089092195 -0.21431382
-0.04084562 0.08035595 0.10660717 0.07260802 -0.011512604 -0.32453924 0.051263034 0.07558491
-0.047461364 -0.18365797 -0.094352 -0.04708369 -0.073811546 0.18351161 0.060217667 0.03950006
-0.33088407 -0.10577965 0.0067137037 -0.13875718 -0.02761777 0.10684169 -0.02387501 -0.11939348
0.025900953 0.034047376 0.2143201 0.19027439 -0.13038367 -0.05808392 -0.21965808 0.084252
-0.1220616 -0.15403505 -0.076549046 0.073133074 -0.017597208 0.03197558 -0.12093982 -0.013518883
-0.06511477 0.22162881 -0.028414976 0.42761487 -0.08429177 -0.15427624 0.48531684 1.1799471
0.40736222 0.19588898 2.5959752 0.011481316 -2.3619344 0.1793467 -0.18292749 0.07797214
-0.026523957 -0.09999156 0.24558179 -0.09333324 0.14225277 0.22136724 0.11676017 -0.023105182
0.2845098 -0.308775 0.49764806 -0.5909208 -2.655194 0.09353766 1.1224668 0.27624902
0.0020301656 0.098751515 -0.13400525 0.1991969 0.17252648 -0.017326392 0.14943145 0.1502597

hidden.bias f4 [128]
00000000: cee8 f7bc b068 423c e544 5a3e 4a06 013d
00000010: 6a36 8abc 46f5 14be 5a01 a43e 80fb 3f3e
00000020: 332e 30be eca8 38be 9517 b3bd e2fe e5bd
00000030: 8801 07bd 2530 ac3d 2881 9c3e a86a acbd
00000040: 0dcc 03be ef92 2a3e 9bb2 49bd 5a56 0cbe
00000050: 8453 f03d 367e cd3d e802 4b3f 26b3 2fbe
00000060: 6a9a 7e3f ec23 9d3d d989 fdbd f7fe e23d
00000070: 5b23 d13c 1a8a 3bbe 43b6 253e d84c f13d
00000080: df64 29be 68ff d0bd 790b 89be 08fd d3bc
00000090: 4324 4ebc 08a4 95bd 9968 bbba c08e 06bc
000000a0: 8fe8 97bd 4a39 003c 0a69 113e 41c8 adbe
000000b0: 6432 883e 43d0 e5bd 933b c53e 1f23 efbd
000000c0: ff9d 8b3e 0e23 233f 82af 01be d452 69be
000000d0: 32e7 683e e590 953e f0b2 8a3f 5b40 063f
000000e0: 6cfd 90bc f949 a2bd 0bfc 4cbe cff8 1d3f
000000f0: 28fa e03d 12e2 593e d4cb 9abe 2109 aebe
00000100: f594 5a3e b1b9 153e 4eba d03d 9a14 f7bd
00000110: bb44 6d3e 31bb afbe 8754 79bd 8af6 803e
00000120: 0441 2dbe bfa3 503e bd44 5d3f f7d7 82be
00000130: e60e 3dbe 7b96 9ebe 559f 6e3e 94ee aa3d
00000140: d383 e0bc 92cf 7dbe fa77 5abe abdb 0ebe
00000150: ccc6 31bd c4ce aa3d 1419 033e 0603 e03e
00000160: c324 e93c 8d61 19be ba67 913d 5730 c83e
00000170: 4a05 40be 34a6 453e 708a 16bd fcfb f03c
00000180: 770c 33be 0d0b e63d 9193 b2be b725 82be
00000190: 390a 57be 63a6 703d 0f70 5ebc c0db cb3a
000001a0: 9543 d83d e6a9 a3be 414a a53e 1261 8cbe
000001b0: fc4e fb3d 1942 153e 0aa8 e53c 7433 b83d
000001c0: 5736 0c3e 7605 8dbc 77c6 073e ca37 12be
000001d0: 29ab dc3d 1cd3 d53d d2ed 003d eecb fbbd
000001e0: db06 bebd 00fc 9c3c 2011 d33d 284e 30bb
000001f0: da3e 743f 587a b63d fb20 253d 3e3a 92bd
-0.030262377 0.01186578 0.21315344 0.03150014 -0.01687165 -0.1454669 0.3203228 0.18748283
-0.17205124 -0.18033189 -0.08744732 -0.11230256 -0.032960445 0.0840762 0.30567288 -0.084187806
-0.12870808 0.16657613 -0.049242597 -0.13704816 0.11734679 0.100338385 0.7930131 -0.17158183
0.9945437 0.07672867 -0.12379808 0.11083787 0.025529554 -0.183144 0.16182809 0.11782235
-0.16542386 -0.10204965 -0.26766565 -0.02587749 -0.012581888 -0.07306677 -0.001429814 -0.008212745
-0.07417404 0.007826159 0.14200225 -0.33941844 0.26600945 -0.112213634 0.38522014 -0.11676621
0.2726898 0.63725364 -0.12664607 -0.22785503 0.22744444 0.29212108 1.0835857 0.5244195
-0.017698966 -0.079242654 -0.20018022 0.61707777 0.109852135 0.21277645 -0.30233634 -0.3399134
0.21345885 0.14621617 0.10191785 -0.12064476 0.2317075 -0.34322503 -0.060871627 0.25188094
-0.16919333 0.20374964 0.8643301 -0.25555393 -0.18462715 -0.30974182 0.23302968 0.083462864
-0.027406609 -0.24786213 -0.2133483 -0.13950984 -0.043402478 0.08340219 0.12802535 0.43752307
0.028459912 -0.14978619 0.070998624 0.3909938 -0.18752018 0.19301683 -0.036753118 0.02941703
-0.17485224 0.112325765 -0.3487821 -0.254194 -0.20999993 0.05875243 -0.013576522 0.0015553162
0.10559765 -0.3196556 0.32283214 -0.2741781 0.122709244 0.14575996 0.028034229 0.08994189
0.13692604 -0.017214518 0.13259302 -0.14279094 0.10774834 0.104406565 0.031476803 -0.12294756
-0.09278651 0.019163132 0.10306001 -0.0026902054 0.95408404 0.08910054 0.040314656 -0.07140015

output.weight f4 [16, 128]
00000000: 05cd ce3b d475 a83c a599 88bd ddc5 7f3e
00000010: 3375 d23d 14b4 29bd 5cb2 093d 6c63 f43d
00000020: 380e dc3c 1a6b 983d 313b 933d e40a b1bd
00000030: 8205 5a3d 9993 5a3d 98e7 c13d 6af7 c83d
00000040: 7f33 143e 1e01 f33c 4bab f83d b8b8 d93d
00000050: 54ff 4a3d 0fb5 293d 5e6d 7c3e f2d8 da3d
00000060: 80ca 7a3e 4ea4 863c c131 083c f1a1 2abd
00000070: 854a 8abd 398a ce3d 5505 7d3d 44ce 1d3d
00000080: 2e72 cf3d 77d5 a03d 1f60 abbc df12 33bd
00000090: e679 7d3d 3958 b33d d6ea 923d e7df 8b3d
000000a0: 3bfe af3d 2607 2b3e 1c97 c5bc 685e 8e3d
000000b0: c7cb 9bbd 6270 9fbc 4ea7 7e3e 6ae3 b03d
000000c0: 828b fcbb 7f15 bb3d 2ef0 823e 494b 1d3e
000000d0: 6751 7b3c 141b 943d 94e2 793e b3de 223f
000000e0: e89e cb3c b15e 12bc efad 973d 089d b63e
000000f0: 012f b2bd c73b 903d 1beb 893d c9a9 68bd
00000100: 0c34 ffbc 1054 0fbd 4fef 3a3d b739 c03d
00000110: 4019 6b3d 65af b33c ee86 aa3d 9c03 203e
00000120: b97e a5bd 9b97 833c ca0f 6c3e c672 66ba
00000130: 1e88 243b bf05 a03d 0bd4 92bd 6db2 6e3d
00000140: 749f 3e3d 98fa 5f3d 2719 493d f6d7 6f3d
00000150: 64fe 19bd 2cf0 0d3d b47f 843d 38bd 773e
00000160: e4c3 bd3c d102 bcbb 5048 a73d 1df0 3a3e
00000170: 80c9 9c3b 2e11 a23b 6328 883c cb86 ad3d
00000180: a571 35bd 2091 29bd eb8b 1cbd 6389 4e3d
00000190: ad62 943d 6ad7 793d d758 103b abb5 133e
000001a0: 7027 103d 0878 d73d 61cc ac3d 53dd 303d
000001b0: 8c2c 8bbd 427e 90bb ef2d 913d f9b5 17bd
000001c0: af59 f93d 9f84 7c3d 7e4f 8c3d 2e5b 813d
000001d0: bb41 2fbc 0cf1 653d 922b 8c3d 55d5 833d
000001e0: 8018 1b3e 9cd3 38bd 37a7 843d f741 a4bd
000001f0: 5d6f 663e 30ea bcbc ac8e 183d 1a3f 573d
00000200: 1e20 29bb 1985 393c 32ee 963d 12c3 5b3d
00000210: 9d9f fe3e d1ba 80bd 3e83 94bd c20d d0bc
00000220: 8584 393d 4760 323d 9645 023e b9ac 843d
00000230: a73f f13d 48b4 01bd 71ff 4e3d a90d dbbd
00000240: abd7 433d 40cc e53c 50cf 293e cc24 a6bd
00000250: c20a ec3d 11fd a63c df60 dd3e cb90 1dbd
00000260: 5bf7 b53d ee18 153d 40d7 2a3d 51ab 313c
00000270: 2a6e a6bd baf0 1f3e 6ba1 05bd 8155 db3d
00000280: 6cc1 283b 0843 303e 8227 0abc 0346 593d
00000290: af2a a33d 5124 2dbd be67 9d3c 1b88 ae3d
000002a0: baf4 f8bc 78b0 d93d 8132 8d3d f82e 48bf
000002b0: b72b 783d 2a78 f63d 2653 d03e 8db9 c63d
000002c0: 5b99 913c 7a6c 1dbd 528e fc3e d92d 8c3d
000002d0: 0c3f ab3d 0088 973c f46f e53e caf7 e0bc
000002e0: 4bf7 d53d dd2c 2b3c 8b8e 1a3e 1414 263e
000002f0: 9ace e73d cf4a 723d ebe2 d33d 8293 753d
00000300: d536 243e 81bc b1bc f2da 27bd 998f dd3d
00000310: 6252 123d 5c8d 603d a7bc 663d f8cf d0bb
00000320: be1e f73c 72d8 493c 90ce 283f d9db e53d
00000330: 7058 9a3c 3a90 1e3e b042 f43b 2b16 153e
00000340: d07e 203e 47fb 9d3d d95a ab3c ec83 de3d
00000350: aa3c 8b3d 5d7b 1bbe c4a2 443c 0247 17be
00000360: 853c a43d 4f4b 89bd 9abf 0b3e 97ca 933e
00000370: b723 66bd 9e0d d0bc b158 713d 0073 193e
00000380: 61e1 133e bd56 e03d a831 f53e 3321 e5bb
00000390: 5425 d23d f283 d33c 34c1 043e 9219 d73c
000003a0: b24e b5bd 0e8d 293d 4361 ea3c c71f a43d
000003b0: b4a1 c93d cbd1 9f3c 3496 403d 228d bc3d
000003c0: d2ff 90bd 0724 1b3d 0be5 6abb 1097 893d
000003d0: 4f51 4fbd 398d 54bd 3ad7 c53c 31a8 6e3c
000003e0: 4464 5d3d 1dd9 88bd 9274 6bbb 4750 5f3d
000003f0: e6ef 093e 29a8 753d cd0c 233d f762 833c
0.0063110613 0.020563997 -0.0666993 0.24977823 0.1027626 -0.0414315 0.033617362 0.11933026
0.026862249 0.07442303 0.07189024 -0.08644655 0.05322791 0.053363416 0.09468001 0.098128155
0.14472769 0.029663619 0.121420465 0.106309354 0.049559906 0.041432437 0.24651095 0.1068591
0.2449131 0.016435768 0.0083126435 -0.041658346 -0.06752495 0.10084958 0.061772663 0.03852679
0.101292 0.07853215 -0.020919858 -0.04371917 0.06188383 0.087570615 0.07173698 0.06829815
0.085934125 0.16701946 -0.024119906 0.069516 -0.07607227 -0.019462768 0.24868509 0.08637126
-0.0077070603 0.091349594 0.25573868 0.1536075 0.015339232 0.07231727 0.24402839 0.6362106
0.024856046 -0.008933709 0.07406222 0.3566668 -0.087003715 0.070426516 0.06734296 -0.056802545
-0.031152748 -0.034992278 0.04563838 0.09386008 0.057397127 0.02193422 0.08326517 0.15626377
-0.08080811 0.016063502 0.23052898 -0.0008790906 0.0025105546 0.07813596 -0.0716935 0.05827563
0.046538785 0.054682344 0.049096253 0.058555566 -0.03759612 0.034652874 0.0646967 0.24193275
0.023164697 -0.0057376404 0.081680894 0.18255658 0.004784763 0.0049458956 0.01662082 0.08472975
-0.044297833 -0.041398168 -0.038219374 0.05042399 0.072453834 0.06099645 0.002202561 0.1442477
0.03519386 0.10520941 0.0843742 0.04317982 -0.06795606 -0.0044095824 0.07088839 -0.037038777
0.12175309 0.061649915 0.068510994 0.06316219 -0.010696824 0.056138083 0.06844248 0.06437174
0.15146065 -0.04512368 0.06477206 -0.08020394 0.22503419 -0.023060888 0.037245438 0.052550413
-0.0025806497 0.011323237 0.07369651 0.05365283 0.4973115 -0.062856324 -0.07251595 -0.025397185
0.045292396 0.04354885 0.12721857 0.06478257 0.11779719 -0.03166607 0.050536577 -0.10695965
0.0478131 0.028051496 0.1658299 -0.08112487 0.115254894 0.020384343 0.4323797 -0.038468163
0.0888507 0.036400728 0.041709185 0.010844068 -0.08126481 0.15619174 -0.032624643 0.10709668
0.0025750054 0.1721307 -0.008432271 0.053045284 0.079671256 -0.042270962 0.019214507 0.08522054
-0.030390132 0.10629362 0.068943985 -0.7819667 0.060588565 0.12034638 0.40688437 0.0970336
0.01777332 -0.03843353 0.49327332 0.06844682 0.083616346 0.018497467 0.44811976 -0.027461905
0.10447558 0.010447708 0.15093438 0.16218597 0.11318703 0.059153374 0.103460155 0.059955128
0.16036542 -0.021696331 -0.040980287 0.10818405 0.035723098 0.05482231 0.056332257 -0.006372448
0.030166026 0.012319671 0.6594019 0.11223573 0.018840998 0.15484706 0.007454239 0.14559238
0.15673375 0.07713943 0.020917343 0.10865006 0.0679868 -0.15183778 0.012001697 -0.14773181
0.08019356 -0.06703817 0.13647309 0.288655 -0.056186404 -0.025397118 0.058922473 0.14985275
0.14441444 0.10954044 0.47889447 -0.006992483 0.10261026 0.025819752 0.12964326 0.02625731
-0.088529006 0.041394286 0.028610831 0.080138735 0.098452955 0.019509217 0.047018245 0.092066064
-0.07080044 0.037876155 -0.0035842087 0.06718266 -0.05061465 -0.051892493 0.02415048 0.014566467
0.0540507 -0.06682036 -0.0035927636 0.054519918 0.1347042 0.059974823 0.03980713 0.016038401

output.bias f4 [16]
00000000: f1f1 113c f7fa 293e cd44 163e c6f8 c2bd
00000010: 9669 853d b57d 9abc 5f46 bc3c 14d6 86bd
00000020: 2219 c23c 9041 243d 5274 0cbc 4225 3d3d
00000030: 5a95 9e3d d807 96bd 0c53 fdbc db48 903d
0.008907781 0.16599642 0.14674683 -0.09520106 0.065142795 -0.01885877 0.022982774 -0.06583801
0.023693625 0.040101588 -0.008572655 0.04617811 0.0774333 -0.07325715 -0.030923389 0.07045146
